part3_edge_optimization/dynamic_range.tflite (tflite, 339440 bytes, 16 tensors)

sequential_3/dense_6/BiasAdd/ReadVariableOp f4 [256]
000000 a8 53 b6 3c 05 b4 07 3e 9a 88 8e 3e f0 17 7b 3d
       0.022256687 0.13252266 0.27838594 0.061302125
000010 52 82 e3 3d b4 b2 2c 3e 25 01 22 3e 42 20 33 3e
       0.11108841 0.16865045 0.15820749 0.17492774
000020 f8 42 06 3e 6c 57 c6 3d fe 84 a4 bd 0e b8 d5 3d
       0.13111484 0.09684643 -0.08033179 0.10435496
000030 83 f9 23 3e 9a 35 97 3d 9f 1a 4f 3e 19 24 a0 3e
       0.1601315 0.073832706 0.20224999 0.3127754
000040 14 55 2e 3e 09 cc 37 3e 30 e0 5f 3e 0c 6a 62 3e
       0.17024642 0.17948927 0.21862864 0.22110766
000050 d1 bd cf 3c eb 66 10 3e e5 0e 41 3e 8e 47 d2 3d
       0.025359066 0.1410176 0.18853338 0.10267554
000060 e1 c2 22 3e 57 fa c6 3d 49 57 84 3e ae 95 35 3e
       0.15894653 0.09715717 0.25847843 0.1773288
000070 5c 37 25 3e b4 2b 57 3e a9 ae 75 3e 12 f3 19 bc
       0.16134399 0.21012765 0.23992409 -0.009396331
000080 94 7f 2f 3d 61 d9 ff 3c b2 63 bd bd 4d df 2c 3e
       0.042846277 0.031231584 -0.09247531 0.16882057
000090 03 bf 8a 3e fa 97 4e 3e 8d f9 26 3e ee ad d6 3d
       0.27098855 0.20175162 0.16306134 0.10482393
0000a0 25 bf f7 3c 14 81 35 3e 50 a8 5d 3e fb 52 9b 3e
       0.030242512 0.1772502 0.21646237 0.30336747
0000b0 f2 6f 95 bd 80 b8 91 3e fb 7e 1e 3e 80 94 2f 3e
       -0.072967425 0.28461075 0.15478127 0.17146492
0000c0 bd 8f 98 3d fd 05 94 3e 0f 4d 85 3e 48 ed 28 3e
       0.07449291 0.2891082 0.26035354 0.16496766
0000d0 04 dd ac 3e df ee 75 3e 43 98 0a 3e 43 45 c5 3d
       0.33762372 0.24016903 0.13534646 0.09632351
0000e0 65 1d 78 3e 4a c7 85 3e cd 49 f7 3d 7d 24 71 3e
       0.24229963 0.26128608 0.12074623 0.23549075
0000f0 72 f3 48 3e 4f 65 1f 3e 87 ec 35 3e 6e 44 8f 3e
       0.19624117 0.1556599 0.1776601 0.27981895
000100 96 7a d7 bd 84 85 4c 3e ea 15 00 3e 52 c9 42 3e
       -0.10521428 0.19972807 0.1250836 0.1902211
000110 9f 99 c8 3c 06 0a 7e 3e ef 59 c3 3d e3 53 80 3e
       0.024487315 0.24808511 0.09538638 0.25064
000120 eb 06 81 3e f4 d7 7a 3e 13 ea 5f bc 7a 04 94 3e
       0.2520059 0.24496442 -0.0136666475 0.28909665
000130 49 69 d4 3d 48 fc 01 3e a8 01 8e 3e 09 0a 6b 3e
       0.10371644 0.12693894 0.2773564 0.22953047
000140 d0 6b 32 3e 02 ae 23 3e 8c e2 fc 3d fd d2 56 3e
       0.1742394 0.15984347 0.12347898 0.20978923
000150 17 29 8e 3e 67 89 2e 3e e8 aa 07 3e 61 b1 16 3e
       0.27765724 0.17044602 0.1324879 0.14716102
000160 07 f3 93 3e b9 26 02 3e 76 3f 35 3e c0 41 35 3e
       0.28896353 0.12710084 0.1769999 0.17700863
000170 f6 b2 45 3e 55 76 a5 3d a3 6d 2e 3d 6c 79 5b 3e
       0.1930655 0.08079211 0.042585026 0.21433038
000180 bf 2c f8 3d 88 f5 52 3e cd bf 7e 3e 86 08 65 3e
       0.1211791 0.20601475 0.24877854 0.22366533
000190 fa ac 15 3e 82 37 16 3e a4 e3 e5 3d 10 0d df 3d
       0.14616767 0.14669612 0.1122506 0.10891163
0001a0 f3 b5 65 3d 3d 95 a4 3e e8 a2 0e 3e 71 4f 43 3d
       0.056081723 0.3214511 0.13929331 0.047683183
0001b0 db 35 b7 bd 44 d5 13 3e f8 f4 55 3e 3a 1e 4a 3e
       -0.08945819 0.14436823 0.2089423 0.19738093
0001c0 1b 39 ca 3d d1 a1 0c 3e 03 04 a1 3e fc a0 7b 3e
       0.09874173 0.13733603 0.31448373 0.2457313
0001d0 d4 1c 54 3e db de 3a 3e 71 95 81 3d f3 7c 59 3d
       0.20714122 0.18249075 0.06327332 0.053097676
0001e0 65 5d 25 3e 8a ff 76 3e b9 34 74 3e b7 ca ff 3d
       0.16148908 0.24120918 0.23848237 0.12489837
0001f0 06 1c 3d 3e d4 db b8 3d ef ee c0 3d 69 cb 53 3e
       0.18467721 0.09026304 0.09420573 0.20683064
000200 fa 69 a4 3d db 61 97 3e 86 b7 86 3e 8c a5 47 3e
       0.08028026 0.29566845 0.26311892 0.19496745
000210 0b 9e 24 3e 5f 29 a2 3d 71 c2 2b 3e 49 87 21 3e
       0.16075914 0.07918047 0.16773392 0.15774263
000220 21 b2 df 3d 06 f9 0e 3e cd 75 5a 3c f7 49 9b 3c
       0.10922647 0.13962182 0.01333375 0.018956168
000230 c6 8f 35 3e 5b bb 44 3e 46 71 35 3e e5 d5 21 3e
       0.17730626 0.19212095 0.17718992 0.1580425
000240 2e 83 60 3e 81 d1 ce 3d 72 4b 06 3e 65 e8 5e 3e
       0.21925041 0.100985534 0.13114718 0.21768339
000250 6a 0b bc bd b2 9d 03 3e 10 32 4b bd 0b 42 04 3e
       -0.091818646 0.12853125 -0.04960829 0.12915818
000260 4b f6 c7 3c 61 fa 4f 3d 2a f4 34 3e fc d9 11 3e
       0.024409434 0.05077589 0.17671266 0.1424331
000270 c3 00 92 3e 0d 59 80 3e da 80 bc 3d d1 41 38 3e
       0.28516206 0.2506794 0.09204264 0.17993857
000280 59 41 00 3e 47 75 46 3e 3a c6 24 3e d7 05 82 3e
       0.12524928 0.19380675 0.16091242 0.2539508
000290 43 ee 41 3e d7 9e 7a 3e 78 f8 05 3e bd ab 3f 3e
       0.18938546 0.24474655 0.13083065 0.18717857
0002a0 ed 2c 21 3e be 61 76 3e 64 bd c1 3d de 51 ce 3d
       0.15739794 0.24060723 0.094599515 0.10074209
0002b0 a5 21 69 3e 27 7e 35 bc c4 c4 88 3d 00 cf 20 3e
       0.2276674 -0.01107744 0.06678155 0.15703964
0002c0 ba 89 42 3e 2c 5c f3 3d 4b aa 99 3e 79 2d 7e 3e
       0.18997851 0.11882815 0.30012736 0.24822034
0002d0 84 73 28 3e 70 9d 93 3e 32 33 38 3e 30 d1 01 3d
       0.16450316 0.28831053 0.1798828 0.031693637
0002e0 3f ba 9b 3d 3f d3 01 3e df b8 61 3e 93 10 10 3e
       0.07603883 0.1267824 0.22043179 0.14068823
0002f0 03 bb c4 3d 91 d3 40 bc 63 68 32 3d 3c ae 6d 3d
       0.09605982 -0.011769191 0.043556582 0.05802749
000300 fa 39 07 3e 65 0c b5 3e 26 bc ba 3d 7d 2c 53 3e
       0.1320571 0.3536102 0.09117918 0.2062244
000310 2c e3 3a 3e 1b 4b 95 bd 25 40 21 3e 1a d8 6c 3d
       0.18250722 -0.07289716 0.15747125 0.057823278
000320 47 2f 0d 3e e0 8f 2c 3e 3d 89 32 3e a0 a2 79 3e
       0.13787566 0.16851759 0.17435165 0.24378443
000330 4d e5 2d 3e 70 a1 36 3e c8 14 ae 3d 5a 06 f3 3d
       0.16982003 0.17835021 0.085000575 0.11866446
000340 20 c9 41 3e 6a 2c 4d 3e 39 59 9a 3e 87 b6 43 3e
       0.1892438 0.20036474 0.30146196 0.19112597
000350 b2 99 5e 3e 85 0e 57 3e e9 ba d7 3d ed 30 03 3e
       0.21738318 0.21001633 0.10533697 0.12811632
000360 85 84 30 bb 32 bd 4c 3e ea f6 a1 3e 99 fd 5d 3e
       -0.0026934457 0.19994047 0.31633693 0.21678771
000370 80 6b 88 3e 9e c7 6f 3e fc 23 95 bc 3d 81 a5 3d
       0.26644516 0.23415992 -0.018205635 0.08081291
000380 39 a8 6a 3e ea d9 ba 3e 53 5c 90 3e a7 94 49 3e
       0.22915734 0.3649438 0.28195438 0.19685613
000390 f9 f3 d9 bd 49 ce 25 3e 32 3f cd 3d 32 14 83 3d
       -0.10642237 0.16191973 0.10021819 0.06400336
0003a0 ce 6a 44 3e f7 87 8b 3e aa 81 15 3e 8b 31 04 3d
       0.19181368 0.2725217 0.14600244 0.03227381
0003b0 3b 63 d9 3d bd 3e 8b 3e d0 27 25 3e da 19 70 3d
       0.1061463 0.27196303 0.16128469 0.058618404
0003c0 c3 ba 28 3e b6 a4 90 3e 2c 4a 37 3e 8f 04 1b bb
       0.16477494 0.28250664 0.17899388 -0.002365384
0003d0 e0 d4 31 3e 70 9b 68 3d cb c3 83 3e bd c7 39 3e
       0.17366362 0.05678886 0.25735316 0.181426
0003e0 bd 23 95 3d 1b 26 62 3e 72 a0 8c 3e fd bd 8d 3e
       0.07282207 0.22084849 0.2746616 0.27684012
0003f0 d9 17 57 3e 8b 29 7e 3e 46 56 29 3e a8 1d 95 3d
       0.21005191 0.24820535 0.16536817 0.07281047

sequential_3/dense_7/BiasAdd/ReadVariableOp f4 [10]
000000 b4 34 11 3d a6 e0 d6 bd fa 3c 98 3d cf b6 6d 3e
       0.035450652 -0.10492067 0.07433505 0.23214267
000010 00 14 38 bc b0 bb 3b be 00 ef 08 bc 27 46 9e 3c
       -0.011235237 -0.18333316 -0.008357763 0.01932056
000020 ae ed aa bd 3f 4d da bc
       -0.08346115 -0.026648162

sequential_3/re_lu_18/Relu;sequential_3/batch_normalization_18/FusedBatchNormV3;sequential_3/conv2d_18/BiasAdd/ReadVariableOp;sequential_3/conv2d_18/BiasAdd;sequential_3/conv2d_19/Conv2D;sequential_3/conv2d_18/Conv2D f4 [32]
000000 05 5f 80 bf b7 fe f1 3e c4 a6 86 3f 11 be b1 bd
       -1.0028998 0.47264645 1.0519643 -0.086788304
000010 93 76 75 bf 0a d2 80 3e 14 f1 cf bf 19 4d 80 3f
       -0.95884055 0.25160247 -1.6245446 1.0023528
000020 d0 58 89 bf 30 60 4d bc ea 4a 67 3e d7 90 19 3f
       -1.0730228 -0.01253514 0.22587171 0.59986633
000030 a4 d2 cc 3e 5c 40 c3 3e 30 cc 0b 3f 3c c8 62 3f
       0.40004456 0.3813504 0.5460844 0.88586783
000040 50 16 09 3f 04 49 2b 3f 9d 5d bb bd 4a 43 32 3f
       0.5354967 0.6690829 -0.09148715 0.69633925
000050 4e 52 af 3e 08 cd ab 3e b1 13 3b 3f 58 ad 89 3d
       0.3424248 0.33554864 0.7307692 0.06722516
000060 65 1a 9b 3e 8a 60 8b 3e 72 d5 d8 3e 08 d4 8d 3f
       0.30293575 0.2722209 0.42350346 1.1080332
000070 39 f1 bb 3e c5 92 12 3f b4 c9 f3 be 30 64 ed 3e
       0.36707476 0.572552 -0.47614825 0.463655

sequential_3/re_lu_19/Relu;sequential_3/batch_normalization_19/FusedBatchNormV3;sequential_3/conv2d_19/BiasAdd/ReadVariableOp;sequential_3/conv2d_19/BiasAdd;sequential_3/conv2d_19/Conv2D f4 [32]
000000 51 24 8d 3e a5 7b 8b 3e 2d 8f b1 3e d2 7c bc 3e
       0.2756677 0.2724277 0.34679547 0.3681398
000010 4f d5 05 3d e4 20 bf bd 2a bb 97 bd c0 a0 67 bf
       0.03267413 -0.09332445 -0.074087456 -0.9047966
000020 0c 03 ed 3d 55 77 00 c0 b8 6c 30 be 22 51 84 be
       0.11572847 -2.0072834 -0.17228973 -0.2584315
000030 27 cc 75 3e b6 80 6e 3f ae 5d 04 3f 11 36 82 3f
       0.24003659 0.9316515 0.51705444 1.017275
000040 00 c1 a4 3b 55 5b e2 3e 9c e5 36 be 9d fd 61 3f
       0.00502789 0.44210306 -0.17861027 0.8827761
000050 eb ea a1 3e 28 f4 4d 3f ae 7b a9 3e ee e8 1d 3f
       0.3162454 0.8045068 0.33102173 0.6168355
000060 a3 f1 2f 3f e1 bc 2c 3f af a3 26 be bb 56 d1 bf
       0.68728083 0.67475706 -0.16273378 -1.6354593
000070 ec 47 92 3e bd 4f 93 3e 09 56 bb 3f 8d 82 15 3f
       0.28570497 0.28771773 1.4635631 0.5840233

sequential_3/re_lu_20/Relu;sequential_3/batch_normalization_20/FusedBatchNormV3;sequential_3/conv2d_20/BiasAdd/ReadVariableOp;sequential_3/conv2d_20/BiasAdd;sequential_3/conv2d_21/Conv2D;sequential_3/conv2d_20/Conv2D f4 [64]
000000 cc f4 1d 3e 32 c1 90 3d 8e 3d 36 bf f9 12 13 3f
       0.15425414 0.07068099 -0.71187675 0.57450825
000010 cb 88 c9 be 99 13 81 3f 1f 26 58 3d 01 54 a6 be
       -0.39362177 1.0084106 0.05277073 -0.32485965
000020 a6 0f 59 3e a8 4c 1f 3f 53 e5 28 3f 7c fe 05 3f
       0.21197376 0.62226343 0.6597492 0.5234144
000030 45 79 c1 3e b0 16 8b 3e dd cc 5b 3d fc 03 99 bd
       0.37787834 0.27165747 0.05366217 -0.07471463
000040 1f cf 47 3f 93 92 35 3f fc 30 83 3f da 86 38 3f
       0.78050417 0.7092678 1.0249324 0.7208077
000050 8f be 28 bf 91 0e fa 3e 11 97 13 3f a3 25 84 bd
       -0.6591577 0.48839238 0.57652384 -0.06452491
000060 79 40 fb 3e 04 4e 3f 3e 97 c0 8b be a4 0f 8b 3f
       0.49072626 0.18682104 -0.27295372 1.0864148
000070 09 4b 25 3f ea 44 4f 3f 6d cd 9d 3e 02 1b 3d 3f
       0.6456762 0.8096453 0.3082079 0.73869336
000080 58 76 6f bd 1e 4c b7 3e 3f 2e e9 3d 43 ca 80 be
       -0.05846247 0.3580026 0.11385774 -0.25154313
000090 3d 17 ca bd 8c 47 6b 3f 83 27 b5 bc 7e 76 c1 3e
       -0.098677136 0.91906047 -0.022113567 0.37785715
0000a0 33 29 c3 be 31 4d bb 3e 5e aa c7 be 55 26 2a 3e
       -0.3811737 0.3658233 -0.38997167 0.16616185
0000b0 d4 c1 57 3e 8e a3 52 be ba e3 0b 3e 21 f6 df 3e
       0.21070033 -0.20570204 0.1366109 0.4374247
0000c0 27 fd 46 bd 9c 95 4f 3f da 11 ba 3e b6 f0 de 3e
       -0.04858127 0.8108766 0.36341745 0.43543023
0000d0 18 30 0d 3d 6f d7 34 3f 77 75 ae 3e e8 3d 6d 3e
       0.034469694 0.70641226 0.34073994 0.23168147
0000e0 53 5b 5c 3f 13 1b a7 3f 5e b0 d5 3e 4e 51 5c 3f
       0.8607685 1.3055137 0.4173612 0.8606156
0000f0 d8 e8 99 3d 8f a8 2b be c8 5d 3e 3f a5 76 b7 3e
       0.075151145 -0.16763519 0.7436185 0.35832706

sequential_3/re_lu_21/Relu;sequential_3/batch_normalization_21/FusedBatchNormV3;sequential_3/conv2d_21/BiasAdd/ReadVariableOp;sequential_3/conv2d_21/BiasAdd;sequential_3/conv2d_21/Conv2D f4 [64]
000000 43 81 7b 3c 45 8d b4 3e c2 6d c7 3e 06 03 7f 3f
       0.015350643 0.3526403 0.38950926 0.9961399
000010 1f c3 17 3f 87 c4 36 3f e1 ce 8a 3f aa 17 e1 3e
       0.59282106 0.71393627 1.0844384 0.43963367
000020 fd e6 73 3f 62 68 9e be a9 bd 33 3f 69 08 90 be
       0.95274335 -0.30939013 0.70211273 -0.28131416
000030 49 1e 3e 3f 09 6e 27 3f 19 13 09 3e c3 5c af 3e
       0.7426496 0.65402275 0.13386191 0.3425046
000040 d5 a2 96 3e e1 61 91 3f 30 a0 40 3f 61 bb 17 3f
       0.29421106 1.1357995 0.75244427 0.5927029
000050 9f ba a7 3e eb 11 e3 be 30 71 d5 bd fc 9d c0 3f
       0.32759568 -0.44349608 -0.104219794 1.5048213
000060 a9 a1 96 3f 84 27 67 bc 67 bb a2 3f cd fe ae 3e
       1.1768085 -0.014108542 1.2713441 0.34178773
000070 4c ef 62 3f c5 1f 5e bf 7c 68 09 3e 9e 6f df 3e
       0.8864639 -0.86767226 0.13418764 0.43639845
000080 cc fc 7f 3e 77 87 4a be 95 a3 11 3f 21 7a c7 bd
       0.24998778 -0.19778238 0.5689023 -0.09740091
000090 9c d8 bd bc 3e fa 38 3e 24 dc c0 3e c8 32 cb 3d
       -0.023174576 0.1806421 0.37667954 0.09921795
0000a0 95 02 71 3f dd 2a 8c 3f d0 39 7b 3f fe ed 98 3e
       0.94144565 1.0950581 0.9813509 0.29869074
0000b0 6b 15 83 3f b1 f6 6d 3f 08 85 9e bd 45 f3 22 bf
       1.0240911 0.92954546 -0.077402174 -0.6365245
0000c0 85 51 b2 3f 28 9f e4 bd bd c6 eb be fd d5 fb 3e
       1.3931128 -0.11163169 -0.46050063 0.49186698
0000d0 91 ba 84 3e e9 4e 6b 3f 93 53 ae 3d f5 e1 39 be
       0.2592359 0.9191728 0.08512034 -0.18152602
0000e0 99 3c db 3e 90 46 46 bf 8e 75 cb bc aa 48 a7 3f
       0.4281967 -0.7745142 -0.024836328 1.306905
0000f0 18 4c 81 3f 34 21 a2 3f 2c b0 84 3f 8d b3 7b 3f
       1.0101347 1.2666383 1.0366263 0.9832085

sequential_3/re_lu_22/Relu;sequential_3/batch_normalization_22/FusedBatchNormV3;sequential_3/conv2d_22/BiasAdd/ReadVariableOp;sequential_3/conv2d_22/BiasAdd;sequential_3/conv2d_23/Conv2D;sequential_3/conv2d_22/Conv2D f4 [128]
000000 3c a8 18 bf e9 d1 ca bf 8b 50 75 3f 1f d7 55 be
       -0.59631705 -1.584531 0.95826024 -0.20882843
000010 83 4c 34 3e 54 e7 38 bf 76 f9 80 3e 45 12 af 3e
       0.17607312 -0.7222798 0.25190324 0.34193626
000020 6d a2 ae be 2d 18 4a 3f d6 70 87 bf b9 0a 7d bf
       -0.34108296 0.7894314 -1.058131 -0.98844486
000030 c4 96 75 bf 78 ef e9 be ea 00 b6 3e 84 d6 55 3f
       -0.95933175 -0.45690513 0.35547572 0.8353045
000040 bb 95 bb be 8b d0 2e bf fa 59 e2 be 80 0b a5 bf
       -0.36637673 -0.6828696 -0.44209272 -1.2894135
000050 d6 18 fb be 26 90 03 3f e0 c6 5c 3f 6f 97 62 bf
       -0.49042386 0.5139183 0.8624096 -0.8851232
000060 46 96 80 3f a2 2e 2a be f4 1b a0 bf 36 64 86 3e
       1.004586 -0.16619352 -1.2508531 0.2624833
000070 c4 69 08 bf da 36 11 bf 54 d5 27 be 96 0d 9a bf
       -0.53286386 -0.5672432 -0.16389972 -1.2035396
000080 9d 0d 10 3e 6a 56 9b be 25 87 0a be cb 1b 38 bf
       0.14067693 -0.30339366 -0.13528116 -0.7191741
000090 7b 42 c9 bf c0 5b 5a bc eb bc b3 bf 7a 40 a4 3e
       -1.5723413 -0.013327539 -1.4042028 0.32080442
0000a0 3e 57 2e bf 82 7e 37 bf 65 b5 0f bf 86 38 80 be
       -0.6810187 -0.7167741 -0.5613616 -0.25043124
0000b0 2f ad a8 3e 86 63 1f bf 4d 0d e2 3e f0 1d ca be
       0.3294463 -0.62261236 0.44150773 -0.39475965
0000c0 0a 67 ab be 38 a8 6a be 6e c3 e0 be 2a c1 0b bf
       -0.3347705 -0.22915733 -0.438991 -0.5459162
0000d0 cd 3e e8 be 56 48 22 bf 2e 36 d8 be 5f 83 53 3f
       -0.45360413 -0.63391626 -0.42228836 0.8262233
0000e0 bf 96 87 be e8 7e 1f bf 5a 47 c2 be fd a0 a6 3d
       -0.26482198 -0.6230302 -0.37945062 0.08136175
0000f0 46 ba 33 3e c6 c3 00 bf eb b2 a3 bd a6 1c 03 be
       0.17551526 -0.50298727 -0.0799311 -0.12803897
000100 37 ef 30 3f 41 fa 9b 3e b1 99 19 3f 29 71 e7 bf
       0.6911501 0.30464366 0.6000014 -1.8081409
000110 1f 53 5c bf 42 01 33 3f 65 98 4b 3b 81 73 eb be
       -0.8606433 0.69923794 0.0031066176 -0.4598656
000120 6f 93 90 bf da 37 e3 3e 1c 75 ea be 10 1c 35 3f
       -1.1294993 0.4437855 -0.45792472 0.70745945
000130 de 0c 8d bf b7 b3 55 be 48 07 5e 3f 02 2d 9d 3e
       -1.1019552 -0.20869337 0.8672986 0.306984
000140 fc f3 a7 bd 02 79 e2 bd 43 3d 53 bf da 88 15 bf
       -0.08200833 -0.11058237 -0.8251535 -0.58411944
000150 e5 cb c5 3e e4 37 bd 3e 8c 26 5f bf d4 2c 54 bf
       0.38632122 0.36956704 -0.8716819 -0.828809
000160 96 7c a2 bf 3b a0 4c bf a9 60 69 bf ed cd 08 be
       -1.2694271 -0.7993199 -0.91163117 -0.13359804
000170 84 88 bd bf c4 ff 97 be 11 b6 87 3f d2 94 e0 bf
       -1.4807286 -0.2968732 1.0602437 -1.7545416
000180 e4 41 78 bf 72 9b f0 bf 00 5d 11 3f d8 25 d0 3e
       -0.9697554 -1.8797438 0.5678253 0.40653872
000190 95 fb 89 bf 5e 2a 92 bd 88 58 b5 3f 84 2f 86 3c
       -1.0779902 -0.07136987 1.4167643 0.01638008
0001a0 4f 3e 89 3f ea 08 27 3e 1e 4f 9f 3e ce a8 0c 3d
       1.072214 0.16311994 0.3111505 0.034340672
0001b0 b2 23 60 3d a6 18 63 be ea 0d 80 ba 90 92 86 3f
       0.05472154 -0.22177371 -0.0009769772 1.0513477
0001c0 47 43 6f bf 23 ff c6 be c8 11 10 bf ad 32 40 3f
       -0.9346203 -0.3886653 -0.5627713 0.75077325
0001d0 e4 09 43 3e fa 30 8f bf 00 cc 08 3e 60 3e 0d bf
       0.19046742 -1.1186821 0.1335907 -0.551733
0001e0 cc b5 01 3e 75 1b c2 3e 28 3f a0 3e af 79 0f 3f
       0.12667006 0.37911573 0.31298184 0.5604505
0001f0 e0 4f 0f bf e7 6d a2 be 54 94 7b bf 41 82 74 3e
       -0.55981255 -0.31724474 -0.98273206 0.23877813

sequential_3/re_lu_23/Relu;sequential_3/batch_normalization_23/FusedBatchNormV3;sequential_3/conv2d_23/BiasAdd/ReadVariableOp;sequential_3/conv2d_23/BiasAdd;sequential_3/conv2d_23/Conv2D f4 [128]
000000 d0 bb 3e 3e 9c c6 9d bd 50 2a 04 3e 31 81 8d be
       0.18626332 -0.07703897 0.12906766 -0.27637628
000010 d4 1d 8a be 27 cd 4f be 71 73 9d 3e 35 55 df 3d
       -0.26975882 -0.20293103 0.30752137 0.10904924
000020 92 f3 e2 bc 69 51 2e be 72 e7 65 3e 53 c1 20 bf
       -0.027704034 -0.17023243 0.2245157 -0.6279499
000030 87 0f 5e 3e dc 5c ae be 65 bb 0e be 87 b7 7b 3d
       0.2168561 -0.3405522 -0.13938673 0.061454322
000040 6e e6 25 bf 6f ae 89 bc 80 1f 3b bd 40 8b 71 3c
       -0.6480473 -0.01680681 -0.045684338 0.014742672
000050 cc f6 10 bd 6b a0 0e 3d e6 d7 ee bd 6f 80 34 be
       -0.035391614 0.034820955 -0.11662273 -0.17627119
000060 08 2c 18 bf f0 61 2a 3e 13 46 5a 3e f0 31 f9 bd
       -0.59442186 0.16638923 0.21315794 -0.12167728
000070 38 e3 fe be e3 24 a8 3d 57 3e b1 be d2 65 4c 3e
       -0.4978273 0.082101606 -0.34617874 0.19960716
000080 f8 35 ac be 21 56 19 bf ac 13 7e be 5e 2c b3 bd
       -0.33634925 -0.5989705 -0.24812192 -0.08748697
000090 8f a2 b0 be 5e a9 4b 3e 1b 1e 81 3e cb 55 ad be
       -0.34499022 0.19888827 0.2521828 -0.33854517
0000a0 46 ba 17 be 2d 59 0a be e1 84 8e be 24 2e 4b 3c
       -0.14817151 -0.1351058 -0.27835754 0.0124011375
0000b0 e8 bf 05 3e 7a a1 b9 3e 6f 26 24 3e 70 76 03 3b
       0.13061488 0.3625601 0.16030286 0.0020059608
0000c0 1b 4f 38 be 50 9f bc bd 85 66 69 3c 27 8d 1f bd
       -0.17998926 -0.09210074 0.014245634 -0.038952973
0000d0 3c 1f 4e be 7b da 44 bd 02 44 30 3c 65 88 5a 3c
       -0.20129102 -0.04805992 0.010758402 0.013338183
0000e0 49 78 09 3e 9e 3d db be d6 53 f1 be 40 c3 a4 be
       0.13424791 -0.42820448 -0.47134274 -0.32180214
0000f0 48 54 8c 3e 52 72 6e be bb 03 a8 be 5e e7 0d 3d
       0.27408051 -0.23285797 -0.32815346 0.034644477
000100 1e 15 31 3d 20 f7 4e bc 71 1e 82 3e 3e 9c d9 bd
       0.04323303 -0.012632161 0.2541385 -0.10625504
000110 f7 42 31 be 58 a5 e0 3d 1a 47 19 be 58 5c 06 bf
       -0.17310701 0.10969037 -0.1496853 -0.52484655
000120 7b d9 50 be e4 12 a4 3c 02 61 7b be b1 8d d1 bd
       -0.20395462 0.020028539 -0.24548724 -0.102321036
000130 7b b5 7e be 76 69 bf bc 42 a6 f7 3d e7 80 88 be
       -0.24873917 -0.023365717 0.12092258 -0.26660845
000140 5a 18 98 be 81 08 25 3e 12 25 95 ba 02 db 81 bd
       -0.2970608 0.16116525 -0.0011378846 -0.063406006
000150 3a 5f 35 be 97 df 1f be 06 d5 8c be 6f af 13 be
       -0.17712107 -0.15612637 -0.27506274 -0.14422391
000160 b5 bf 35 be 33 3d 73 be 61 b7 4b be 81 c3 35 be
       -0.17748912 -0.23753814 -0.19894172 -0.1775036
000170 8b ba 30 be b8 f2 c0 bd 92 b9 ca bd bf 6c 51 be
       -0.1725866 -0.09421295 -0.09898676 -0.2045164
000180 69 99 a5 be 72 15 82 be e5 a6 d0 be 5c 36 c0 bd
       -0.32343605 -0.25406986 -0.4075233 -0.09385368
000190 1d 1f d6 bd 01 60 5b be cf 7a 14 bf 6f 7c c2 be
       -0.10455153 -0.21423341 -0.5799989 -0.3798556
0001a0 b5 87 77 bd 67 8b 7a be 93 e5 8d bd 90 f3 83 3e
       -0.060432155 -0.2446724 -0.069285534 0.2577176
0001b0 4c 3d 79 be c2 81 d9 be 89 06 a0 3d a9 9b af bd
       -0.24339789 -0.4248181 0.078137465 -0.08574612
0001c0 2d cc a0 be 04 6d c6 be 53 59 6a be e8 35 06 3d
       -0.31405774 -0.38755047 -0.22885637 0.032766253
0001d0 1a 6d d2 be ea 90 c0 bd e8 84 02 bf 18 0d 48 be
       -0.41098863 -0.0940264 -0.5098405 -0.19536245
0001e0 4d bc 4e 3e 45 54 1f be 4b f9 1b bf f4 65 e7 bd
       0.20189019 -0.1555949 -0.60927266 -0.11298743
0001f0 9a ed d2 39 97 37 43 bc 4d 39 b0 be 87 7c 25 3e
       0.00040231348 -0.011915109 -0.34418717 0.16160785

sequential_3/conv2d_18/Conv2D f4 [32, 3, 3, 3]
000000 1d a7 ff be 8e c6 2f bf 78 df 0f bf 99 23 32 3e
       -0.49932185 -0.68662345 -0.5620036 0.17396392
000010 9b c9 58 bf 16 ea 02 bf 26 ea 18 3f db e2 81 3e
       -0.84682626 -0.51138437 0.5973228 0.2536839
000020 bd 16 3c 3f 0e 7b 93 3e 3c c1 08 bd f2 84 21 bf
       0.73472196 0.2880482 -0.033387408 -0.63093483
000030 45 5c f2 be 03 0d 9d 3e 43 01 68 bf fb 58 ba 3e
       -0.4733602 0.3067399 -0.90626925 0.36396012
000040 f7 78 06 3f 81 60 ae 3e ab 16 2a 3e 5c 01 00 3f
       0.5252833 0.34058002 0.1661021 0.50002074
000050 2c 81 f1 3e 2f 60 ea bd 19 4c 32 3f e2 ec 0e 3f
       0.47168863 -0.11444127 0.69647366 0.55830204
000060 e6 c4 b8 3e 1b 74 33 3f 8b 61 ce bd 79 12 2b 3f
       0.36087722 0.7009904 -0.100771986 0.6682506
000070 2c 3c 94 3d d7 48 8a 3c 0b 8b c0 bd 21 70 2d bf
       0.072380394 0.016880436 -0.0940152 -0.6774922
000080 42 83 2f bf 04 d2 15 bd 4f b1 1d 3f 5a d2 24 bf
       -0.6855966 -0.03657724 0.61598676 -0.6438347
000090 f0 50 89 3f 0b 9f aa 3f 1a ec a5 3f 01 f8 9e bf
       1.0727825 1.3329786 1.2962677 -1.2419435
0000a0 cd 12 8d bf 7d 31 07 3e e6 4e 97 be 7d c6 ee 3e
       -1.1021363 0.13202472 -0.29552382 0.4663581
0000b0 4a 1d 9c bf 01 d3 06 3f e1 7f 55 3f 13 e4 c7 3f
       -1.2196438 0.52665716 0.8339825 1.5616478
0000c0 11 3b 83 3e 04 f8 98 be e6 4c 0f be 22 80 69 bf
       0.25631002 -0.2987672 -0.13994178 -0.9121114
0000d0 7f ec 33 bf ec 0f 70 bf 3c 86 2d 40 0b e9 59 bf
       -0.7028274 -0.93774295 2.711318 -0.8512122
0000e0 83 73 29 40 ab 64 7a be ff 7f 91 c0 0c fc 26 3f
       2.6476753 -0.24452464 -4.5468745 0.65228343
0000f0 40 b1 4f 40 23 28 33 3f e8 76 90 3f da e4 af bf
       3.2451935 0.6998312 1.1286287 -1.3741715
000100 ee eb 0d 40 34 0e 01 3f f2 db 03 c1 e8 bb 04 c1
       2.217525 0.504123 -8.241198 -8.295876
000110 bc d6 9a c0 0c 23 9d 40 65 59 c5 3f 8b 06 f9 3f
       -4.8387127 4.910528 1.5417906 1.9455122
000120 13 d6 1e bf aa ba b0 40 ec f0 40 40 54 cb 03 40
       -0.620454 5.522786 3.0147047 2.0592852
000130 a9 c6 21 40 89 11 69 c0 ac 85 02 c0 52 df 44 3f
       2.5277503 -3.6416953 -2.0394087 0.7690326
000140 7b c3 59 bf 25 b2 2d bd 1d 59 83 bf a3 68 5d 3f
       -0.85063905 -0.04240622 -1.026157 0.8648779
000150 2f b6 2a 3f 0f 79 e0 be a3 2e dc 3f 21 66 ca be
       0.6668424 -0.4384236 1.7201732 -0.39531043
000160 3d 8c 82 bf 4b b4 04 bf fb a7 60 3f fb 49 cc bf
       -1.0199047 -0.51837605 0.8775632 -1.5960077
000170 4c 34 a2 3f cb ad 07 bf 40 31 f0 3d 0c 1e e4 3f
       1.267221 -0.5299956 0.11728144 1.782167
000180 61 05 3a 3f 83 89 dd bf f2 d7 c6 3f 17 db 0c bf
       0.7266446 -1.730759 1.5534651 -0.55021805
000190 e0 e1 30 be fd 9f 3c 3d e9 28 29 3f 66 c4 ae bf
       -0.17273664 0.046051014 0.6607805 -1.3653686
0001a0 0e 98 a1 bf 41 57 a2 3f c0 4c 73 be bb 28 32 bf
       -1.2624528 1.2682878 -0.23759747 -0.695934
0001b0 9f 44 39 bf 81 04 b3 3e fd 19 aa 3d 5e bc a3 bd
       -0.7237033 0.34964374 0.08305738 -0.079949126
0001c0 5f 3f 17 bf 40 84 cf 3e d1 eb 12 3e d9 8a 13 bf
       -0.5908107 0.40530586 0.1434777 -0.5763374
0001d0 7b c5 cd bd 9e e3 51 bf a5 3d aa 3e bb dd fd 3e
       -0.10047432 -0.8198794 0.33250156 0.4958323
0001e0 f1 c9 3e bc 70 73 69 3e 7a 89 9c 3f b1 78 a8 3e
       -0.011644826 0.22797942 1.2229455 0.3290458
0001f0 43 48 a5 3e c8 3b 8d 3e d4 df 7a be 22 d8 80 bf
       0.32281694 0.27584672 -0.24499446 -1.0065958
000200 b7 bb 2d be 09 c5 f7 be 78 5d cc 3e 28 c7 5b 3f
       -0.16966139 -0.48392513 0.3991506 0.85850763
000210 1d f4 05 3f 45 b4 95 3e 85 35 e7 3e 75 cb 82 bf
       0.5232561 0.29239097 0.4515802 -1.021834
000220 da b1 4e bf e6 4e f8 be 76 97 91 bf f8 4d 39 bf
       -0.8074013 -0.48497695 -1.1374347 -0.72384596
000230 12 dd 1f bf 54 5a 83 3e 18 47 dc bd 14 a5 5d 3f
       -0.624467 0.25654852 -0.107557476 0.86580014
000240 ad 3d 8f bf 0a 31 b2 be 92 11 9e bd 20 b9 f5 3e
       -1.1190697 -0.3480304 -0.07718195 0.47992802
000250 21 1b b3 be 38 ab 21 bf d7 28 30 3f 24 f3 eb 3e
       -0.34981635 -0.63151884 0.68812317 0.4608394
000260 a6 5e 1a bf cf 13 6d 3f 89 08 8e 3e 10 a5 89 3e
       -0.6030067 0.9260835 0.27740887 0.26883745
000270 35 92 40 3f 57 3d a0 3f 9f af 10 3e 5f d7 cf bd
       0.75223094 1.251872 0.14129494 -0.10148501
000280 0e 02 90 3f 02 e0 22 3e 65 6f 40 3e 2f fb 07 3f
       1.1250627 0.15905765 0.18792494 0.5311765
000290 aa 40 ba 3e f4 29 83 bd 0e b5 a9 3e 48 3c 00 be
       0.3637746 -0.06404486 0.33145946 -0.12522995
0002a0 d1 48 2c bd ef 92 d4 3d 17 e5 14 be af f2 a5 3e
       -0.04206163 0.10379588 -0.14540516 0.32411715
0002b0 4c ee 84 3f 4e e7 0a 3e 62 84 9e be 10 8f 13 3f
       1.0385222 0.13564798 -0.30960375 0.5764017
0002c0 4a 4b 12 3e a7 39 b9 be ab f9 12 3e c9 41 88 bc
       0.14286533 -0.36176798 0.14353053 -0.016632931
0002d0 d5 67 5a 3e fa a8 66 3e 86 18 7a be 13 95 e2 bd
       0.21328671 0.22525397 -0.24423417 -0.1106359
0002e0 72 56 21 be 4f d9 77 3c df 77 b7 3d 05 77 1a be
       -0.15755633 0.015127494 0.089584105 -0.15084465
0002f0 bd 1e 23 3d 62 04 4d bf 82 6d 80 bf c5 a3 17 3e
       0.039824236 -0.8008481 -1.0033419 0.14808567
000300 50 90 a0 3f 29 e1 08 3f 95 e3 21 3f 1a 70 1d 3e
       1.2544041 0.5346857 0.6323789 0.15374795
000310 9d 44 41 3e f7 00 f4 be 83 8e b7 bf e3 67 40 bf
       0.1887383 -0.47656986 -1.4340366 -0.7515852
000320 26 9d b2 be 7c 8e 63 3e c7 0d cd be e8 ee 45 3f
       -0.3488552 0.22222322 -0.40049574 0.77317667
000330 05 15 50 3e d7 b4 92 bd 79 7f 00 bf 23 17 4d bf
       0.20320518 -0.07163399 -0.5019451 -0.8011343
000340 81 9c 73 be 18 5f c5 3e bd 88 c2 be bc 55 cb be
       -0.2379017 0.38549113 -0.37994948 -0.39713848
000350 b3 ea c8 3e 33 54 34 bf 57 55 02 3f 5a ce 70 3e
       0.3924156 -0.7044098 0.5091147 0.23516217
000360 a9 1e 17 3f 22 ab 36 bf 97 77 f5 3e 45 44 4e 3f
       0.5903116 -0.7135488 0.47942802 0.8057292
000370 02 b9 24 bf 40 82 20 3f 3c 23 84 bf 1b 43 35 3c
       -0.643448 0.62698746 -1.0323253 0.0110633625
000380 a6 a2 7f 3e e3 79 d2 3f 07 f5 2a 3f 24 45 48 3c
       0.24964389 1.6443447 0.6678013 0.012223516
000390 63 31 d1 3f 98 de f3 3e 3b bd 19 bf e1 f9 c8 3e
       1.6343197 0.47630763 -0.6005437 0.39253142
0003a0 55 90 a4 bc 1b cf 1c bf 90 2d 06 3d 6c 5f 3e bf
       -0.020088354 -0.6125352 0.032758296 -0.7436435
0003b0 ac 68 31 bf 62 9d 23 3f c3 ed 77 3e 95 25 65 bf
       -0.6930034 0.6391202 0.24211793 -0.8951047
0003c0 fd 37 33 bf c6 b1 02 bf f9 54 3a 3e b2 c7 0e bf
       -0.70007306 -0.5105251 0.18196477 -0.5577346
0003d0 b8 a4 af 3e 9e e4 7f bf 68 a2 15 3f 2d 6b bc 3f
       0.34305358 -0.9995822 0.5845094 1.4720207
0003e0 e7 1a cb 3d b1 a9 e6 bb 5f 8a 04 3f 24 db 80 3f
       0.099172406 -0.0070392718 0.5177364 1.0066876
0003f0 d4 bd a2 3e eb 44 b7 3f 40 15 25 bd fb f6 36 3e
       0.31785452 1.4317907 -0.04030347 0.17867653

sequential_3/conv2d_19/Conv2D i1 [32, 3, 3, 32]
000000 f7 20 01 31 0e ef 0e 01 07 12 fe b4 03 12 d6 f5
       -9 32 1 49 14 -17 14 1 7 18 -2 -76 3 18 -42 -11
000010 e5 27 d7 ca b3 f0 f8 49 ea ea bf ea db ef 22 34
       -27 39 -41 -54 -77 -16 -8 73 -22 -22 -65 -22 -37 -17 34 52
000020 d5 fd 81 29 f1 b8 1c 03 18 14 1b b9 20 45 14 44
       -43 -3 -127 41 -15 -72 28 3 24 20 27 -71 32 69 20 68
000030 af 17 0e f0 f1 3c ce 12 db fb bd 08 b9 27 14 07
       -81 23 14 -16 -15 60 -50 18 -37 -5 -67 8 -71 39 20 7
000040 d5 ff 9f 1c 00 d9 25 eb 21 d3 0e fe ff 1b 55 70
       -43 -1 -97 28 0 -39 37 -21 33 -45 14 -2 -1 27 85 112
000050 0f c9 fa 35 03 4c fb e4 d9 e6 d9 d1 a6 14 0e 1e
       15 -55 -6 53 3 76 -5 -28 -39 -26 -39 -47 -90 20 14 30
000060 fd eb 5a f5 de 0a fd 0d db 28 f3 29 f2 d9 d6 e0
       -3 -21 90 -11 -34 10 -3 13 -37 40 -13 41 -14 -39 -42 -32
000070 3e 12 2a 19 0e 0c 05 e0 19 f1 08 18 24 04 e6 3b
       62 18 42 25 14 12 5 -32 25 -15 8 24 36 4 -26 59
000080 29 f9 4c de f1 ef f8 0b 13 23 0d 0a e1 e6 e5 c5
       41 -7 76 -34 -15 -17 -8 11 19 35 13 10 -31 -26 -27 -59
000090 16 09 0c f2 df b5 11 f3 02 00 1c 00 2f 0b 0a 3d
       22 9 12 -14 -33 -75 17 -13 2 0 28 0 47 11 10 61
0000a0 de d9 49 33 05 da 17 1d eb f0 e7 fb 2c 0d ca c6
       -34 -39 73 51 5 -38 23 29 -21 -16 -25 -5 44 13 -54 -58
0000b0 ec 3f 2a bf fe d4 20 25 1e 1e 0b f5 1e b8 05 19
       -20 63 42 -65 -2 -44 32 37 30 30 11 -11 30 -72 5 25
0000c0 e0 e0 e6 e3 09 d4 f4 ff ee 1a f5 ef 08 02 1b 02
       -32 -32 -26 -29 9 -44 -12 -1 -18 26 -11 -17 8 2 27 2
0000d0 c2 ef 1a f9 1c fc 16 0b 0a 1f 2c db 10 fc fe da
       -62 -17 26 -7 28 -4 22 11 10 31 44 -37 16 -4 -2 -38
0000e0 0a f1 e2 de ea 28 11 ed 04 15 dc f5 f1 f7 fc fe
       10 -15 -30 -34 -22 40 17 -19 4 21 -36 -11 -15 -9 -4 -2
0000f0 19 d5 18 11 eb 1f 1b fe d1 ef fb 0e ea f7 ed ed
       25 -43 24 17 -21 31 27 -2 -47 -17 -5 14 -22 -9 -19 -19

sequential_3/conv2d_20/Conv2D i1 [64, 3, 3, 32]
000000 f4 09 ae 0a c3 11 0d d5 1e 1e 18 38 19 fd 4e 27
       -12 9 -82 10 -61 17 13 -43 30 30 24 56 25 -3 78 39
000010 d9 8f ff e0 ee cc 05 4a 0a ff 19 03 3f 00 45 18
       -39 -113 -1 -32 -18 -52 5 74 10 -1 25 3 63 0 69 24
000020 01 08 d1 0e 00 23 db c2 25 0e f3 03 c1 04 10 fc
       1 8 -47 14 0 35 -37 -62 37 14 -13 3 -63 4 16 -4
000030 ab ad 02 b9 ea f2 4b 1b da ad 40 2a cc ba 46 de
       -85 -83 2 -71 -22 -14 75 27 -38 -83 64 42 -52 -70 70 -34
000040 0a db be 11 c5 2d ff c8 ef 1a b4 02 a2 b6 10 ed
       10 -37 -66 17 -59 45 -1 -56 -17 26 -76 2 -94 -74 16 -19
000050 9c cf 0d ee b0 08 6a 5a e5 81 37 e7 95 86 4a f3
       -100 -49 13 -18 -80 8 106 90 -27 -127 55 -25 -107 -122 74 -13
000060 2c 11 91 36 bd e8 32 a3 2c f0 ff 2d d3 00 42 00
       44 17 -111 54 -67 -24 50 -93 44 -16 -1 45 -45 0 66 0
000070 db 9f 21 10 b4 30 34 fd 03 e8 1a 09 00 e8 01 29
       -37 -97 33 16 -76 48 52 -3 3 -24 26 9 0 -24 1 41
000080 2b e4 31 0e d0 1a 11 e0 1a f3 ec e6 e3 1f 07 ff
       43 -28 49 14 -48 26 17 -32 26 -13 -20 -26 -29 31 7 -1
000090 f2 bb 06 03 ee 3f 01 3f e5 e1 e8 19 d3 ee 21 1a
       -14 -69 6 3 -18 63 1 63 -27 -31 -24 25 -45 -18 33 26
0000a0 6e f1 11 42 e4 2c 4f c1 0f 12 11 01 b8 db f8 e8
       110 -15 17 66 -28 44 79 -63 15 18 17 1 -72 -37 -8 -24
0000b0 e5 f4 e9 e5 ed 03 05 39 1b fe fc 12 f3 d2 29 4a
       -27 -12 -23 -27 -19 3 5 57 27 -2 -4 18 -13 -46 41 74
0000c0 fa f3 29 08 0c cf 48 f9 ef e8 55 ba c4 3d c8 37
       -6 -13 41 8 12 -49 72 -7 -17 -24 85 -70 -60 61 -56 55
0000d0 e1 e2 b8 30 1c 13 e2 d2 d7 03 f9 f7 d5 1f d7 fe
       -31 -30 -72 48 28 19 -30 -46 -41 3 -7 -9 -43 31 -41 -2
0000e0 a6 bd 3e 4a 52 d9 6a ce f2 a8 40 ff e1 4c d5 36
       -90 -67 62 74 82 -39 106 -50 -14 -88 64 -1 -31 76 -43 54
0000f0 f7 1f ab 22 dc 63 ce c4 f3 28 02 e2 09 e8 10 e9
       -9 31 -85 34 -36 99 -50 -60 -13 40 2 -30 9 -24 16 -23

sequential_3/conv2d_21/Conv2D i1 [64, 3, 3, 64]
000000 c7 ee d9 0f fc 5f c4 ec 13 fd c2 23 ea f0 d9 e9
       -57 -18 -39 15 -4 95 -60 -20 19 -3 -62 35 -22 -16 -39 -23
000010 f8 db 4c d6 05 bf 2f cd f8 e6 b6 06 12 f4 fe 30
       -8 -37 76 -42 5 -65 47 -51 -8 -26 -74 6 18 -12 -2 48
000020 1d 02 ee 0a b7 12 3f fb 02 e1 e3 ca d9 c8 36 b6
       29 2 -18 10 -73 18 63 -5 2 -31 -29 -54 -39 -56 54 -74
000030 0d 50 f7 eb 3e 3f 29 e3 00 1d 0f cb 14 1e 97 06
       13 80 -9 -21 62 63 41 -29 0 29 15 -53 20 30 -105 6
000040 b2 07 e2 13 15 1c 88 ff 01 0b fb 0d ec 14 e0 f6
       -78 7 -30 19 21 28 -120 -1 1 11 -5 13 -20 20 -32 -10
000050 11 e0 fb 16 19 04 13 b0 ea 11 dd c6 38 e7 f5 ea
       17 -32 -5 22 25 4 19 -80 -22 17 -35 -58 56 -25 -11 -22
000060 17 e5 0d 24 c6 fa 45 f6 30 03 04 e0 ee c7 2c e3
       23 -27 13 36 -58 -6 69 -10 48 3 4 -32 -18 -57 44 -29
000070 19 34 02 e0 30 d4 14 c0 05 f8 13 fb 4c 07 d0 23
       25 52 2 -32 48 -44 20 -64 5 -8 19 -5 76 7 -48 35
000080 ee df 21 f3 fc 36 eb 05 d5 e3 3c f6 fa 51 ed 0d
       -18 -33 33 -13 -4 54 -21 5 -43 -29 60 -10 -6 81 -19 13
000090 06 0f e4 5c fd 07 03 e6 31 f0 de 03 0b 19 05 df
       6 15 -28 92 -3 7 3 -26 49 -16 -34 3 11 25 5 -33
0000a0 09 14 e8 20 21 b5 1b 7f 61 21 0c 24 0c 3f 36 fc
       9 20 -24 32 33 -75 27 127 97 33 12 36 12 63 54 -4
0000b0 f4 19 e3 c5 e9 fb 12 1b 3e 01 0c ea 16 fb f9 d8
       -12 25 -29 -59 -23 -5 18 27 62 1 12 -22 22 -5 -7 -40
0000c0 f8 32 f0 dd d5 20 f2 ff 27 40 07 23 18 1b f1 c6
       -8 50 -16 -35 -43 32 -14 -1 39 64 7 35 24 27 -15 -58
0000d0 21 58 28 0d e4 c0 fe ca fb de f2 0d f9 d9 4c 0b
       33 88 40 13 -28 -64 -2 -54 -5 -34 -14 13 -7 -39 76 11
0000e0 02 14 0a dd 82 36 f5 f7 02 e0 33 26 ff ec 2a ca
       2 20 10 -35 -126 54 -11 -9 2 -32 51 38 -1 -20 42 -54
0000f0 ea 12 18 fe 0d 45 ed 00 08 fb 01 f5 18 ee c6 de
       -22 18 24 -2 13 69 -19 0 8 -5 1 -11 24 -18 -58 -34

sequential_3/conv2d_22/Conv2D i1 [128, 3, 3, 64]
000000 23 d1 91 0d 00 03 0e ef 03 15 1a ff 15 3e 11 32
       35 -47 -111 13 0 3 14 -17 3 21 26 -1 21 62 17 50
000010 fb 16 16 f6 de 10 fc 81 17 ab 04 ef e4 fb 2b 2c
       -5 22 22 -10 -34 16 -4 -127 23 -85 4 -17 -28 -5 43 44
000020 d3 f4 09 3b d8 19 f9 28 df 04 2d 23 d6 e0 c5 d4
       -45 -12 9 59 -40 25 -7 40 -33 4 45 35 -42 -32 -59 -44
000030 11 1c f6 36 f7 15 11 02 25 e2 0e fc db f9 28 fe
       17 28 -10 54 -9 21 17 2 37 -30 14 -4 -37 -7 40 -2
000040 0d 0b f5 ed 09 07 fb e1 f8 10 07 fe fe fe 2f 20
       13 11 -11 -19 9 7 -5 -31 -8 16 7 -2 -2 -2 47 32
000050 f3 d9 e8 0c 02 fd f6 b3 0f f8 16 2a f3 eb fb 17
       -13 -39 -24 12 2 -3 -10 -77 15 -8 22 42 -13 -21 -5 23
000060 08 fb 24 16 19 cc f7 19 fd 0f 2b 03 d2 ea d0 f1
       8 -5 36 22 25 -52 -9 25 -3 15 43 3 -46 -22 -48 -15
000070 f1 08 03 32 01 30 06 ce f7 f5 e0 fc 2c f2 24 ef
       -15 8 3 50 1 48 6 -50 -9 -11 -32 -4 44 -14 36 -17
000080 1e fc f2 1e e6 f4 95 02 ed f6 ef 1c f6 2d 53 04
       30 -4 -14 30 -26 -12 -107 2 -19 -10 -17 28 -10 45 83 4
000090 e7 b1 93 f7 12 0a ef bb f9 ff 16 0b 03 08 c0 d9
       -25 -79 -109 -9 18 10 -17 -69 -7 -1 22 11 3 8 -64 -39
0000a0 24 0a 05 02 12 f1 09 0b 0e 21 20 20 f5 db ec f7
       36 10 5 2 18 -15 9 11 14 33 32 32 -11 -37 -20 -9
0000b0 d6 0b 18 34 ed 20 fa b3 ed 0e fc da 15 c3 d2 c4
       -42 11 24 52 -19 32 -6 -77 -19 14 -4 -38 21 -61 -46 -60
0000c0 f6 c9 cc 0c 33 00 2b f8 ff f8 49 f4 f6 11 ee 03
       -10 -55 -52 12 51 0 43 -8 -1 -8 73 -12 -10 17 -18 3
0000d0 05 d3 21 fc 06 2d 2d d2 db da 37 d4 00 2e fc ef
       5 -45 33 -4 6 45 45 -46 -37 -38 55 -44 0 46 -4 -17
0000e0 e8 ea f7 08 fc f2 04 e4 08 f6 ff 4e fd dd f7 0d
       -24 -22 -9 8 -4 -14 4 -28 8 -10 -1 78 -3 -35 -9 13
0000f0 08 20 f8 e2 20 d9 1f 30 d3 e4 cf f9 f2 d8 14 eb
       8 32 -8 -30 32 -39 31 48 -45 -28 -49 -7 -14 -40 20 -21

sequential_3/conv2d_23/Conv2D i1 [128, 3, 3, 128]
000000 f3 f1 df 06 13 e5 fd d2 1e 2a 0b d6 e8 cc f4 fa
       -13 -15 -33 6 19 -27 -3 -46 30 42 11 -42 -24 -52 -12 -6
000010 97 0b 4e 0a 17 17 36 40 15 01 f0 0b ff 01 23 e5
       -105 11 78 10 23 23 54 64 21 1 -16 11 -1 1 35 -27
000020 03 35 ec dd ff 16 f2 f0 15 07 00 1c 02 21 e1 fd
       3 53 -20 -35 -1 22 -14 -16 21 7 0 28 2 33 -31 -3
000030 e2 07 0f 1e e7 ed 2d e4 fc bc 42 fa c5 20 c3 fc
       -30 7 15 30 -25 -19 45 -28 -4 -68 66 -6 -59 32 -61 -4
000040 0d 09 22 01 4b f9 21 03 f9 a9 09 07 03 10 d7 23
       13 9 34 1 75 -7 33 3 -7 -87 9 7 3 16 -41 35
000050 d9 12 18 0a 1b 2d 2e 09 f9 e1 f6 30 f6 08 e1 f3
       -39 18 24 10 27 45 46 9 -7 -31 -10 48 -10 8 -31 -13
000060 ff df 18 29 22 20 d1 d8 07 bf ff d9 ec 9c 00 e4
       -1 -33 24 41 34 32 -47 -40 7 -65 -1 -39 -20 -100 0 -28
000070 d2 f4 08 e8 1d fa 18 d9 05 0f ed 18 3b 08 0f dc
       -46 -12 8 -24 29 -6 24 -39 5 15 -19 24 59 8 15 -36
000080 f9 0c d7 10 12 f0 06 e1 08 1f 1b eb f9 ee 06 f4
       -7 12 -41 16 18 -16 6 -31 8 31 27 -21 -7 -18 6 -12
000090 ac 0d 4b 08 00 35 21 20 14 f9 df 14 12 e0 14 e9
       -84 13 75 8 0 53 33 32 20 -7 -33 20 18 -32 20 -23
0000a0 f6 1b 10 ed 16 14 f5 e7 03 25 1e ff fe 01 0a 00
       -10 27 16 -19 22 20 -11 -25 3 37 30 -1 -2 1 10 0
0000b0 d5 19 19 18 ed ec 09 f4 f1 b9 38 fc f1 3b c9 f6
       -43 25 25 24 -19 -20 9 -12 -15 -71 56 -4 -15 59 -55 -10
0000c0 f1 25 1c fb 42 d0 10 0f f9 c2 ff 04 01 04 c2 20
       -15 37 28 -5 66 -48 16 15 -7 -62 -1 4 1 4 -62 32
0000d0 de ff fb fc 14 3c ff fa fe ec e9 30 e5 08 11 04
       -34 -1 -5 -4 20 60 -1 -6 -2 -20 -23 48 -27 8 17 4
0000e0 13 ef 16 11 11 11 cf e4 eb d1 f9 f7 04 d8 ef f8
       19 -17 22 17 17 17 -49 -28 -21 -47 -7 -9 4 -40 -17 -8
0000f0 d0 de 0d f4 f8 e6 06 ff 0e 00 f4 23 1f 1c 1d 03
       -48 -34 13 -12 -8 -26 6 -1 14 0 -12 35 31 28 29 3

sequential_3/dense_6/MatMul i1 [256, 128] scale=0.004784033 zero_point=0
000000 ee f6 f7 19 f1 e3 f3 2d 11 f9 09 ed 0e e9 06 e5
       -0.086112596 -0.04784033 -0.043056298 0.11960083 -0.0717605 -0.13873696 -0.062192433 0.21528149 0.08132856 -0.033488233 0.043056298 -0.09089663 0.066976465 -0.11003276 0.0287042 -0.1291689
000010 ea f5 18 1e f6 fb fe 0a 15 f6 f9 fc 06 1b e6 f7
       -0.10524873 -0.052624363 0.1148168 0.143521 -0.04784033 -0.023920165 -0.009568066 0.04784033 0.100464694 -0.04784033 -0.033488233 -0.019136133 0.0287042 0.1291689 -0.124384865 -0.043056298
000020 08 f8 e4 dd f5 fa 01 db f2 d6 0d 0f ce fc 09 27
       0.038272265 -0.038272265 -0.13395293 -0.16744116 -0.052624363 -0.0287042 0.004784033 -0.17700922 -0.066976465 -0.20092939 0.062192433 0.0717605 -0.23920166 -0.019136133 0.043056298 0.18657729
000030 0b 24 df 04 eb ee f5 09 2d 09 d9 d2 05 fe f5 d8
       0.052624363 0.17222519 -0.1578731 0.019136133 -0.100464694 -0.086112596 -0.052624363 0.043056298 0.21528149 0.043056298 -0.18657729 -0.22006552 0.023920165 -0.009568066 -0.052624363 -0.19136132
000040 e0 ed e4 ff c8 f7 e6 fe fa 0c 18 f5 dd ea ff f5
       -0.15308906 -0.09089663 -0.13395293 -0.004784033 -0.26790586 -0.043056298 -0.124384865 -0.009568066 -0.0287042 0.0574084 0.1148168 -0.052624363 -0.16744116 -0.10524873 -0.004784033 -0.052624363
000050 f4 13 f5 f3 2b 18 1f 16 09 08 f6 fa 1c ec dd f0
       -0.0574084 0.09089663 -0.052624363 -0.062192433 0.20571342 0.1148168 0.14830503 0.10524873 0.043056298 0.038272265 -0.04784033 -0.0287042 0.13395293 -0.09568066 -0.16744116 -0.07654453
000060 13 0b 09 d3 0c 15 06 eb db fa 0b fe f3 ef 1e d9
       0.09089663 0.052624363 0.043056298 -0.21528149 0.0574084 0.100464694 0.0287042 -0.100464694 -0.17700922 -0.0287042 0.052624363 -0.009568066 -0.062192433 -0.08132856 0.143521 -0.18657729
000070 0f 08 12 2c e7 ff ed 01 f9 e6 14 d8 d4 16 e5 0a
       0.0717605 0.038272265 0.086112596 0.21049745 -0.11960083 -0.004784033 -0.09089663 0.004784033 -0.033488233 -0.124384865 0.09568066 -0.19136132 -0.21049745 0.10524873 -0.1291689 0.04784033
000080 db 06 cb d4 f0 fa 15 fe c9 ff 1b f9 c7 fa c1 d8
       -0.17700922 0.0287042 -0.25355375 -0.21049745 -0.07654453 -0.0287042 0.100464694 -0.009568066 -0.2631218 -0.004784033 0.1291689 -0.033488233 -0.27268988 -0.0287042 -0.30139408 -0.19136132
000090 d0 1c cf fc e1 d7 03 23 e4 05 f9 10 d7 12 f1 0c
       -0.2296336 0.13395293 -0.23441763 -0.019136133 -0.14830503 -0.19614536 0.0143521 0.16744116 -0.13395293 0.023920165 -0.033488233 0.07654453 -0.19614536 0.086112596 -0.0717605 0.0574084
0000a0 f7 c6 12 01 05 eb e1 16 f9 d4 d6 f2 18 eb 13 20
       -0.043056298 -0.27747393 0.086112596 0.004784033 0.023920165 -0.100464694 -0.14830503 0.10524873 -0.033488233 -0.21049745 -0.20092939 -0.066976465 0.1148168 -0.100464694 0.09089663 0.15308906
0000b0 f2 f6 19 db f2 eb 1b 0e 03 0a f5 d1 fb 03 d9 ea
       -0.066976465 -0.04784033 0.11960083 -0.17700922 -0.066976465 -0.100464694 0.1291689 0.066976465 0.0143521 0.04784033 -0.052624363 -0.22484955 -0.023920165 0.0143521 -0.18657729 -0.10524873
0000c0 d5 34 02 fb f4 e9 21 fe e6 29 fb c2 15 f0 3b ed
       -0.20571342 0.24876973 0.009568066 -0.023920165 -0.0574084 -0.11003276 0.1578731 -0.009568066 -0.124384865 0.19614536 -0.023920165 -0.29661006 0.100464694 -0.07654453 0.28225794 -0.09089663
0000d0 f1 18 11 ef 05 f3 f1 ea 03 ec ed 0f ef e3 13 0d
       -0.0717605 0.1148168 0.08132856 -0.08132856 0.023920165 -0.062192433 -0.0717605 -0.10524873 0.0143521 -0.09568066 -0.09089663 0.0717605 -0.08132856 -0.13873696 0.09089663 0.062192433
0000e0 16 ed cd 15 2b 0c 00 e9 da 04 12 13 e8 e7 14 17
       0.10524873 -0.09089663 -0.2439857 0.100464694 0.20571342 0.0574084 0.0 -0.11003276 -0.18179326 0.019136133 0.086112596 0.09089663 -0.1148168 -0.11960083 0.09568066 0.11003276
0000f0 f7 d4 f5 e6 13 f5 e9 03 14 f2 00 13 c4 f9 f5 23
       -0.043056298 -0.21049745 -0.052624363 -0.124384865 0.09089663 -0.052624363 -0.11003276 0.0143521 0.09568066 -0.066976465 0.0 0.09089663 -0.287042 -0.033488233 -0.052624363 0.16744116

sequential_3/dense_7/MatMul i1 [10, 256] scale=0.0040180404 zero_point=0
000000 ef 04 1a db bb d5 ab 1a 02 d2 dc 1f cf e9 f3 2e
       -0.068306684 0.016072161 0.104469046 -0.1486675 -0.27724478 -0.17277573 -0.34153342 0.104469046 0.008036081 -0.18482986 -0.14464945 0.12455925 -0.19688398 -0.09241493 -0.052234523 0.18482986
000010 d5 fe c7 1f e5 d6 09 e1 1d da c2 21 17 1a d9 f0
       -0.17277573 -0.008036081 -0.2290283 0.12455925 -0.10848709 -0.16875769 0.03616236 -0.12455925 0.11652317 -0.15268554 -0.2491185 0.13259533 0.09241493 0.104469046 -0.15670358 -0.064288646
000020 e0 fa f2 fa e7 c9 c1 03 fe 02 0c 08 03 0d 00 c1
       -0.12857729 -0.024108242 -0.056252565 -0.024108242 -0.10045101 -0.22099222 -0.25313655 0.012054121 -0.008036081 0.008036081 0.048216484 0.032144323 0.012054121 0.052234523 0.0 -0.25313655
000030 d9 10 26 f4 23 23 f7 f4 20 2c d6 c2 e2 05 b7 ec
       -0.15670358 0.064288646 0.15268554 -0.048216484 0.14063141 0.14063141 -0.03616236 -0.048216484 0.12857729 0.17679378 -0.16875769 -0.2491185 -0.120541215 0.020090202 -0.29331696 -0.08036081
000040 1d ef fe 07 d3 1f e1 27 19 e0 d0 12 31 d4 22 f7
       0.11652317 -0.068306684 -0.008036081 0.028126283 -0.18081182 0.12455925 -0.12455925 0.15670358 0.10045101 -0.12857729 -0.19286594 0.07232472 0.19688398 -0.17679378 0.13661337 -0.03616236
000050 0d 06 e1 ed 0f 1f 02 f1 38 93 13 00 f1 12 ea 26
       0.052234523 0.024108242 -0.12455925 -0.07634277 0.060270607 0.12455925 0.008036081 -0.060270607 0.22501026 -0.4379664 0.07634277 0.0 -0.060270607 0.07232472 -0.08839689 0.15268554
000060 d3 07 28 12 fe e4 e5 f8 02 fc f2 f6 f5 f7 0b 0e
       -0.18081182 0.028126283 0.16072161 0.07232472 -0.008036081 -0.11250513 -0.10848709 -0.032144323 0.008036081 -0.016072161 -0.056252565 -0.040180404 -0.044198446 -0.03616236 0.044198446 0.056252565
000070 d8 10 2e 2f 16 28 d6 db 0d 16 dc ce e5 06 ae cf
       -0.16072161 0.064288646 0.18482986 0.1888479 0.08839689 0.16072161 -0.16875769 -0.1486675 0.052234523 0.08839689 -0.14464945 -0.20090201 -0.10848709 0.024108242 -0.3294793 -0.19688398
000080 f6 29 22 c9 0e f5 c2 d1 e7 f3 f5 f0 16 2d 1c 0b
       -0.040180404 0.16473965 0.13661337 -0.22099222 0.056252565 -0.044198446 -0.2491185 -0.1888479 -0.10045101 -0.052234523 -0.044198446 -0.064288646 0.08839689 0.18081182 0.11250513 0.044198446
000090 fa b1 b2 c5 ef 07 f3 fc ea fb ec ef 23 12 f3 ff
       -0.024108242 -0.3174252 -0.31340715 -0.23706438 -0.068306684 0.028126283 -0.052234523 -0.016072161 -0.08839689 -0.020090202 -0.08036081 -0.068306684 0.14063141 0.07232472 -0.052234523 -0.0040180404
0000a0 e1 fe bd 0a 08 23 fc fe 19 43 ef 09 0b e5 fa ec
       -0.12455925 -0.008036081 -0.2692087 0.040180404 0.032144323 0.14063141 -0.016072161 -0.008036081 0.10045101 0.2692087 -0.068306684 0.03616236 0.044198446 -0.10848709 -0.024108242 -0.08036081
0000b0 20 e7 0f d6 11 28 15 cc ef 05 b5 b4 b1 ef 0d e7
       0.12857729 -0.10045101 0.060270607 -0.16875769 0.068306684 0.16072161 0.084378846 -0.20893809 -0.068306684 0.020090202 -0.30135304 -0.30537108 -0.3174252 -0.068306684 0.052234523 -0.10045101
0000c0 c7 1c ea 25 de f8 f8 e4 f4 24 d7 de fc f7 fc d9
       -0.2290283 0.11250513 -0.08839689 0.1486675 -0.13661337 -0.032144323 -0.032144323 -0.11250513 -0.048216484 0.14464945 -0.16473965 -0.13661337 -0.016072161 -0.03616236 -0.016072161 -0.15670358
0000d0 0e 05 23 27 21 03 14 21 f3 29 16 1a 29 f8 24 c5
       0.056252565 0.020090202 0.14063141 0.15670358 0.13259533 0.012054121 0.08036081 0.13259533 -0.052234523 0.16473965 0.08839689 0.104469046 0.16473965 -0.032144323 0.14464945 -0.23706438
0000e0 f7 13 13 bc 1a 02 e7 f8 fb 31 ec d9 0a 14 a4 0d
       -0.03616236 0.07634277 0.07634277 -0.27322674 0.104469046 0.008036081 -0.10045101 -0.032144323 -0.020090202 0.19688398 -0.08036081 -0.15670358 0.040180404 0.08036081 -0.36965972 0.052234523
0000f0 0b 2d 24 f7 0b e7 22 07 e8 f7 20 0d f9 1e 12 e7
       0.044198446 0.18081182 0.14464945 -0.03616236 0.044198446 -0.10045101 0.13661337 0.028126283 -0.09643297 -0.03616236 0.12857729 0.052234523 -0.028126283 0.120541215 0.07232472 -0.10045101
