part3_edge_optimization/dynamic_range.tflite (tflite, 339440 bytes, 16 tensors)

sequential_3/dense_6/BiasAdd/ReadVariableOp f4 [256]
0	0x3e945923	0.28974256
1	0x3e4e195b	0.2012686
2	0x3e03f741	0.12887289
3	0x3e329cdb	0.17442648
4	0x3e8023e8	0.25027394
5	0x3e851b14	0.2599722
6	0x3e973cc5	0.2953855
7	0x3e128026	0.14306697
8	0x3e3a149b	0.18171923
9	0x3e55f459	0.20893992
10	0x3e20af32	0.15691832
11	0x3e8a89a3	0.27058133
12	0x3d50bb80	0.050960064
13	0x3e61218b	0.21985452
14	0x3e5dde31	0.2166679
15	0x3e05b971	0.13059022
16	0x3e5ec1ab	0.21753566
17	0x3e212a12	0.15738705
18	0x3da04c2b	0.07827028
19	0x3e3d0ffa	0.18463126
20	0x3d96a991	0.07356561
21	0x3decae6d	0.115567066
22	0x3e90d601	0.28288272
23	0x3e6a4ac7	0.22880088
24	0x3c61bbd7	0.013777695
25	0x3e79e1ff	0.24402617
26	0x3e80345c	0.25039947
27	0xbd5107f6	-0.051032983
28	0x3e016d2d	0.12639304
29	0x3e10d7c8	0.14144814
30	0x3e1cc37c	0.15308946
31	0x3e23e3b7	0.16004835
32	0x3e643dd9	0.22289218
33	0x3e548282	0.2075291
34	0x3daf463c	0.08558318
35	0x3d01fb49	0.031733785
36	0x3e0303ad	0.12794371
37	0x3d18a5d2	0.037267514
38	0x3e840d85	0.25791565
39	0x3d4b3721	0.049613122
40	0x3c943555	0.018091837
41	0x3dd45b3d	0.10368965
42	0x3e37304e	0.1788952
43	0x3d81cae4	0.063375264
44	0x3dea9b8d	0.1145545
45	0x3e83b3da	0.25723153
46	0x3e9875f2	0.29777485
47	0x3e97fc4f	0.29684684
48	0x3e2928eb	0.16519515
49	0x3e82d42d	0.25552502
50	0x3e15de0d	0.14635487
51	0x3cf403a3	0.02978689
52	0x3da934c6	0.08262019
53	0x3e3a80d1	0.18213202
54	0x3cafc6fe	0.021457192
55	0x3df9cc31	0.121971495
56	0x3e82e9d4	0.25569022
57	0x3e274e80	0.16338539
58	0x3d6323bb	0.055453997
59	0x3e83ca7d	0.25740424
60	0x3e6f101d	0.2334599
61	0xbdc5365c	-0.09629509
62	0x3d7f8464	0.062382117
63	0x3dd0f3e7	0.10202771
64	0x3dcbdd06	0.09954266
65	0x3d471410	0.048603117
66	0x3dd012a5	0.10159806
67	0x3e472513	0.19447736
68	0x3e60e726	0.21963176
69	0x3e6e83fe	0.23292539
70	0x3e336f4f	0.1752293
71	0x3da90b7a	0.08254142
72	0x3e19dc18	0.15025365
73	0x3e61a884	0.2203694
74	0x3e1182a1	0.14209987
75	0x3dbb84da	0.09156199
76	0x3e68597b	0.22690384
77	0xbde9d272	-0.114170924
78	0x3e31b752	0.17355087
79	0x3e0aeb11	0.13566233
80	0xbe0353e3	-0.12824969
81	0x3e2c22c8	0.16810143
82	0x3d85b105	0.065279044
83	0x3e01ea74	0.12687093
84	0x3e4d0561	0.20021583
85	0x3e1382cf	0.14405368
86	0x3d8dd619	0.069256015
87	0x3e5052a3	0.20344023
88	0x3e41299a	0.18863526
89	0x3da6bd2b	0.0814155
90	0x3ce5a650	0.028033406
91	0x3e642788	0.22280705
92	0x3e4b05ba	0.19826403
93	0x3e4503ce	0.19239733
94	0x3e58e7ff	0.2118225
95	0x3e62672a	0.22109666
96	0x3e2628d4	0.16226512
97	0x3c97bb63	0.01852197
98	0x3e2b286f	0.16714643
99	0x3e91fda7	0.28513834
100	0x3e556ba6	0.20841846
101	0x3e361320	0.17780733
102	0x3e96c0ee	0.2944407
103	0x3e302ba9	0.17204155
104	0xbd9c1739	-0.07621617
105	0x3e3903f9	0.18067922
106	0x3e3f5af5	0.18687041
107	0x3e1e5cbc	0.15465063
108	0x3dea562a	0.11442216
109	0x3db08f45	0.086210765
110	0x3e397751	0.18111922
111	0x3e587459	0.21138133
112	0x3e77a8ea	0.2418553
113	0xbde8d0e1	-0.113679655
114	0x3e99881b	0.29986653
115	0x3e53cf58	0.20684564
116	0x3e888ab9	0.26668337
117	0x3dcae85a	0.09907599
118	0x3e111037	0.14166342
119	0x3e8832e0	0.26601315
120	0x3d68f2c3	0.05687214
121	0x3d32abee	0.043620996
122	0x3e400658	0.1875242
123	0x3e2cc3a2	0.16871503
124	0x3e272385	0.16322143
125	0x3e7df80e	0.24801657
126	0x3e881449	0.26577976
127	0x3e1dca93	0.15409307
128	0x3e68fb99	0.22752227
129	0x3e26cc7e	0.16288945
130	0x3e5fe4f5	0.21864684
131	0x3e4125d7	0.18862091
132	0x3e875f6b	0.26439986
133	0x3e172c79	0.14763059
134	0x3e20c1d2	0.15698937
135	0x3da14163	0.078738
136	0x3e2b01f6	0.16699967
137	0x3e947197	0.28992912
138	0x3e1f176a	0.15536276
139	0x3e6237f1	0.22091652
140	0x3eba95c6	0.36442393
141	0x3e78256e	0.24233028
142	0x3d564f88	0.05232194
143	0x3e4d7912	0.20065716
144	0xbdc1e1aa	-0.0946687
145	0xbd98ee6b	-0.074673496
146	0x3e638a23	0.22220664
147	0x3e499260	0.19684744
148	0x3de54af0	0.11195934
149	0x3e67e701	0.22646715
150	0x3e46ef71	0.19427277
151	0x3e06b3f6	0.13154587
152	0x3e765e71	0.24059464
153	0x3de0fee6	0.10986118
154	0x3e7d6c16	0.24748263
155	0x3e5805a2	0.21095899
156	0x3d08313f	0.03325009
157	0x3e43db42	0.19126609
158	0x3e17553c	0.14778608
159	0x3e1bdc5f	0.15220784
160	0x3e4cb899	0.19992293
161	0x3e58da8d	0.2117712
162	0xbd86c540	-0.06580591
163	0x3e133a6b	0.14377753
164	0x3e7115dd	0.23543496
165	0x3e071e1b	0.13195078
166	0x3e0ac130	0.13550258
167	0x3e069bf0	0.13145423
168	0x3d675cf1	0.05648512
169	0x3dad93f5	0.08475486
170	0x3e3ff260	0.18744802
171	0x3e8cc6cc	0.2749542
172	0x3e892620	0.267869
173	0x3d9f957b	0.07792183
174	0x3e8bbfb6	0.272947
175	0x3e0c3881	0.1369343
176	0x3e7a8123	0.24463324
177	0x3e2a557b	0.1663417
178	0x3e0c2513	0.13686018
179	0x3e940ae4	0.2891456
180	0x3d68ddf2	0.05685229
181	0x3dcd1735	0.10014192
182	0xbdb76507	-0.08954816
183	0x3c5320f3	0.012886274
184	0x3e6db701	0.23214342
185	0x3e975755	0.29558817
186	0x3e77ebbf	0.24211024
187	0x3dd1d621	0.1024592
188	0x3e3b4ce0	0.18291044
189	0x3d08e4b8	0.03342125
190	0x3e3e7a1b	0.18601267
191	0x3e264063	0.16235499
192	0x3ea73de4	0.32664406
193	0x3d3411d6	0.043962322
194	0x3e4979f6	0.1967543
195	0x3de8a7dd	0.113601424
196	0x3dfd9e73	0.123837374
197	0x3e6ddd71	0.23229004
198	0x3e7c3ca7	0.24632512
199	0x3df508ab	0.11964544
200	0x3e9cb2fd	0.30605307
201	0x3dcbffff	0.09960937
202	0x3e5c416c	0.21509331
203	0x3e6e5560	0.23274755
204	0x3e80428e	0.25050777
205	0x3e842633	0.25810394
206	0x3e4bca8d	0.19901486
207	0x3dc7af6b	0.09750255
208	0x3e48ae04	0.19597632
209	0x3e3d3de4	0.1848064
210	0x3e8f0b15	0.27938142
211	0x3e49b8a5	0.19699343
212	0x3e52888c	0.20559901
213	0x3e8399e8	0.2570336
214	0x3de33f40	0.11096048
215	0x3da84094	0.08215442
216	0x3e2a9db3	0.1666172
217	0x3e1d76bb	0.15377323
218	0x3e4cdc99	0.20006026
219	0x3e6e5507	0.23274623
220	0x3e1c22ac	0.15247601
221	0x3d68350c	0.056691214
222	0x3e0c518c	0.13702983
223	0x3dba4d9b	0.09096833
224	0x3e1b8b61	0.15189888
225	0x3e606a93	0.21915655
226	0x3e4a15fb	0.19734947
227	0x3e043a76	0.12912926
228	0x3e8aa469	0.2707856
229	0x3ebf8500	0.37406158
230	0x3dbf2dd5	0.09334914
231	0x3e3aba2e	0.18235084
232	0x3e87a65e	0.26494116
233	0x3e4cb659	0.19991435
234	0x3e3dc068	0.18530428
235	0xbc51cc6c	-0.012805086
236	0x3e69cff0	0.22833228
237	0x3e04f17e	0.12982747
238	0x3e13ee5e	0.14446399
239	0x3de22863	0.110428594
240	0x3e895a6b	0.26826796
241	0x3db0c3fa	0.086311296
242	0x3dfee7ef	0.124465816
243	0x3e000566	0.1250206
244	0x3d12e225	0.0358602
245	0x3e1b0176	0.15137276
246	0xbdc1ecf4	-0.09469023
247	0x3e6feeab	0.23430888
248	0x3e268c39	0.16264428
249	0x3db33e71	0.08752144
250	0x3e32b3ac	0.17451352
251	0x3e08f25e	0.13373706
252	0x3e7df769	0.2480141
253	0x3e86f80a	0.26361114
254	0x3e8662d6	0.2624728
255	0x3e14d971	0.14536072

sequential_3/dense_7/BiasAdd/ReadVariableOp f4 [10]
0	0x3d92fa3d	0.071766354
1	0xbdf1ed3e	-0.118128285
2	0x3d480164	0.04882945
3	0x3e933a15	0.2875525
4	0xbd15cef0	-0.036574304
5	0xbe264252	-0.16236237
6	0xbc8a8c6a	-0.016912658
7	0x3ce6393d	0.028103465
8	0xbe13e94e	-0.14444467
9	0xbd0d3e3b	-0.034483176

sequential_3/re_lu_18/Relu;sequential_3/batch_normalization_18/FusedBatchNormV3;sequential_3/conv2d_18/BiasAdd/ReadVariableOp;sequential_3/conv2d_18/BiasAdd;sequential_3/conv2d_19/Conv2D;sequential_3/conv2d_18/Conv2D f4 [32]
0	0x3de4255a	0.11139937
1	0x3f794a28	0.9737878
2	0x3f6ccd8d	0.92501146
3	0x3e0945de	0.13405558
4	0xbfb15f65	-1.3857237
5	0x3f116d14	0.56807065
6	0x3ef9ebae	0.48812622
7	0x3d8b4eb7	0.06802123
8	0x3f2dca54	0.67886853
9	0x3f932505	1.1495672
10	0x3f1f92a1	0.6233311
11	0x3f88e636	1.0695255
12	0x3ea82214	0.328385
13	0xbf4ed43a	-0.8079258
14	0xbf154018	-0.58300924
15	0x3eb74c36	0.35800332
16	0x3f2be3a3	0.6714422
17	0x3e746c6c	0.23869485
18	0x3ef6dc4d	0.4821495
19	0x3ee623d5	0.44949213
20	0x3ea8267e	0.32841867
21	0xbf115fef	-0.5678701
22	0x3ec4f7fb	0.38470444
23	0x3f0b7eb6	0.5449022
24	0xbd87b5cc	-0.06626472
25	0x3e4bd3bd	0.1990499
26	0xbef169ff	-0.4715118
27	0x3f2b38d3	0.6688358
28	0x3f02214a	0.50832045
29	0xbe9bace5	-0.30405346
30	0x3f53904c	0.82642055
31	0xbfa08dfc	-1.254333

sequential_3/re_lu_19/Relu;sequential_3/batch_normalization_19/FusedBatchNormV3;sequential_3/conv2d_19/BiasAdd/ReadVariableOp;sequential_3/conv2d_19/BiasAdd;sequential_3/conv2d_19/Conv2D f4 [32]
0	0x3eed61f2	0.4636379
1	0xbea6702f	-0.32507464
2	0x3e87bbb2	0.26510388
3	0xbd884241	-0.06653262
4	0x3d88a490	0.06672013
5	0xbe0dc814	-0.13845855
6	0x3f9b27df	1.2121543
7	0x3db540ac	0.08850226
8	0x3f7f41ea	0.9970995
9	0x3ec05796	0.37566823
10	0x3eefc976	0.4683339
11	0x3ecf05aa	0.4043401
12	0x3f6b8824	0.9200461
13	0x3edbe5a4	0.4294864
14	0x3f27757e	0.65413654
15	0x3dc9a2b5	0.09845487
16	0x3f128298	0.5723052
17	0xbfe8bda9	-1.818288
18	0x3fa197fd	1.2624508
19	0x3b6e0086	0.003631623
20	0xbc77b9f9	-0.015120023
21	0x3fd76d86	1.6830299
22	0xbc88fd19	-0.016722249
23	0x3f3bf372	0.73418343
24	0x3f3ad5e2	0.7298261
25	0x3e7928ea	0.24332014
26	0x3e0305df	0.12795208
27	0x3f92a1e3	1.1455654
28	0x3f587a7e	0.8456191
29	0x3edf73c7	0.4364302
30	0xbf012001	-0.5043946
31	0x3ed204cc	0.41019285

sequential_3/re_lu_20/Relu;sequential_3/batch_normalization_20/FusedBatchNormV3;sequential_3/conv2d_20/BiasAdd/ReadVariableOp;sequential_3/conv2d_20/BiasAdd;sequential_3/conv2d_21/Conv2D;sequential_3/conv2d_20/Conv2D f4 [64]
0	0x3f1a320c	0.60232615
1	0x3eea498c	0.45759237
2	0x3f682f0f	0.90696806
3	0x3f1ba217	0.60794204
4	0xbe04ff70	-0.12988067
5	0x3e1b7471	0.15181138
6	0x3fbd6cdc	1.4798846
7	0x3f3b2e58	0.7311759
8	0xbf1f8f88	-0.62328386
9	0x3ebf9e62	0.37425524
10	0xbd9ab159	-0.07553358
11	0x3e13102f	0.14361642
12	0x3f6a0ad8	0.91422796
13	0x3f0d49c1	0.55190665
14	0x3f1b5216	0.6067213
15	0xbe0153fd	-0.12629695
16	0x3ce2a957	0.027668638
17	0xbf7c929a	-0.98661196
18	0x3c87f0b3	0.016594267
19	0x3ed04d52	0.4068399
20	0x3f31f637	0.6951632
21	0xbdbb9134	-0.09158555
22	0x3c2af1fb	0.010433669
23	0x3f432d2f	0.7624082
24	0xbf2585e2	-0.64657414
25	0x3f08b608	0.5340276
26	0x3e65d6b5	0.22445185
27	0xbe76bf0b	-0.24096315
28	0x3f9ebc59	1.2401229
29	0x3e3b0bac	0.18266171
30	0x3f7ebc76	0.9950632
31	0xbf6e37d8	-0.9305396
32	0x3f113b2b	0.5673091
33	0x3ed6a6d6	0.4192416
34	0xbe755aa4	-0.23960358
35	0x3e46fcc3	0.19432358
36	0xbc1db745	-0.009626214
37	0x3f30b4a2	0.69025624
38	0xbf145c6a	-0.5795351
39	0x3e02cd26	0.1277357
40	0x3d14579c	0.036216363
41	0x3ee640d5	0.44971338
42	0x3ef5e29b	0.4802445
43	0x3f31fe02	0.6952821
44	0x3f0672f1	0.52519137
45	0xbe8fbdeb	-0.28074583
46	0x3e0d24b4	0.13783532
47	0x3e4e03a9	0.20118584
48	0x3f821f83	1.0165867
49	0x3ccb9a2e	0.024853792
50	0x3ea8e6c1	0.3298855
51	0x3e9ec691	0.3101087
52	0x3ea1f5a1	0.31632712
53	0x3e4ef7f0	0.20211768
54	0xbeedc403	-0.46438608
55	0x3dac45b9	0.08411736
56	0x3f155df3	0.5834648
57	0x3f47d4a8	0.7805886
58	0x3f069b7d	0.52581006
59	0x3ea0e323	0.31423292
60	0x3de9e77e	0.11421107
61	0x3f6151f1	0.8801566
62	0x3ef13fd4	0.4711901
63	0x3eaf5645	0.34245506

sequential_3/re_lu_21/Relu;sequential_3/batch_normalization_21/FusedBatchNormV3;sequential_3/conv2d_21/BiasAdd/ReadVariableOp;sequential_3/conv2d_21/BiasAdd;sequential_3/conv2d_21/Conv2D f4 [64]
0	0x3f3719bd	0.7152365
1	0x3fa3886e	1.277601
2	0x3f1c44e1	0.610426
3	0xbf8f15c4	-1.1178517
4	0x3e40353f	0.18770312
5	0x3f002737	0.5005984
6	0x3edbb662	0.42912585
7	0xbd36a889	-0.04459432
8	0x3f2fb7e8	0.68639994
9	0x3dbbaa8c	0.091633886
10	0x3f9fe4ed	1.2491738
11	0x3f2467fb	0.6422116
12	0xbd12fbea	-0.035884775
13	0x3fc97166	1.5737731
14	0x400a0a7c	2.15689
15	0x3f628d90	0.8849726
16	0x3f72c346	0.94829214
17	0xbe11dce6	-0.14244422
18	0x3f36e801	0.7144776
19	0xbc6b19f2	-0.014349448
20	0x3e914140	0.28370094
21	0xbe2764dd	-0.1634707
22	0x3e0ab76d	0.13546534
23	0x3fb8552e	1.4400995
24	0x3f433a9d	0.7626131
25	0x3e839695	0.25700822
26	0x3f7f7349	0.99785286
27	0x3e28319b	0.16425173
28	0x3f76e5dd	0.96444494
29	0xbf255ca1	-0.64594465
30	0x3f7f1187	0.9963612
31	0x3f63d736	0.8900026
32	0x3eff4853	0.49859866
33	0x3f47d41d	0.78058034
34	0x3f34f036	0.7067903
35	0x3f3486c0	0.7051811
36	0xbf967483	-1.1754307
37	0x3f6081f3	0.87698287
38	0x3ee4ecd6	0.4471194
39	0xbd56854e	-0.052373223
40	0xbe03b212	-0.12860897
41	0x3f534712	0.8253032
42	0x3e2965e9	0.16542782
43	0x3e83ea1f	0.25764558
44	0x3e19c596	0.1501678
45	0x3e23b258	0.15986001
46	0x3e77b04e	0.24188349
47	0x3ef36c0d	0.47543374
48	0x3e0e5209	0.13898481
49	0x3ecc2208	0.39869714
50	0xbd5fa02e	-0.05459612
51	0x3c353e84	0.011062268
52	0x3ea00cae	0.31259674
53	0x3e9ee739	0.31035784
54	0xbf65831a	-0.8965317
55	0x3f030d2a	0.5119196
56	0x3f93c608	1.1544809
57	0x3edb6aca	0.4285491
58	0x3eb4ea68	0.35335088
59	0xbed0d04c	-0.40783918
60	0x3f8eb8b5	1.1150118
61	0xbf7b79b8	-0.98232603
62	0x3ed741d2	0.42042404
63	0xbf373fa3	-0.71581477

sequential_3/re_lu_22/Relu;sequential_3/batch_normalization_22/FusedBatchNormV3;sequential_3/conv2d_22/BiasAdd/ReadVariableOp;sequential_3/conv2d_22/BiasAdd;sequential_3/conv2d_23/Conv2D;sequential_3/conv2d_22/Conv2D f4 [128]
0	0xbe007298	-0.12543714
1	0xbf4c2dd2	-0.79757416
2	0x3ef745e0	0.48295498
3	0xbd408994	-0.047006205
4	0x3f12ec4d	0.57391816
5	0xbe6ff99b	-0.2343506
6	0xbed2d10f	-0.41175124
7	0xbc767f22	-0.015044959
8	0xbee4a235	-0.44655004
9	0x3eb793b7	0.35854885
10	0xbf5ec42c	-0.87018085
11	0x3f68dc2e	0.9096097
12	0xbec50abe	-0.38484758
13	0x3f609d0c	0.87739635
14	0x3e5fb2e1	0.2184558
15	0x3e661510	0.22468972
16	0xbe631b01	-0.2217827
17	0xbdc44f3b	-0.095854245
18	0xbe5d35a3	-0.21602492
19	0xbf308c31	-0.68963915
20	0x3d9b9f49	0.075987406
21	0xbf90e59c	-1.1320071
22	0xbf03afe5	-0.5144027
23	0x3eb3e2c8	0.35133958
24	0xbedc1d82	-0.42991263
25	0x3e2217a9	0.15829338
26	0xbe51f217	-0.20502506
27	0x3fa1054c	1.2579741
28	0x3f51a878	0.8189769
29	0xbf264db4	-0.64962316
30	0x3ed7671e	0.4207086
31	0xbf078035	-0.52930003
32	0xbe944cdc	-0.2896489
33	0x3e742854	0.23843509
34	0x3f48430e	0.7822732
35	0xbde1307a	-0.10995574
36	0xbf43ad3b	-0.76436204
37	0x3f28e720	0.6597767
38	0x3e5f010d	0.21777745
39	0x3e692d46	0.22771177
40	0xbe645487	-0.2229787
41	0x3d7645da	0.06012521
42	0xbf00ea64	-0.5035765
43	0x3d8958de	0.06706403
44	0xbe9152fe	-0.2838363
45	0xbf483f3c	-0.7822149
46	0x3db55cf7	0.08855622
47	0xbe9fb15b	-0.3119
48	0xbe09e176	-0.13464913
49	0xbf601613	-0.8753368
50	0xbf6094f2	-0.8772727
51	0x3d9a3479	0.075295396
52	0xbedf0028	-0.43554807
53	0xbd302d80	-0.043012142
54	0x3f753870	0.9578924
55	0xbf71420a	-0.9424139
56	0x3ca58610	0.020205528
57	0xbe0d128c	-0.13776606
58	0xbec6fbcb	-0.38863978
59	0x3dbb42dc	0.09143612
60	0x3c820638	0.015872106
61	0xbfd4afb8	-1.6616125
62	0xbefd810e	-0.49512523
63	0x3e708199	0.23486938
64	0x3f4fd769	0.81188065
65	0xbf2cb7fc	-0.6746824
66	0xbe900f3c	-0.28136623
67	0x3f7d3c0d	0.98919755
68	0xbf5e14d9	-0.8675056
69	0xbf925a2e	-1.1433771
70	0xbf030e72	-0.51193917
71	0xbf59efd8	-0.851316
72	0x3eaeb896	0.34125203
73	0xbf0a0a41	-0.53921896
74	0xbeb175d4	-0.34660208
75	0x3d444392	0.047916003
76	0xbf9bd750	-1.2175083
77	0x3f67e65b	0.9058587
78	0x3e87e371	0.26540712
79	0xbf104161	-0.5634976
80	0x3f1db460	0.61603355
81	0x3d342d7e	0.043988697
82	0xbf3888e6	-0.7208389
83	0xbe8023ba	-0.25027257
84	0xbf14f847	-0.5819134
85	0xbf0104d7	-0.5039801
86	0x3f07df82	0.5307542
87	0xbdb63cf1	-0.088983424
88	0x3fa5a64b	1.2941374
89	0xbe809c3e	-0.25119203
90	0x3f7e0941	0.9923287
91	0x3edfdb41	0.43721965
92	0xbd9fb05b	-0.07797309
93	0xbea0b98e	-0.31391567
94	0x3d2c785a	0.042106964
95	0x3f3d717b	0.7400128
96	0xbf3af37e	-0.7302779
97	0xbf237e71	-0.6386481
98	0xbefb5937	-0.49091503
99	0x3f7e30c4	0.9929316
100	0xbf8511ea	-1.0396092
101	0xbddf123d	-0.108921506
102	0x3f216704	0.63047814
103	0x3e9dacf9	0.3079603
104	0xbfa0f442	-1.2574542
105	0xbea99003	-0.33117685
106	0x3e8189d1	0.25300458
107	0x3f099374	0.5374062
108	0xbf1169c6	-0.5680202
109	0x3e550bf5	0.20805342
110	0xbf2ae3f6	-0.6675409
111	0xbdac08ca	-0.08400114
112	0xbe0f4d88	-0.1399442
113	0xbe5c2b18	-0.21500814
114	0xc01158b8	-2.27104
115	0xbdcba589	-0.09943683
116	0xbef0e94f	-0.47053
117	0xbf74a8da	-0.9557015
118	0xbedc6190	-0.43043184
119	0xbe0c8354	-0.13721973
120	0x3fa593a3	1.293568
121	0x3f80083b	1.0002512
122	0xbfd81036	-1.6879947
123	0xbe70de67	-0.2352234
124	0xbf67a07a	-0.9047924
125	0xbce7863c	-0.02826225
126	0xbf9c9dc3	-1.2235645
127	0xbee6c9d3	-0.45075855

sequential_3/re_lu_23/Relu;sequential_3/batch_normalization_23/FusedBatchNormV3;sequential_3/conv2d_23/BiasAdd/ReadVariableOp;sequential_3/conv2d_23/BiasAdd;sequential_3/conv2d_23/Conv2D f4 [128]
0	0xbe6a84af	-0.22902177
1	0xbd927864	-0.07151869
2	0xbe02008d	-0.12695523
3	0xbcd6d0cd	-0.02622261
4	0x3e011d4c	0.12608832
5	0x3e27ce6e	0.1638734
6	0x3d548c78	0.051891774
7	0xbe970f2f	-0.29503772
8	0x3df9120b	0.121616445
9	0xbe701ed2	-0.23449257
10	0x3e3829fd	0.17984767
11	0xbeebf2ce	-0.46083683
12	0xbec22a5a	-0.37922937
13	0xbd08e469	-0.033420954
14	0xba425061	-0.000741249
15	0x3e5c9a0c	0.21543139
16	0xbf033b53	-0.51262397
17	0x3d12fc14	0.03588493
18	0x3d9a65dc	0.075389594
19	0x3d3d8c65	0.04627647
20	0xbe47ebff	-0.19523619
21	0xbdc2ab6d	-0.09505353
22	0xbedea594	-0.434857
23	0x3de46fd6	0.111541435
24	0x3e6141ab	0.21997707
25	0xbed15a4f	-0.40889212
26	0xbe9c65ac	-0.3054632
27	0xbdc30b84	-0.09523681
28	0xbd8f3a35	-0.06993524
29	0xbe8806f6	-0.2656781
30	0xbe7e2144	-0.24817377
31	0x3d80623e	0.06268738
32	0xbf0b09e1	-0.5431195
33	0xbf154a1d	-0.5831621
34	0xbe9e5e61	-0.3093138
35	0xbec129b5	-0.37727132
36	0xbede255c	-0.43387878
37	0xbe2df2ae	-0.16987106
38	0xbcba787b	-0.022762528
39	0xbe8d93b5	-0.27651754
40	0x3e53acc7	0.20671378
41	0xbee5e4ad	-0.44901028
42	0xbc7d0ec0	-0.015445411
43	0xbea0913e	-0.3136081
44	0xbe62abb5	-0.22135814
45	0x3eaccc41	0.33749583
46	0xbe210a62	-0.15726617
47	0xbee69e8c	-0.45042837
48	0x3d1ad0a1	0.03779662
49	0x3db4b375	0.08823291
50	0x3e4dea7f	0.20108984
51	0xbf0ad952	-0.54237854
52	0xbd7e012e	-0.062012844
53	0x3dad6236	0.08465998
54	0xbe82b7aa	-0.2553075
55	0xbe8da98b	-0.27668414
56	0x3dd502a7	0.104008965
57	0xbe56fba9	-0.20994438
58	0xbe1b4559	-0.15163173
59	0xbe2fb246	-0.1715785
60	0x3d962d26	0.0733283
61	0xbeaebe11	-0.34129384
62	0xbde0e92f	-0.10981976
63	0xbe817703	-0.2528611
64	0x3e01838e	0.1264784
65	0xbe513225	-0.20429285
66	0xbe3f470a	-0.18679443
67	0xbea8dbf3	-0.32980308
68	0xbe88a516	-0.2668845
69	0x3d8d57a6	0.06901483
70	0xbe88de89	-0.2673228
71	0xbe33d099	-0.17560042
72	0x3e083f1a	0.13305321
73	0xbe045980	-0.12924767
74	0xbec030bf	-0.3753719
75	0xbcd8753c	-0.02642309
76	0xbe61b2e1	-0.22040893
77	0x3e23106f	0.15924238
78	0xbe94c6b8	-0.2905786
79	0xbec99108	-0.39368463
80	0xbed32ae8	-0.41243672
81	0x3e11dad2	0.1424363
82	0xbf1f8198	-0.6230712
83	0xbc5651e8	-0.013081051
84	0xbe4afeaf	-0.19823717
85	0xbe73865d	-0.23781724
86	0x3aa98100	0.0012932122
87	0xbc4429f7	-0.011972896
88	0x3eafdcd1	0.34348157
89	0xbe2623e8	-0.16224635
90	0x3d28463f	0.041082617
91	0xbea5a3d7	-0.32351562
92	0x3e71a4dc	0.23598045
93	0xbe5180cf	-0.20459293
94	0xbf387edb	-0.72068566
95	0xbd2179e1	-0.039422873
96	0xbd98a701	-0.074537285
97	0xbdc11cfa	-0.09429355
98	0xbed5e209	-0.41774014
99	0xbea89f12	-0.3293386
100	0xbe04dd04	-0.12974936
101	0xbd030d6a	-0.031995215
102	0xbe32fc2a	-0.17479005
103	0xbf3ff322	-0.74980366
104	0x3dbf685c	0.09346077
105	0x3e08cf58	0.13360345
106	0x3e484e6e	0.19561169
107	0xbd5d3944	-0.05400969
108	0xbbf79b56	-0.0075563593
109	0xbec968bf	-0.39337727
110	0xbefc09f6	-0.4922635
111	0xbce137ca	-0.027492423
112	0xbdfe82bf	-0.124272816
113	0xbef73533	-0.48282775
114	0xbd469fc6	-0.048492216
115	0xbc3edf7e	-0.011649964
116	0xbe4d9c8e	-0.20079252
117	0xbed28138	-0.4111421
118	0xbe976af6	-0.29573792
119	0xbe4f17b8	-0.20223892
120	0x3e1aad4e	0.15105173
121	0xbf282f2c	-0.6569698
122	0xbef0ebce	-0.47054905
123	0xbe81f6ca	-0.25383598
124	0xbe501e4a	-0.20324054
125	0xbd873695	-0.066022076
126	0xbe2b0729	-0.1670195
127	0xbe6b20a8	-0.22961676

sequential_3/conv2d_18/Conv2D f4 [32, 3, 3, 3]
0	0x3c731583	0.014836672
1	0xbe3fd31d	-0.18732877
2	0x3f5692d5	0.838178
3	0x3f59aeed	0.8503254
4	0xbe7d5e0c	-0.24742907
5	0x3e14c024	0.14526421
6	0x3f285800	0.6575928
7	0x392eb285	0.00016660437
8	0x3f8d244e	1.1026704
9	0xbe955ac7	-0.2917082
10	0x3ec9eedd	0.3944005
11	0xbbb928bb	-0.0056506074
12	0xbebef9a1	-0.37299827
13	0xbf1ffdef	-0.62496847
14	0x3f6d3efb	0.92674226
15	0x3f3a1398	0.7268615
16	0xbd295a9a	-0.04134617
17	0x3ef22030	0.47290182
18	0x3d12b119	0.035813425
19	0xbf76409c	-0.96192336
20	0xbf2b1926	-0.6683525
21	0x3e2ee50b	0.1707956
22	0xbf80529e	-1.0025213
23	0xbeb46aaa	-0.35237628
24	0xbf86fcd4	-1.0545907
25	0xbf96b5f0	-1.1774273
26	0x3e95afa6	0.29235572
27	0xbfbd3eeb	-1.4784826
28	0x408a9cfb	4.3316627
29	0x4057d8a0	3.3725967
30	0xc049d067	-3.1533449
31	0xbfd31793	-1.6491569
32	0xc09124dd	-4.53575
33	0x408bfa9d	4.3743424
34	0x3f3a5c6c	0.72797275
35	0xc030156c	-2.7513075
36	0xbf49419e	-0.7861575
37	0xbf3b69e9	-0.7320848
38	0x408c12a1	4.377274
39	0xc04bb882	-3.1831365
40	0xc026bfad	-2.605449
41	0xc08438cc	-4.131933
42	0x40487055	3.1318562
43	0x40818cd0	4.048439
44	0x3f8d818e	1.1055162
45	0x3f35e896	0.7105802
46	0x3eb9e490	0.36307192
47	0x3f5b7085	0.85718566
48	0x3fbd7e95	1.4804255
49	0xc00fb0d2	-2.2451673
50	0x3fbcd30d	1.4751908
51	0xbf24dac3	-0.64396304
52	0xc0211d08	-2.517397
53	0x3dff7703	0.124738716
54	0x3f3a9f41	0.7289925
55	0x3f439ef8	0.7641444
56	0xbef3a3e7	-0.47585985
57	0xbd3f0602	-0.04663659
58	0x3f4c4415	0.79791385
59	0x3eaf1fb8	0.34203887
60	0xbe9ede33	-0.310289
61	0xbe119ac4	-0.14219195
62	0x3ed8459d	0.4224061
63	0xbdd7c04c	-0.105347246
64	0x3e9a09c9	0.3008559
65	0xbe750b06	-0.23929986
66	0x3e49bc4d	0.19700737
67	0x3f186579	0.59529835
68	0x3ec51646	0.38493556
69	0xbf7582e9	-0.9590288
70	0xbe95144c	-0.29117048
71	0xbe554ff0	-0.20831275
72	0xbe48d906	-0.19614038
73	0xbf1a0655	-0.6016591
74	0xbf150039	-0.58203465
75	0xbf482bbf	-0.7819175
76	0xbf3da294	-0.740762
77	0xbee12776	-0.4397542
78	0xbe9f05cc	-0.3105911
79	0xbf20e6a7	-0.6285195
80	0xbd9985ce	-0.07496224
81	0xbdb42372	-0.08795823
82	0xbf769db9	-0.96334416
83	0xbfd5a766	-1.6691711
84	0x3f3730ca	0.7155882
85	0xbeaa4ba9	-0.3326085
86	0xbf1c601b	-0.61084145
87	0x3f3a822c	0.72854877
88	0x3f5437c0	0.8289757
89	0x3f73e627	0.9527306
90	0xbec64c4f	-0.38730094
91	0xbf622967	-0.88344425
92	0xbee735aa	-0.4515813
93	0x3dabd2e6	0.08389835
94	0x3e67feaa	0.2265574
95	0xbe373b8d	-0.1789381
96	0xbe0440f1	-0.12915398
97	0x3f1e0fba	0.61742747
98	0x3f978387	1.1837014
99	0xbf86d98d	-1.0535141
100	0xbb35dd62	-0.0027750363
101	0xbf88cf9f	-1.0688361
102	0xbd301e1d	-0.04299747
103	0x3e7b37e7	0.24533044
104	0x3f48b78d	0.78405076
105	0x3ec144b4	0.3774773
106	0xbe9d94e6	-0.30777663
107	0x3fa502b3	1.2891449
108	0xbe5c9dee	-0.2154462
109	0xbe437f32	-0.1909149
110	0xbebdcef8	-0.37071967
111	0x3e60bdf4	0.21947461
112	0xbed78a7f	-0.42097852
113	0xbe75acaf	-0.23991655
114	0x3f8e62ad	1.1123863
115	0x3f0a0b43	0.53923434
116	0x3ed78101	0.4209061
117	0x3c65ee92	0.01403393
118	0x3ea7ee00	0.32798767
119	0xbf3a7472	-0.7283393
120	0x3f3f78ae	0.7479352
121	0x3f167fd6	0.5878881
122	0xbeac3f33	-0.33641967
123	0x3f81e612	1.0148337
124	0x3e94f964	0.2909652
125	0x3c566d35	0.01308756
126	0xbf10ebe4	-0.5660994
127	0x3eaddb2c	0.33956277
128	0xbe9bbab0	-0.3041587
129	0xbec2b227	-0.38026544
130	0x3ea478a2	0.32123286
131	0x3e8c5996	0.274121
132	0xbe8d9e90	-0.27660036
133	0xbd3e1ea3	-0.046415936
134	0x3e574400	0.21022034
135	0xc02ff43a	-2.7492814
136	0x4037d2b0	2.8722343
137	0x3f4ba183	0.7954332
138	0x3fad00b9	1.3515846
139	0xbfe553e7	-1.791623
140	0xbf962686	-1.1730506
141	0xbe7f604c	-0.24939078
142	0x3fbe34cf	1.4859866
143	0xbfa8764d	-1.3161103
144	0xc0bab5bf	-5.834686
145	0xc081ac40	-4.0522766
146	0xbfde1bd5	-1.7352244
147	0x40a18634	5.047632
148	0x4038369e	2.8783336
149	0x40301762	2.7514272
150	0x3f522614	0.8208935
151	0x3f9fd2c2	1.2486193
152	0x3ff33167	1.8999451
153	0xbee2563f	-0.44206426
154	0x40862c6b	4.192922
155	0x40cb353c	6.3502483
156	0xbf83a5c9	-1.0284969
157	0xc0dc1a8b	-6.87824
158	0xc087832f	-4.2347636
159	0x405eb628	3.479868
160	0xbfa4a240	-1.2862015
161	0xc01afdf6	-2.4217505
162	0x401ad9a9	2.419535
163	0xbf86800c	-1.0507827
164	0xbf87f21e	-1.0620763
165	0xbf839d2b	-1.0282339
166	0xbef55497	-0.479161
167	0xbf3396b9	-0.7015186
168	0x3f621690	0.8831568
169	0x40275472	2.6145291
170	0xbe254a43	-0.1614161
171	0x3cff2391	0.03114489
172	0x3de232f8	0.11044878
173	0xbfd9ac37	-1.7005681
174	0xc03ce0fe	-2.9512324
175	0xbf701455	-0.93781024
176	0xc00b7c86	-2.1794753
177	0xbfdddba1	-1.733265
178	0xbfadc111	-1.3574544
179	0x3f95868a	1.1681683
180	0x3fd3a359	1.6534225
181	0xbf5a5245	-0.85281783
182	0x3f78f698	0.9725127
183	0x3e86a55c	0.26298034
184	0x3fae8276	1.3633564
185	0x3fb06e13	1.3783592
186	0x3dfb922c	0.122837394
187	0x3f940c78	1.1566305
188	0x400881cb	2.132922
189	0xbd4cc6ec	-0.049994394
190	0xbecfb7dc	-0.4056996
191	0xbe4480fb	-0.19189827
192	0xbfb79074	-1.4340959
193	0xbd75277e	-0.059852116
194	0xbe7955fb	-0.24349205
195	0xbfa94708	-1.3224802
196	0xbed8e448	-0.42361665
197	0xbdeb69d0	-0.114947915
198	0xbf66ec1c	-0.90204024
199	0xbe23342a	-0.15937868
200	0xbe13081a	-0.14358559
201	0x3e3ad583	0.18245511
202	0xbdb8dc68	-0.09026414
203	0xbef58d5b	-0.47959408
204	0x3ec61998	0.386914
205	0x3ec4fc82	0.38473898
206	0xbe476851	-0.19473387
207	0x3f31007f	0.6914138
208	0x3eabc569	0.3354905
209	0xbe2d7e0a	-0.16942611
210	0x3f8561b5	1.0420443
211	0x3f6be1ad	0.9214123
212	0x3cf8fbba	0.03039347
213	0x3f4ff0d4	0.8122685
214	0x3f5e712b	0.8689143
215	0x3eb94327	0.36184046
216	0xbe5b0627	-0.21389066
217	0xbf85d148	-1.0454493
218	0x3f17298a	0.5904776
219	0xbf216e9b	-0.63059396
220	0xbea211f0	-0.3165431
221	0xbe1fb7af	-0.15597413
222	0xbf241ffe	-0.64111316
223	0xbf0c6b43	-0.5485117
224	0xbf430e9d	-0.76194173
225	0xbe02ee78	-0.12786281
226	0xbf61fa9e	-0.88273036
227	0xbe8a6dc3	-0.27036867
228	0x3eaa70b5	0.33289114
229	0xbefc495b	-0.49274716
230	0x3f42f2bc	0.76151633
231	0xbf08c580	-0.5342636
232	0x3f0091ae	0.5022229
233	0x3f120c8a	0.57050383
234	0xbe3aaba0	-0.18229532
235	0xbf50507d	-0.81372815
236	0x3d0e7c8f	0.034786757
237	0x3f5c5fe4	0.8608382
238	0xbd1a7475	-0.03770872
239	0x3f606efb	0.8766934
240	0x3f1281ee	0.57229507
241	0x3f388461	0.72076994
242	0x3e3d35bc	0.1847753
243	0xbb1edc23	-0.0024240098
244	0xbed749ff	-0.42048642
245	0x3e67518f	0.22589706
246	0x3eab532c	0.33461893
247	0xbf261e68	-0.64890146
248	0xbf2aaf2a	-0.6667353
249	0x3ef9014f	0.4863381
250	0xbf934871	-1.1506482
251	0xbf825935	-1.0183474
252	0x3e0fb9da	0.1403574
253	0x3e01ea3c	0.1268701
254	0xbebb323d	-0.36561766
255	0x3eab4317	0.33449623

sequential_3/conv2d_19/Conv2D i1 [32, 3, 3, 32]
0	0x47	71
1	0xf9	-7
2	0x51	81
3	0xda	-38
4	0xfc	-4
5	0xce	-50
6	0xf1	-15
7	0x33	51
8	0x3c	60
9	0x36	54
10	0xf7	-9
11	0xb2	-78
12	0xf7	-9
13	0xdf	-33
14	0xf1	-15
15	0x7c	124
16	0x47	71
17	0xde	-34
18	0x27	39
19	0xe1	-31
20	0xce	-50
21	0xd1	-47
22	0x28	40
23	0x1a	26
24	0xf7	-9
25	0x46	70
26	0x0c	12
27	0x22	34
28	0x07	7
29	0x12	18
30	0x6b	107
31	0x1f	31
32	0x47	71
33	0xc2	-62
34	0x2f	47
35	0xa7	-89
36	0x0e	14
37	0xc9	-55
38	0x14	20
39	0x11	17
40	0x15	21
41	0x3d	61
42	0xe8	-24
43	0x00	0
44	0xd8	-40
45	0x01	1
46	0xd5	-43
47	0x63	99
48	0x04	4
49	0x06	6
50	0x2d	45
51	0xbf	-65
52	0x06	6
53	0x10	16
54	0x31	49
55	0xc0	-64
56	0xf3	-13
57	0xd5	-43
58	0x1c	28
59	0xeb	-21
60	0xff	-1
61	0xf9	-7
62	0x12	18
63	0x23	35
64	0xfa	-6
65	0xfe	-2
66	0xbf	-65
67	0xd1	-47
68	0xb4	-76
69	0x2a	42
70	0xe7	-25
71	0x05	5
72	0x0e	14
73	0xee	-18
74	0xef	-17
75	0x4b	75
76	0xcd	-51
77	0xcc	-52
78	0xdd	-35
79	0x2e	46
80	0x07	7
81	0xbf	-65
82	0x31	49
83	0x10	16
84	0xea	-22
85	0xce	-50
86	0xf5	-11
87	0x12	18
88	0xf5	-11
89	0x20	32
90	0x0c	12
91	0xdf	-33
92	0xcb	-53
93	0xdf	-33
94	0x11	17
95	0x39	57
96	0x1e	30
97	0x21	33
98	0xe8	-24
99	0x23	35
100	0xe0	-32
101	0xdb	-37
102	0x42	66
103	0xee	-18
104	0x3a	58
105	0x31	49
106	0x69	105
107	0x0b	11
108	0xc4	-60
109	0xbe	-66
110	0xd9	-39
111	0x24	36
112	0x49	73
113	0xea	-22
114	0x92	-110
115	0x03	3
116	0xb4	-76
117	0xd7	-41
118	0xde	-34
119	0x13	19
120	0x35	53
121	0x20	32
122	0xe9	-23
123	0xe4	-28
124	0xfd	-3
125	0xe9	-23
126	0xde	-34
127	0x15	21
128	0xb4	-76
129	0xd4	-44
130	0xd6	-42
131	0xfe	-2
132	0xdf	-33
133	0x9d	-99
134	0xd4	-44
135	0x9c	-100
136	0x07	7
137	0x11	17
138	0xeb	-21
139	0xf3	-13
140	0x13	19
141	0xe9	-23
142	0x8e	-114
143	0xf1	-15
144	0x26	38
145	0xe5	-27
146	0xd6	-42
147	0x81	-127
148	0xde	-34
149	0x0b	11
150	0x28	40
151	0xc9	-55
152	0x06	6
153	0xa9	-87
154	0xc9	-55
155	0x0f	15
156	0xbb	-69
157	0xff	-1
158	0x84	-124
159	0xe4	-28
160	0xa2	-94
161	0x27	39
162	0xef	-17
163	0xf2	-14
164	0xbc	-68
165	0x2d	45
166	0x00	0
167	0xbd	-67
168	0xbd	-67
169	0xdd	-35
170	0x39	57
171	0x20	32
172	0xd4	-44
173	0xdb	-37
174	0xa2	-94
175	0xee	-18
176	0xe4	-28
177	0xcc	-52
178	0x07	7
179	0xda	-38
180	0x14	20
181	0xda	-38
182	0xe3	-29
183	0xfc	-4
184	0x29	41
185	0xfb	-5
186	0xb3	-77
187	0x8d	-115
188	0xc8	-56
189	0xfd	-3
190	0xea	-22
191	0x1c	28
192	0x63	99
193	0xe9	-23
194	0x23	35
195	0x3e	62
196	0xe1	-31
197	0x2d	45
198	0x21	33
199	0x19	25
200	0x59	89
201	0xf3	-13
202	0x54	84
203	0xf3	-13
204	0x21	33
205	0xbf	-65
206	0x15	21
207	0xc3	-61
208	0x06	6
209	0x08	8
210	0xea	-22
211	0xe3	-29
212	0xe1	-31
213	0xf4	-12
214	0x14	20
215	0x30	48
216	0x1e	30
217	0xeb	-21
218	0x23	35
219	0x4d	77
220	0x19	25
221	0x06	6
222	0x4a	74
223	0xf1	-15
224	0x31	49
225	0xd2	-46
226	0x68	104
227	0xd1	-47
228	0xe8	-24
229	0xfb	-5
230	0x0e	14
231	0x0b	11
232	0xc9	-55
233	0xfb	-5
234	0xc0	-64
235	0xde	-34
236	0x10	16
237	0xc2	-62
238	0xbd	-67
239	0x28	40
240	0x1e	30
241	0xd9	-39
242	0x44	68
243	0xe9	-23
244	0x09	9
245	0xe3	-29
246	0x34	52
247	0x06	6
248	0x2b	43
249	0xb4	-76
250	0x25	37
251	0x52	82
252	0xdc	-36
253	0x24	36
254	0xe9	-23
255	0xf8	-8

sequential_3/conv2d_20/Conv2D i1 [64, 3, 3, 32]
0	0xc1	-63
1	0x0b	11
2	0xd7	-41
3	0xdf	-33
4	0x32	50
5	0x39	57
6	0x43	67
7	0x18	24
8	0x20	32
9	0xf4	-12
10	0x05	5
11	0xeb	-21
12	0x27	39
13	0x1f	31
14	0x19	25
15	0x15	21
16	0xf3	-13
17	0x17	23
18	0x0c	12
19	0x19	25
20	0xf4	-12
21	0xf8	-8
22	0xc5	-59
23	0xe3	-29
24	0xe4	-28
25	0x27	39
26	0x27	39
27	0xf1	-15
28	0x27	39
29	0x28	40
30	0x06	6
31	0xe6	-26
32	0xe7	-25
33	0x33	51
34	0xf3	-13
35	0xc0	-64
36	0xf9	-7
37	0x24	36
38	0x1f	31
39	0x0e	14
40	0xf1	-15
41	0x12	18
42	0x28	40
43	0x0c	12
44	0x09	9
45	0x3a	58
46	0x16	22
47	0x07	7
48	0xcb	-53
49	0x12	18
50	0x2a	42
51	0x42	66
52	0xef	-17
53	0xfd	-3
54	0x18	24
55	0x14	20
56	0xe2	-30
57	0x40	64
58	0x16	22
59	0x12	18
60	0x16	22
61	0xe5	-27
62	0x39	57
63	0x0f	15
64	0xe8	-24
65	0x01	1
66	0xcb	-53
67	0x22	34
68	0xfa	-6
69	0x3d	61
70	0x10	16
71	0x2e	46
72	0xca	-54
73	0x08	8
74	0xfa	-6
75	0xb7	-73
76	0xe8	-24
77	0x1e	30
78	0x31	49
79	0x0d	13
80	0xd5	-43
81	0x13	19
82	0x24	36
83	0xf8	-8
84	0x09	9
85	0x0a	10
86	0x1b	27
87	0x14	20
88	0x15	21
89	0x24	36
90	0x33	51
91	0x1f	31
92	0x21	33
93	0xe5	-27
94	0x17	23
95	0x14	20
96	0xb8	-72
97	0x06	6
98	0x30	48
99	0xd7	-41
100	0x16	22
101	0xde	-34
102	0x00	0
103	0x0d	13
104	0xfe	-2
105	0xdd	-35
106	0xcd	-51
107	0x20	32
108	0x02	2
109	0xaa	-86
110	0xcd	-51
111	0xd7	-41
112	0xfd	-3
113	0xcb	-53
114	0xfc	-4
115	0xeb	-21
116	0xfe	-2
117	0xc9	-55
118	0xd2	-46
119	0xe8	-24
120	0xd1	-47
121	0xf0	-16
122	0x08	8
123	0xa7	-89
124	0xbe	-66
125	0x07	7
126	0x0a	10
127	0xd4	-44
128	0xe9	-23
129	0xfe	-2
130	0x4f	79
131	0xc7	-57
132	0x07	7
133	0x12	18
134	0x07	7
135	0xec	-20
136	0x04	4
137	0xe1	-31
138	0xe5	-27
139	0x22	34
140	0xef	-17
141	0xf4	-12
142	0xd9	-39
143	0xd1	-47
144	0x04	4
145	0x0c	12
146	0xbc	-68
147	0xf7	-9
148	0x0b	11
149	0x16	22
150	0xd1	-47
151	0x18	24
152	0xc0	-64
153	0xf0	-16
154	0xd6	-42
155	0x9e	-98
156	0x06	6
157	0x08	8
158	0xf7	-9
159	0x2d	45
160	0xd0	-48
161	0x1e	30
162	0x1c	28
163	0xd2	-46
164	0xe9	-23
165	0x23	35
166	0x1b	27
167	0xfc	-4
168	0x05	5
169	0xd4	-44
170	0xca	-54
171	0xd8	-40
172	0xdc	-36
173	0xd3	-45
174	0xf9	-7
175	0xd4	-44
176	0xdf	-33
177	0xce	-50
178	0xfa	-6
179	0xb9	-71
180	0xf9	-7
181	0x39	57
182	0xe3	-29
183	0xff	-1
184	0xf6	-10
185	0xec	-20
186	0x08	8
187	0x0c	12
188	0xe8	-24
189	0x0b	11
190	0xd2	-46
191	0xf0	-16
192	0xd4	-44
193	0xf3	-13
194	0xfd	-3
195	0x2a	42
196	0x17	23
197	0xbf	-65
198	0x1c	28
199	0x09	9
200	0x5e	94
201	0xee	-18
202	0xe9	-23
203	0x45	69
204	0x26	38
205	0xc7	-57
206	0xea	-22
207	0x1f	31
208	0xfd	-3
209	0xd6	-42
210	0x4d	77
211	0xe8	-24
212	0xd1	-47
213	0xbe	-66
214	0xe6	-26
215	0xf2	-14
216	0xfd	-3
217	0x0d	13
218	0x0d	13
219	0xf8	-8
220	0x9e	-98
221	0x30	48
222	0x05	5
223	0xc4	-60
224	0xec	-20
225	0xec	-20
226	0x22	34
227	0x30	48
228	0xea	-22
229	0xd4	-44
230	0x1a	26
231	0x81	-127
232	0x1f	31
233	0xc5	-59
234	0x0b	11
235	0x40	64
236	0xe1	-31
237	0xaa	-86
238	0xfb	-5
239	0x13	19
240	0x23	35
241	0xdf	-33
242	0x1f	31
243	0xf9	-7
244	0xee	-18
245	0xf6	-10
246	0x08	8
247	0x01	1
248	0xec	-20
249	0xd1	-47
250	0x0d	13
251	0xdf	-33
252	0xf1	-15
253	0x15	21
254	0xdc	-36
255	0xe8	-24

sequential_3/conv2d_21/Conv2D i1 [64, 3, 3, 64]
0	0xf5	-11
1	0xc2	-62
2	0xae	-82
3	0x35	53
4	0x2d	45
5	0xce	-50
6	0xb5	-75
7	0x18	24
8	0x00	0
9	0x91	-111
10	0xd3	-45
11	0x15	21
12	0xd5	-43
13	0xbf	-65
14	0xc8	-56
15	0xd8	-40
16	0x09	9
17	0xec	-20
18	0xe2	-30
19	0x1d	29
20	0x04	4
21	0xde	-34
22	0x2b	43
23	0x1b	27
24	0x13	19
25	0xe8	-24
26	0xf8	-8
27	0xd6	-42
28	0x09	9
29	0x2f	47
30	0x81	-127
31	0xee	-18
32	0x82	-126
33	0xaa	-86
34	0xc7	-57
35	0x21	33
36	0x2b	43
37	0xd0	-48
38	0xfa	-6
39	0xed	-19
40	0x1c	28
41	0xac	-84
42	0xe8	-24
43	0xfd	-3
44	0x00	0
45	0xf5	-11
46	0x0c	12
47	0xe5	-27
48	0xd7	-41
49	0x26	38
50	0xea	-22
51	0x43	67
52	0xc0	-64
53	0x06	6
54	0x24	36
55	0xe0	-32
56	0x47	71
57	0x2b	43
58	0xda	-38
59	0x99	-103
60	0x61	97
61	0x04	4
62	0x70	112
63	0xfd	-3
64	0xeb	-21
65	0xaa	-86
66	0x10	16
67	0x0d	13
68	0x09	9
69	0x12	18
70	0xfc	-4
71	0xec	-20
72	0xef	-17
73	0xf9	-7
74	0xd6	-42
75	0x03	3
76	0xff	-1
77	0xd8	-40
78	0xbe	-66
79	0xde	-34
80	0x12	18
81	0xdb	-37
82	0x28	40
83	0x14	20
84	0x2c	44
85	0xfd	-3
86	0x19	25
87	0x0d	13
88	0x34	52
89	0x07	7
90	0xee	-18
91	0xf5	-11
92	0x2a	42
93	0x38	56
94	0xcf	-49
95	0xd3	-45
96	0x88	-120
97	0xb5	-75
98	0xbb	-69
99	0xf8	-8
100	0xd2	-46
101	0xd7	-41
102	0x30	48
103	0xc5	-59
104	0x18	24
105	0x93	-109
106	0xca	-54
107	0xbe	-66
108	0x20	32
109	0xa1	-95
110	0xe9	-23
111	0x18	24
112	0xff	-1
113	0x07	7
114	0x0d	13
115	0x1b	27
116	0xb9	-71
117	0x11	17
118	0x26	38
119	0xf9	-7
120	0x2b	43
121	0x07	7
122	0x27	39
123	0xaf	-81
124	0x32	50
125	0xf4	-12
126	0xf1	-15
127	0xe0	-32
128	0xd4	-44
129	0xf8	-8
130	0xfb	-5
131	0x2c	44
132	0x22	34
133	0xfb	-5
134	0xfe	-2
135	0xd8	-40
136	0xf2	-14
137	0xe3	-29
138	0xbe	-66
139	0x31	49
140	0xd5	-43
141	0xfb	-5
142	0xef	-17
143	0xd9	-39
144	0x18	24
145	0xd5	-43
146	0x05	5
147	0x04	4
148	0x6a	106
149	0x26	38
150	0xff	-1
151	0x06	6
152	0x12	18
153	0xf1	-15
154	0xd2	-46
155	0x30	48
156	0x0f	15
157	0x0c	12
158	0x0c	12
159	0xfd	-3
160	0xee	-18
161	0xf9	-7
162	0x98	-104
163	0x19	25
164	0x08	8
165	0xe3	-29
166	0xac	-84
167	0xbe	-66
168	0x53	83
169	0x9b	-101
170	0xd1	-47
171	0xf9	-7
172	0x19	25
173	0xfb	-5
174	0xe6	-26
175	0x15	21
176	0x1f	31
177	0x22	34
178	0xd5	-43
179	0x2a	42
180	0x02	2
181	0xc5	-59
182	0x0a	10
183	0xb6	-74
184	0x13	19
185	0x20	32
186	0xf7	-9
187	0x0f	15
188	0x21	33
189	0xee	-18
190	0x24	36
191	0x2b	43
192	0x28	40
193	0xee	-18
194	0xc0	-64
195	0xe3	-29
196	0x12	18
197	0xfb	-5
198	0xf1	-15
199	0x22	34
200	0xdf	-33
201	0xd3	-45
202	0xed	-19
203	0xf4	-12
204	0xfc	-4
205	0xd1	-47
206	0xe4	-28
207	0xdc	-36
208	0xfa	-6
209	0x19	25
210	0x00	0
211	0x28	40
212	0x8c	-116
213	0x5a	90
214	0xf7	-9
215	0x07	7
216	0xc9	-55
217	0xa2	-94
218	0x12	18
219	0xf1	-15
220	0x35	53
221	0xf5	-11
222	0xe3	-29
223	0x29	41
224	0xae	-82
225	0xef	-17
226	0x01	1
227	0x0e	14
228	0xa4	-92
229	0x2a	42
230	0x00	0
231	0xf7	-9
232	0xf7	-9
233	0x18	24
234	0xd9	-39
235	0x1d	29
236	0xe5	-27
237	0x22	34
238	0x42	66
239	0xd6	-42
240	0x3c	60
241	0x3b	59
242	0xf4	-12
243	0x44	68
244	0xcc	-52
245	0xea	-22
246	0x03	3
247	0xe7	-25
248	0xf4	-12
249	0x36	54
250	0x37	55
251	0xdf	-33
252	0xbe	-66
253	0xf3	-13
254	0x29	41
255	0x0c	12

sequential_3/conv2d_22/Conv2D i1 [128, 3, 3, 64]
0	0x23	35
1	0xc7	-57
2	0xed	-19
3	0x95	-107
4	0x2f	47
5	0x40	64
6	0xd9	-39
7	0xca	-54
8	0x1a	26
9	0x1f	31
10	0x1d	29
11	0x07	7
12	0x25	37
13	0x02	2
14	0xfa	-6
15	0xfb	-5
16	0x09	9
17	0x0c	12
18	0xd0	-48
19	0xc3	-61
20	0xe2	-30
21	0xfa	-6
22	0x22	34
23	0x00	0
24	0x1d	29
25	0x24	36
26	0xfc	-4
27	0x01	1
28	0x07	7
29	0x29	41
30	0x14	20
31	0xcc	-52
32	0x27	39
33	0x38	56
34	0xf0	-16
35	0xda	-38
36	0xf2	-14
37	0x1d	29
38	0x88	-120
39	0xe7	-25
40	0xcb	-53
41	0x2a	42
42	0xf1	-15
43	0xc0	-64
44	0xd7	-41
45	0x0e	14
46	0x1f	31
47	0xef	-17
48	0x19	25
49	0x26	38
50	0xfb	-5
51	0x0d	13
52	0x40	64
53	0x1d	29
54	0x11	17
55	0xf3	-13
56	0x08	8
57	0xdf	-33
58	0xd7	-41
59	0x38	56
60	0x0f	15
61	0xf1	-15
62	0xff	-1
63	0xf4	-12
64	0x09	9
65	0xd5	-43
66	0xf7	-9
67	0xc8	-56
68	0x20	32
69	0x1e	30
70	0xde	-34
71	0xdc	-36
72	0xfb	-5
73	0x10	16
74	0x06	6
75	0x2d	45
76	0x3f	63
77	0x12	18
78	0x05	5
79	0xe3	-29
80	0x23	35
81	0x11	17
82	0xec	-20
83	0x06	6
84	0x27	39
85	0xf5	-11
86	0x24	36
87	0x44	68
88	0x05	5
89	0x0b	11
90	0x01	1
91	0xc7	-57
92	0xe0	-32
93	0x14	20
94	0x0a	10
95	0xc3	-61
96	0xfe	-2
97	0x2a	42
98	0xfb	-5
99	0x05	5
100	0xd2	-46
101	0x02	2
102	0xbb	-69
103	0xde	-34
104	0xef	-17
105	0xf1	-15
106	0xec	-20
107	0xec	-20
108	0xfd	-3
109	0xf2	-14
110	0x3c	60
111	0xea	-22
112	0x2e	46
113	0x15	21
114	0x0d	13
115	0xed	-19
116	0x32	50
117	0x0c	12
118	0x08	8
119	0xee	-18
120	0x06	6
121	0xda	-38
122	0xf3	-13
123	0x12	18
124	0x22	34
125	0x14	20
126	0xf2	-14
127	0xf5	-11
128	0xf7	-9
129	0xbb	-69
130	0x3d	61
131	0xc6	-58
132	0x07	7
133	0xfa	-6
134	0xf9	-7
135	0xc0	-64
136	0xec	-20
137	0xf3	-13
138	0x15	21
139	0x0e	14
140	0x35	53
141	0xf4	-12
142	0xf8	-8
143	0xc8	-56
144	0x22	34
145	0xe8	-24
146	0x24	36
147	0x0d	13
148	0x1b	27
149	0x05	5
150	0x1b	27
151	0x37	55
152	0x0e	14
153	0xf0	-16
154	0x0e	14
155	0xdb	-37
156	0xd8	-40
157	0x25	37
158	0x2d	45
159	0xbf	-65
160	0xfd	-3
161	0x3c	60
162	0x0e	14
163	0x00	0
164	0x98	-104
165	0x0c	12
166	0xf9	-7
167	0xfb	-5
168	0xe2	-30
169	0x12	18
170	0xff	-1
171	0xf1	-15
172	0x0d	13
173	0xfb	-5
174	0x10	16
175	0xe4	-28
176	0x1e	30
177	0x20	32
178	0x06	6
179	0x06	6
180	0x1d	29
181	0xf5	-11
182	0xf8	-8
183	0xc7	-57
184	0xe8	-24
185	0xfc	-4
186	0x0c	12
187	0x08	8
188	0xf7	-9
189	0xf2	-14
190	0x06	6
191	0xe5	-27
192	0x1f	31
193	0xb8	-72
194	0x29	41
195	0x81	-127
196	0x0c	12
197	0x48	72
198	0x02	2
199	0xf0	-16
200	0x28	40
201	0x27	39
202	0x39	57
203	0x05	5
204	0x0a	10
205	0x18	24
206	0xce	-50
207	0xe2	-30
208	0x0d	13
209	0xf4	-12
210	0xc7	-57
211	0xe2	-30
212	0xc6	-58
213	0xf0	-16
214	0xea	-22
215	0x00	0
216	0xf6	-10
217	0x23	35
218	0xd3	-45
219	0x05	5
220	0x08	8
221	0x17	23
222	0x17	23
223	0xc5	-59
224	0x01	1
225	0x32	50
226	0x04	4
227	0xf6	-10
228	0x0c	12
229	0x19	25
230	0xd2	-46
231	0xf8	-8
232	0xf1	-15
233	0x21	33
234	0x03	3
235	0xd2	-46
236	0xfe	-2
237	0x3a	58
238	0xf5	-11
239	0xf6	-10
240	0xf8	-8
241	0x1f	31
242	0x06	6
243	0xfb	-5
244	0x31	49
245	0x00	0
246	0x13	19
247	0xfe	-2
248	0xf4	-12
249	0xef	-17
250	0xe6	-26
251	0x1e	30
252	0xf1	-15
253	0x06	6
254	0xe9	-23
255	0xee	-18

sequential_3/conv2d_23/Conv2D i1 [128, 3, 3, 128]
0	0x37	55
1	0x1f	31
2	0x0c	12
3	0xfa	-6
4	0x0c	12
5	0xb4	-76
6	0x1e	30
7	0x20	32
8	0x03	3
9	0x3d	61
10	0x10	16
11	0xbf	-65
12	0x19	25
13	0xf7	-9
14	0xe5	-27
15	0xc3	-61
16	0xc2	-62
17	0xd0	-48
18	0x26	38
19	0x1c	28
20	0x09	9
21	0x3b	59
22	0xf4	-12
23	0x25	37
24	0x08	8
25	0xff	-1
26	0xfb	-5
27	0xfd	-3
28	0xa7	-89
29	0x44	68
30	0x2b	43
31	0x0f	15
32	0xec	-20
33	0xf9	-7
34	0x08	8
35	0x0b	11
36	0xee	-18
37	0xbd	-67
38	0x0b	11
39	0x14	20
40	0xee	-18
41	0x3b	59
42	0x22	34
43	0x06	6
44	0xe8	-24
45	0x17	23
46	0xd6	-42
47	0xde	-34
48	0xff	-1
49	0x14	20
50	0x0d	13
51	0x27	39
52	0xf5	-11
53	0x0c	12
54	0xe0	-32
55	0x25	37
56	0xc7	-57
57	0xfd	-3
58	0xee	-18
59	0x1e	30
60	0xd8	-40
61	0xef	-17
62	0x0b	11
63	0xf4	-12
64	0xec	-20
65	0x10	16
66	0x0e	14
67	0xe4	-28
68	0xce	-50
69	0xf7	-9
70	0xde	-34
71	0x10	16
72	0x04	4
73	0xdb	-37
74	0x9b	-101
75	0x37	55
76	0x10	16
77	0x1b	27
78	0x03	3
79	0x20	32
80	0x09	9
81	0x1f	31
82	0xee	-18
83	0x23	35
84	0xea	-22
85	0x81	-127
86	0x04	4
87	0x41	65
88	0x2b	43
89	0xdb	-37
90	0x14	20
91	0xec	-20
92	0x1f	31
93	0xf2	-14
94	0xf9	-7
95	0x1b	27
96	0xbb	-69
97	0xd5	-43
98	0xf9	-7
99	0x0b	11
100	0x41	65
101	0xf0	-16
102	0xea	-22
103	0xe9	-23
104	0x1c	28
105	0x24	36
106	0xda	-38
107	0x03	3
108	0xf9	-7
109	0xeb	-21
110	0xf2	-14
111	0xc3	-61
112	0x03	3
113	0xcc	-52
114	0xf7	-9
115	0x15	21
116	0xe3	-29
117	0x07	7
118	0x23	35
119	0xf6	-10
120	0xfd	-3
121	0xd8	-40
122	0x19	25
123	0x23	35
124	0x29	41
125	0xfb	-5
126	0xf5	-11
127	0x27	39
128	0x1f	31
129	0x15	21
130	0x03	3
131	0xdb	-37
132	0xe1	-31
133	0xb6	-74
134	0xf2	-14
135	0x0e	14
136	0xfc	-4
137	0x2b	43
138	0xfb	-5
139	0xfc	-4
140	0x15	21
141	0xfc	-4
142	0xd2	-46
143	0xd5	-43
144	0xef	-17
145	0xd0	-48
146	0xf0	-16
147	0x1e	30
148	0xf6	-10
149	0x04	4
150	0xf4	-12
151	0x20	32
152	0x00	0
153	0x18	24
154	0xd4	-44
155	0xf8	-8
156	0xac	-84
157	0x10	16
158	0x32	50
159	0xfd	-3
160	0xdd	-35
161	0xe1	-31
162	0xef	-17
163	0xfe	-2
164	0xbf	-65
165	0xdf	-33
166	0xee	-18
167	0x0d	13
168	0xec	-20
169	0x31	49
170	0xfd	-3
171	0x03	3
172	0xfe	-2
173	0x25	37
174	0xdb	-37
175	0x00	0
176	0x01	1
177	0x1f	31
178	0x07	7
179	0x0f	15
180	0x14	20
181	0x01	1
182	0xea	-22
183	0x0f	15
184	0xe9	-23
185	0xeb	-21
186	0x0a	10
187	0x17	23
188	0xd5	-43
189	0x07	7
190	0x05	5
191	0x09	9
192	0xe9	-23
193	0xef	-17
194	0x23	35
195	0xd7	-41
196	0xdc	-36
197	0xef	-17
198	0xf4	-12
199	0x10	16
200	0x0d	13
201	0xd6	-42
202	0xe8	-24
203	0x22	34
204	0x12	18
205	0x00	0
206	0xfa	-6
207	0xfa	-6
208	0x0c	12
209	0x16	22
210	0xfa	-6
211	0x3b	59
212	0xd7	-41
213	0x91	-111
214	0xfc	-4
215	0x1e	30
216	0xfa	-6
217	0xcc	-52
218	0x0f	15
219	0xe1	-31
220	0x56	86
221	0x04	4
222	0xf7	-9
223	0x18	24
224	0xc9	-55
225	0xf1	-15
226	0xf5	-11
227	0xf8	-8
228	0x29	41
229	0xf3	-13
230	0x00	0
231	0xfc	-4
232	0x0b	11
233	0x21	33
234	0xcd	-51
235	0x04	4
236	0x08	8
237	0xee	-18
238	0x19	25
239	0xec	-20
240	0xf1	-15
241	0xca	-54
242	0xff	-1
243	0x10	16
244	0xd3	-45
245	0xef	-17
246	0x2c	44
247	0xe9	-23
248	0x16	22
249	0xc0	-64
250	0x03	3
251	0x04	4
252	0x1e	30
253	0x01	1
254	0xff	-1
255	0x04	4

sequential_3/dense_6/MatMul i1 [256, 128] scale=0.004520768 zero_point=0
0	0xf8	-0.036166143
1	0xff	-0.004520768
2	0x3b	0.2667253
3	0x25	0.16726841
4	0xf6	-0.04520768
5	0x04	0.018083071
6	0xfb	-0.02260384
7	0xe9	-0.10397766
8	0x0b	0.049728446
9	0xb6	-0.33453682
10	0xe1	-0.1401438
11	0xf4	-0.054249212
12	0xf6	-0.04520768
13	0xf7	-0.04068691
14	0xdb	-0.16726841
15	0x03	0.013562303
16	0xfc	-0.018083071
17	0x0c	0.054249212
18	0xfc	-0.018083071
19	0xc6	-0.26220453
20	0xef	-0.07685305
21	0x05	0.02260384
22	0xf1	-0.06781152
23	0x0b	0.049728446
24	0x29	0.18535148
25	0x13	0.08589459
26	0x07	0.031645376
27	0x07	0.031645376
28	0xe3	-0.13110226
29	0xee	-0.08137382
30	0x23	0.15822688
31	0xd9	-0.17630994
32	0xfc	-0.018083071
33	0xd5	-0.19439302
34	0x00	0.0
35	0xd0	-0.21699685
36	0xff	-0.004520768
37	0xe8	-0.108498424
38	0xf0	-0.072332285
39	0xe9	-0.10397766
40	0x05	0.02260384
41	0x16	0.09945689
42	0x04	0.018083071
43	0x01	0.004520768
44	0xf9	-0.031645376
45	0x0e	0.06329075
46	0xe3	-0.13110226
47	0x19	0.1130192
48	0xe5	-0.12206073
49	0xea	-0.09945689
50	0x0b	0.049728446
51	0x01	0.004520768
52	0x16	0.09945689
53	0xf5	-0.049728446
54	0xda	-0.17178918
55	0xf2	-0.06329075
56	0x1e	0.13562304
57	0xd8	-0.18083072
58	0x09	0.04068691
59	0x26	0.17178918
60	0x07	0.031645376
61	0x0b	0.049728446
62	0x14	0.09041536
63	0x0e	0.06329075
64	0x25	0.16726841
65	0xe7	-0.1130192
66	0xef	-0.07685305
67	0xd1	-0.21247609
68	0xfa	-0.027124606
69	0xe6	-0.117539965
70	0x89	-0.5379714
71	0xf2	-0.06329075
72	0x2c	0.19891378
73	0xf1	-0.06781152
74	0x06	0.027124606
75	0x29	0.18535148
76	0xf6	-0.04520768
77	0xee	-0.08137382
78	0x14	0.09041536
79	0x05	0.02260384
80	0xf9	-0.031645376
81	0xeb	-0.094936125
82	0x0d	0.058769982
83	0xe9	-0.10397766
84	0xd9	-0.17630994
85	0xf2	-0.06329075
86	0x17	0.10397766
87	0x1d	0.13110226
88	0xfd	-0.013562303
89	0xf2	-0.06329075
90	0x01	0.004520768
91	0x36	0.24412146
92	0xfb	-0.02260384
93	0xe4	-0.1265815
94	0x06	0.027124606
95	0xe8	-0.108498424
96	0xc5	-0.2667253
97	0x04	0.018083071
98	0x01	0.004520768
99	0x0a	0.04520768
100	0x09	0.04068691
101	0x13	0.08589459
102	0xef	-0.07685305
103	0x03	0.013562303
104	0xc0	-0.28932914
105	0xe6	-0.117539965
106	0xed	-0.08589459
107	0xa2	-0.42495218
108	0xfd	-0.013562303
109	0xe4	-0.1265815
110	0xed	-0.08589459
111	0xfd	-0.013562303
112	0xf6	-0.04520768
113	0xf4	-0.054249212
114	0x1e	0.13562304
115	0xdf	-0.14918534
116	0x00	0.0
117	0xe1	-0.1401438
118	0x26	0.17178918
119	0xd1	-0.21247609
120	0xd9	-0.17630994
121	0x00	0.0
122	0xfa	-0.027124606
123	0x1f	0.1401438
124	0x04	0.018083071
125	0xcc	-0.23507993
126	0x05	0.02260384
127	0x0e	0.06329075
128	0x1a	0.117539965
129	0xed	-0.08589459
130	0x16	0.09945689
131	0x07	0.031645376
132	0xea	-0.09945689
133	0xfd	-0.013562303
134	0xf5	-0.049728446
135	0x01	0.004520768
136	0x12	0.08137382
137	0xf9	-0.031645376
138	0xeb	-0.094936125
139	0x0e	0.06329075
140	0x2a	0.18987225
141	0x07	0.031645376
142	0xf4	-0.054249212
143	0xd1	-0.21247609
144	0x14	0.09041536
145	0xf5	-0.049728446
146	0xf2	-0.06329075
147	0x0d	0.058769982
148	0xe7	-0.1130192
149	0x2a	0.18987225
150	0xa7	-0.40234834
151	0x14	0.09041536
152	0x06	0.027124606
153	0xe5	-0.12206073
154	0xda	-0.17178918
155	0xc3	-0.27576685
156	0xf7	-0.04068691
157	0xac	-0.3797445
158	0xe2	-0.13562304
159	0xce	-0.2260384
160	0xee	-0.08137382
161	0xbb	-0.31193298
162	0xee	-0.08137382
163	0xbe	-0.2983707
164	0xf1	-0.06781152
165	0xcd	-0.23055916
166	0xf2	-0.06329075
167	0x0a	0.04520768
168	0xda	-0.17178918
169	0xf9	-0.031645376
170	0xde	-0.1537061
171	0x30	0.21699685
172	0x00	0.0
173	0x0b	0.049728446
174	0x1b	0.12206073
175	0x33	0.23055916
176	0xfe	-0.009041536
177	0x0c	0.054249212
178	0x23	0.15822688
179	0xf1	-0.06781152
180	0x12	0.08137382
181	0x0e	0.06329075
182	0x19	0.1130192
183	0xf3	-0.058769982
184	0xec	-0.09041536
185	0xf2	-0.06329075
186	0x01	0.004520768
187	0xfd	-0.013562303
188	0xf4	-0.054249212
189	0xeb	-0.094936125
190	0x08	0.036166143
191	0xd2	-0.20795532
192	0x2b	0.19439302
193	0x14	0.09041536
194	0x1b	0.12206073
195	0xe8	-0.108498424
196	0x1f	0.1401438
197	0xe2	-0.13562304
198	0xee	-0.08137382
199	0xef	-0.07685305
200	0xf9	-0.031645376
201	0x0a	0.04520768
202	0xf8	-0.036166143
203	0x0c	0.054249212
204	0xf4	-0.054249212
205	0xd6	-0.18987225
206	0xe1	-0.1401438
207	0x01	0.004520768
208	0x02	0.009041536
209	0x14	0.09041536
210	0xee	-0.08137382
211	0xf4	-0.054249212
212	0xd6	-0.18987225
213	0x08	0.036166143
214	0xe9	-0.10397766
215	0x0f	0.06781152
216	0x02	0.009041536
217	0x0a	0.04520768
218	0xf2	-0.06329075
219	0x0e	0.06329075
220	0x0a	0.04520768
221	0xe2	-0.13562304
222	0x00	0.0
223	0xf6	-0.04520768
224	0xea	-0.09945689
225	0xe9	-0.10397766
226	0x00	0.0
227	0x1f	0.1401438
228	0xbf	-0.29384992
229	0x05	0.02260384
230	0xb8	-0.32549527
231	0xf3	-0.058769982
232	0xf2	-0.06329075
233	0x1a	0.117539965
234	0x06	0.027124606
235	0x1e	0.13562304
236	0x13	0.08589459
237	0x43	0.30289143
238	0xcd	-0.23055916
239	0x12	0.08137382
240	0xed	-0.08589459
241	0xb8	-0.32549527
242	0x0b	0.049728446
243	0x13	0.08589459
244	0xf7	-0.04068691
245	0x12	0.08137382
246	0x20	0.14466457
247	0xd1	-0.21247609
248	0xf0	-0.072332285
249	0x16	0.09945689
250	0x26	0.17178918
251	0xef	-0.07685305
252	0xf5	-0.049728446
253	0x17	0.10397766
254	0x09	0.04068691
255	0x11	0.07685305
