part3_edge_optimization/dynamic_range.tflite (tflite, 339440 bytes, 16 tensors)

sequential_3/dense_6/BiasAdd/ReadVariableOp f4 [256]
000000 fb b0 ec 3d 63 84 32 3e c8 e0 72 3e ed 54 cf 3b
       0.11557194 0.17433314 0.2371856 0.0063272626
000010 fe a3 2c 3e 6b 4d 57 3e 18 ae 87 3e c5 29 f5 3d
       0.16859433 0.21025626 0.2650001 0.119708575
000020 b6 2d 9e 3d 3a 9d 82 3e dc 12 91 3e 70 3b 3f 3d
       0.077235624 0.2551058 0.283347 0.046687543
000030 8e c1 15 3e e8 16 1f 3e e0 0f fc 3d 7c 60 4b 3e
       0.14624617 0.15536082 0.123077154 0.19861025
000040 77 e5 49 3e a4 ce 5d 3e 65 9c 7f 3e 29 db 85 3d
       0.1971644 0.21660858 0.24962004 0.06535942
000050 c3 db 87 3e 08 44 71 3e 2e 56 1b 3e 19 ec e9 3d
       0.26534852 0.23561108 0.15169594 0.11421985
000060 af 54 3f 3e 67 89 20 3e 0a 16 0d 3e 22 85 6c 3e
       0.18684648 0.15677415 0.13777938 0.23097661
000070 cf 14 4f 3e a1 4e cf 3d 84 10 00 3e 54 6f 4c bc
       0.20222782 0.10122419 0.125063 -0.012477715
000080 23 dd 41 3e fe 19 20 3e e6 1c 20 3d 63 2c 7c 3e
       0.18932013 0.15634915 0.03909006 0.24626307
000090 01 8c 9d 3e 3d 60 bd 3d a7 d9 6d 3d 3d dd ab bc
       0.30770877 0.092468716 0.058068898 -0.020979518
0000a0 88 c5 8b 3d dd 5e 84 3e b3 df 3c 3e 3a 09 c2 3d
       0.068247855 0.25853625 0.1844471 0.09474416
0000b0 1e 9a cb 3d 31 45 57 3e 60 44 21 3e 81 3f 74 3e
       0.09941505 0.21022488 0.15748739 0.2385235
0000c0 ce b7 10 3e 61 21 10 3e 5d c5 ca 3d 05 9f 09 3e
       0.14132616 0.14075233 0.09900925 0.13439567
0000d0 f1 c6 f6 3d 0f 58 96 3e a8 96 0a 3e e1 6d e6 3b
       0.12049664 0.29364058 0.13534033 0.0070321416
0000e0 45 1b a7 bd 1c b0 fd 3d 90 8f 15 3e a9 72 89 3e
       -0.08159498 0.12387106 0.14605546 0.2684529
0000f0 67 cf b3 3d 5d 95 46 3e 85 42 fe 3c 7c df 40 3e
       0.08779793 0.19392915 0.031037578 0.18835253
000100 57 0d a9 bd 24 45 12 3e e7 07 d6 3d c8 99 ff bd
       -0.082544975 0.14284188 0.10450726 -0.12480503
000110 9b d9 38 3e 77 22 f4 3d 14 c5 1d 3e a7 98 54 3e
       0.1805176 0.11920636 0.1540721 0.20761357
000120 5d d7 8b 3d 64 2d 40 3e 97 a2 00 3d e6 f2 53 3e
       0.06828187 0.18767315 0.031405058 0.20698127
000130 bf f0 3b 3e 38 ba b6 bd 93 c3 17 3e a8 c0 52 3e
       0.18353556 -0.08922237 0.148207 0.20581305
000140 cf a8 0e 3d 4b 62 06 3e 0d ad 42 3e 26 a7 56 3e
       0.034828957 0.13123433 0.19011326 0.209622
000150 02 18 c4 3d 86 50 7a 3e 9f 3b 3a 3e 06 41 66 3e
       0.095748916 0.2444478 0.18186806 0.22485742
000160 63 84 f2 3d 59 e5 46 3e 26 95 8a 3e d4 77 89 3e
       0.11841657 0.19423427 0.27066916 0.26849234
000170 06 34 ec 3d 48 8d 2d 3e df 34 72 3e a3 57 d3 3d
       0.1153336 0.16948426 0.23652981 0.1031945
000180 2e 03 04 3d 04 4a 05 3e 67 eb b1 3d 9f a4 f0 3a
       0.032229595 0.13016516 0.086874776 0.0018359608
000190 c0 62 12 3e bf 40 8c 3e 94 46 8c 3d 73 9a 22 3e
       0.14295483 0.27393147 0.06849399 0.1587923
0001a0 da 01 33 3e 67 05 ec 3d ba 65 5f 3c 1b 68 49 3e
       0.17481175 0.11524468 0.013635093 0.1966862
0001b0 d1 dc 3e 3e 17 25 75 3e cf 00 02 3e 94 fe 4f 3e
       0.18638922 0.2393993 0.12695621 0.20311958
0001c0 81 27 d3 3d 18 0d 39 3e 8a 78 cb 3d 03 bd c3 3b
       0.10310269 0.18071401 0.099351004 0.0059734597
0001d0 03 53 19 3e 49 10 cb 3d 52 18 b4 3d dd 0c 96 3e
       0.14973073 0.099152155 0.08793701 0.2930669
0001e0 03 8c 15 3e e1 35 08 3e bc 5b b9 3d fb 5d a8 3d
       0.14604191 0.13301803 0.090507 0.0822105
0001f0 90 64 3d 3e 67 8c 89 3e 50 42 03 3e 4d f4 4e 3e
       0.18495393 0.2686493 0.12818265 0.20210381
000200 54 f6 72 3e 50 54 54 3e 29 eb 69 3d d8 13 17 3e
       0.23726779 0.20735288 0.05710903 0.14753664
000210 1d 49 31 3e c4 cd 37 bd e8 74 44 3b 47 68 91 3e
       0.17313047 -0.044873968 0.0029976908 0.2839987
000220 c1 9c 00 3d 9f 64 3b 3c f7 3c 6e 3d 6f 54 71 3e
       0.031399492 0.011437564 0.05816361 0.23567365
000230 03 de 67 3e 79 1c 45 3e 8a 33 95 3d c5 7f ec 3d
       0.22643284 0.19249143 0.07285221 0.115478076
000240 5f 91 47 3e eb a1 9f 3d 11 cd 3e 3e 8f 91 44 3e
       0.19489048 0.07794555 0.18632914 0.19196151
000250 d7 4c 9d 3b 20 04 58 3e 72 0a 1d 3e 89 42 8b 3e
       0.00480042 0.21095324 0.15336016 0.271992
000260 de aa 73 3e d4 aa 62 3e 97 aa 5c 3e 1f c6 3d 3e
       0.2379565 0.22135478 0.2154945 0.18532608
000270 38 50 9e 3e 00 d4 e6 3d c2 dc a1 3d ee a8 93 3d
       0.30920577 0.112709045 0.07903434 0.07209955
000280 46 4a 3d 3e f9 ad 88 3e e8 68 6d 3e d8 2a c4 3d
       0.18485364 0.2669523 0.2318455 0.09578484
000290 47 5d f4 bc 51 61 e4 3d 28 e9 09 3e 72 9b a2 3d
       -0.029829634 0.11151374 0.13467848 0.07939805
0002a0 85 dc 47 3e 3f c5 a6 bd 44 c5 28 3e 87 df 0e 3d
       0.19517715 -0.081430905 0.16481501 0.03488114
0002b0 94 bd 6e 3e 41 9f e2 3d b4 24 36 3e 0d d9 8f 3e
       0.23314506 0.110655315 0.17787439 0.28095284
0002c0 d8 93 58 3e 81 3d 5b 3e d7 67 46 3e 81 55 4e 3e
       0.21150148 0.2141018 0.1937555 0.20149805
0002d0 a2 89 67 3e 7e e5 15 3d a3 78 43 3d f1 ec 52 3e
       0.22611097 0.036595814 0.04772247 0.20598198
0002e0 4e 04 6a 3e 66 66 72 3c d2 c4 cb 3d 43 02 40 3e
       0.22853205 0.0147949215 0.0994965 0.18750863
0002f0 5f c2 71 3d 2f 89 09 3e 47 91 61 3e 7b fc f7 3d
       0.059023257 0.13431238 0.22028075 0.12108704
000300 23 89 57 3e 7d d1 4e 3e 6c 6a 67 3e 21 aa 23 3e
       0.21048407 0.20197101 0.2259919 0.15982868
000310 3f d8 83 3e 19 6d 23 3e f8 39 03 3e 99 72 82 3e
       0.2575092 0.15959586 0.12815082 0.25478056
000320 ed 0e f8 3d 6b 4b b2 3d 91 b6 24 3e 4f 24 8d 3e
       0.12112222 0.08705791 0.16085269 0.27566764
000330 2e 71 a1 3e 2a e2 99 3e 6f c6 26 3e d2 ba e4 3d
       0.31531662 0.30055362 0.16286634 0.11168446
000340 01 e5 b6 bd e9 f4 72 3d 8d 29 7c 3e 7f 97 85 3e
       -0.08930398 0.059315596 0.24625225 0.26092145
000350 bc fe ce 3d dc 7b d5 3d 85 8c 09 3e c6 0b 77 3d
       0.101071805 0.10424015 0.1343251 0.060313962
000360 5f 18 0b 3d 07 a2 11 3e 41 34 a3 3e bc cc e4 3d
       0.03395879 0.14221965 0.31875804 0.111718625
000370 76 c4 72 3e 02 5c ef 3d 07 14 c8 3d 55 a4 4e 3e
       0.23707756 0.11687471 0.09769445 0.20179875
000380 ae dd 97 3e 8e c6 65 3e e0 81 64 3e 32 a2 ef bd
       0.29661316 0.22439024 0.22315168 -0.11700858
000390 2b 58 a8 3e 87 d6 fe 3d ed 16 2b 3e 4b f2 03 3e
       0.32879767 0.124432616 0.16707964 0.12885396
0003a0 28 1c a3 3b 08 8f 65 3e c7 10 67 3e ff 88 bc 3c
       0.0049777217 0.22417843 0.22564994 0.023014544
0003b0 ab 6d 8e 3d ef 31 b1 3d e4 65 54 3d 39 69 8f 3e
       0.06954511 0.08652102 0.051854983 0.28009966
0003c0 fe 6a 62 3e 9c 15 37 3e 7b 9f 84 3e 11 e0 5e 3d
       0.22111127 0.17879337 0.25902924 0.054412905
0003d0 8e b6 81 3e 7f a8 4b 3e e5 0c 89 3e e5 f7 e2 3d
       0.2533459 0.19888495 0.2676765 0.110824384
0003e0 8b 87 a3 3e 10 23 b7 3d 41 2a d7 bd 1c dd c2 3c
       0.3193935 0.089422345 -0.10506106 0.023787074
0003f0 c2 91 77 3e 97 48 d0 3d bc cb 9d bd cf d9 55 3e
       0.24176696 0.101700954 -0.07704875 0.20883869

sequential_3/dense_7/BiasAdd/ReadVariableOp f4 [10]
000000 61 17 8d 3d e0 0d 23 be 90 80 f1 3d e3 75 85 3e
       0.06889225 -0.15923262 0.117920995 0.26066503
000010 56 46 b7 bc 0e fb 1e be 69 e5 5a bd 34 9c 80 3d
       -0.022372406 -0.15525457 -0.05344144 0.062797934
000020 cb e4 23 be d7 2f fe bc
       -0.16005246 -0.031028671

sequential_3/re_lu_18/Relu;sequential_3/batch_normalization_18/FusedBatchNormV3;sequential_3/conv2d_18/BiasAdd/ReadVariableOp;sequential_3/conv2d_18/BiasAdd;sequential_3/conv2d_19/Conv2D;sequential_3/conv2d_18/Conv2D f4 [32]
000000 7d 19 2d bf 4f 01 07 3f 80 14 76 bc 7f a9 a2 3e
       -0.6761702 0.5273637 -0.015019536 0.3176994
000010 f3 78 03 3f 9c a1 37 3f 4a 50 00 3f aa 2f 68 3f
       0.5135643 0.7173097 0.5012251 0.9069773
000020 62 1b 9c 3e 9c e5 d3 bf 48 42 a5 3d 25 79 53 3e
       0.3048964 -1.6554446 0.08069283 0.20651682
000030 8f 03 ad 3d 0c 93 86 3f fb 0e ba be fb 1e 36 3f
       0.084479444 1.0513625 -0.36339554 0.7114102
000040 ae 06 16 3f 5b eb dc 3e c0 d3 7a 3f 6c bd ad 3e
       0.5860394 0.43148312 0.97979355 0.3393358
000050 d0 34 8e 3e c6 32 42 3f f3 8b 2d 3f 7f da 29 3e
       0.27774668 0.75858724 0.6779167 0.16587256
000060 c0 df e6 3d 88 ef e1 3c d3 42 36 3e 18 63 ea bc
       0.11273146 0.027580038 0.17798929 -0.028611705
000070 58 25 d1 3e 68 f7 f7 3c 8c b6 a3 bd fe d3 1a 3f
       0.40848804 0.03026934 -0.079938024 0.60479724

sequential_3/re_lu_19/Relu;sequential_3/batch_normalization_19/FusedBatchNormV3;sequential_3/conv2d_19/BiasAdd/ReadVariableOp;sequential_3/conv2d_19/BiasAdd;sequential_3/conv2d_19/Conv2D f4 [32]
000000 2a 8d b0 be 63 6b 0b 3f 59 d7 c1 3f 29 96 ce bf
       -0.344827 0.54460734 1.5143844 -1.6139575
000010 ca 30 7b 3e e5 fa 24 3f 88 5c 9e 3e 4f 4d 9f 3e
       0.2453033 0.64445335 0.3092997 0.3111367
000020 12 13 9c 3e 21 6f b1 3e f7 aa 36 3f 1e cf 9c 3f
       0.304833 0.34655097 0.7135462 1.2250707
000030 7b c4 7e 3f 78 75 28 3f e6 7f 8c 3e 6f 6f 8a 3f
       0.99518555 0.65804243 0.2744133 1.0815257
000040 90 fb 6e 3e 55 d2 fa bd a6 3a 08 3d 49 ac 36 3e
       0.23338151 -0.12247149 0.033259057 0.17839159
000050 c4 94 69 3b aa f1 a0 3e c9 88 82 bb 74 cd 14 3f
       0.003564165 0.31434375 -0.003983591 0.58125997
000060 09 7e a4 3e e2 3e 65 3e be 2e 22 3f 33 2e f5 3e
       0.32127407 0.22387269 0.6335257 0.4788681
000070 48 41 72 3f d4 d4 06 be 22 41 f9 bf 2e 5b f1 3d
       0.9463086 -0.13167125 -1.9473002 0.11784969

sequential_3/re_lu_20/Relu;sequential_3/batch_normalization_20/FusedBatchNormV3;sequential_3/conv2d_20/BiasAdd/ReadVariableOp;sequential_3/conv2d_20/BiasAdd;sequential_3/conv2d_21/Conv2D;sequential_3/conv2d_20/Conv2D f4 [64]
000000 d9 17 11 3f 58 95 e9 3d 64 14 44 3f d1 54 93 bf
       0.56677014 0.11405438 0.76593614 -1.1510259
000010 b9 7e 33 be 0c d6 c4 3e b9 66 c8 bb 33 d0 46 3e
       -0.1752881 0.38444555 -0.006115761 0.19415359
000020 e2 3a 59 bf 34 21 e5 3e a5 58 73 3e bb 85 bc 3e
       -0.84855473 0.44751894 0.23764284 0.36820778
000030 2b b7 21 3e 13 0d 61 3f 88 d5 7e 3e 8e d3 6a 3e
       0.1579253 0.87910575 0.24886143 0.22932264
000040 9d 66 ba 3e 4a 36 bd be 10 b9 10 3f 8d c8 0a 3f
       0.36406413 -0.36955482 0.5653238 0.54212266
000050 7d 96 de 3d 64 cd 30 3f 37 2b b2 3e 28 cf 47 be
       0.10868547 0.690634 0.34798595 -0.19512618
000060 db 44 db 3e b0 e0 01 3e 8f 78 cb 3e 8a 3e ea be
       0.4282597 0.12683368 0.39740416 -0.4575084
000070 8e 3d a2 be 54 e9 4e be 8e 85 a8 3d 48 04 02 3d
       -0.31687587 -0.20206195 0.082285985 0.031742364
000080 14 f9 27 3f b5 5c ef bd b4 31 27 bd bf ba 90 3d
       0.6561444 -0.11687604 -0.040818885 0.07066869
000090 9c 56 82 3f 63 1a 73 bf e0 fd a4 3e 02 77 00 3f
       1.0182681 -0.9496214 0.3222494 0.5018159
0000a0 31 a7 d1 3e 0f a0 08 3f d2 b6 75 3f 8d b3 1d 3f
       0.4094787 0.5336923 0.95982087 0.616021
0000b0 9c 0e 60 bc 04 8c 63 3e 18 44 32 3f 73 dc ee be
       -0.013675358 0.2222138 0.6963515 -0.46652564
0000c0 4b fb 01 3f d7 dc c0 3e 70 80 18 be 30 75 72 3f
       0.5077407 0.37668487 -0.14892745 0.94710064
0000d0 1e 9b 7c bd d4 ac d4 3c 74 62 49 3e 4a a4 72 3e
       -0.06167137 0.025961317 0.19666463 0.23695484
0000e0 78 8e 01 3f 3f 7d 67 3e 30 2b 42 3f 48 f6 99 bd
       0.50608015 0.22606371 0.7584715 -0.075176775
0000f0 5b 55 27 3f fb d8 8f 3e fb 02 47 3f b3 b4 90 3f
       0.6536462 0.2809523 0.7773892 1.1305145

sequential_3/re_lu_21/Relu;sequential_3/batch_normalization_21/FusedBatchNormV3;sequential_3/conv2d_21/BiasAdd/ReadVariableOp;sequential_3/conv2d_21/BiasAdd;sequential_3/conv2d_21/Conv2D f4 [64]
000000 d3 61 e7 3e 7c eb 40 3e d7 a4 ad 3f b2 43 97 3f
       0.4519182 0.1883983 1.356593 1.1817534
000010 66 32 3e 3f c0 05 ad 3f 97 07 06 3f 5c a7 42 bf
       0.7429565 1.351738 0.5235533 -0.7603662
000020 c7 e0 be 3b 0a 2d aa 3e ca 0c 1a 3f 40 f4 18 3f
       0.0058251354 0.33237487 0.60175765 0.59747696
000030 dc 8e 62 3f 9e bd a5 3e 38 8c 3b 3f 89 93 ef 3f
       0.88499236 0.3237123 0.7326083 1.8716899
000040 a0 87 77 3f 11 02 3e 3f 13 8a 0d 3f 96 e1 2b 3d
       0.9669132 0.74221903 0.5528881 0.041963182
000050 0f 8c 0e 3e 98 94 67 3f 39 52 c6 3e e4 46 8f 3f
       0.13920616 0.9046111 0.38734606 1.1193509
000060 c2 9b 20 3f 53 c3 a3 3f a1 e1 7b 3f 44 e6 cb 3e
       0.6273767 1.2793983 0.9839116 0.39824116
000070 9c b2 1f 3f 8e 52 4a 3e 67 c5 7f be b9 27 42 3f
       0.6238191 0.19758055 -0.24977647 0.7584186
000080 ed 73 88 3d 75 49 b0 bd d8 09 ac 3f 57 83 2c 3e
       0.06662736 -0.08607761 1.3440504 0.16846977
000090 43 bd 1a bf 76 09 5f 3f 31 a2 4b 3f 33 69 0e 3f
       -0.6044504 0.8712381 0.7954436 0.5562927
0000a0 b4 37 88 bf d6 b9 9c 3f 6a 56 a1 3f c1 49 2b 3f
       -1.0641999 1.2244213 1.2604496 0.66909415
0000b0 9e db a5 3e 1e 68 e5 3e e8 8f 6b 3f c1 aa 83 3f
       0.32394117 0.44805998 0.9201646 1.0286485
0000c0 f1 4a 56 3f 30 98 96 bf f3 5e 9e 3f 79 70 66 bf
       0.837081 -1.1765194 1.2372726 -0.9001537
0000d0 7e 6e 56 3e d3 ab 0e 3f 3d 03 dc be 0f 01 92 3f
       0.20940587 0.5573093 -0.4297122 1.1406573
0000e0 19 da 34 3c 52 0c 09 3f 45 57 b2 3f 29 3c 37 3f
       0.011038327 0.53534424 1.3932883 0.7157617
0000f0 18 94 cc bc 82 7e 61 3f d1 6f ff 3e 58 04 4e 3f
       -0.02497296 0.8808366 0.49889997 0.8047538

sequential_3/re_lu_22/Relu;sequential_3/batch_normalization_22/FusedBatchNormV3;sequential_3/conv2d_22/BiasAdd/ReadVariableOp;sequential_3/conv2d_22/BiasAdd;sequential_3/conv2d_23/Conv2D;sequential_3/conv2d_22/Conv2D f4 [128]
000000 23 3c 50 3e 7a 1b 26 bf 8b 86 cc 3e 4f e5 c2 bf
       0.2033544 -0.64885676 0.39946398 -1.522623
000010 7d ba b6 be 1b 78 0c be 20 2c 5c be c1 c2 1a be
       -0.35689154 -0.13717692 -0.21501207 -0.15113355
000020 7d 3c 02 bf 14 6c 25 bf 1c db cb be 3d bd 3a bf
       -0.5087355 -0.6461804 -0.39815605 -0.72945005
000030 20 5b 34 3f 71 dd 74 3e 2a 34 2a bf 61 27 fe be
       0.70451546 0.23912598 -0.66485846 -0.4963942
000040 a8 f6 da bd bc 56 a5 be 0c f4 42 3e 7c 4f 2d bf
       -0.10691577 -0.32292736 0.19038409 -0.6769941
000050 72 11 e1 be bf 85 cb 3e 3a 1c 28 be 14 4a aa 3f
       -0.43958622 0.39750478 -0.16417018 1.3303857
000060 01 e8 91 be ec e6 9e 3e ae 31 9e 3d 20 71 95 be
       -0.28497317 0.31035554 0.077243194 -0.2918787
000070 98 d4 11 bf 9a be 84 3f 3d 26 7b 3f 9c d4 59 3f
       -0.5696502 1.0370667 0.9810522 0.8509004
000080 78 1d 77 be 52 74 23 bf 70 aa cb 3e 67 6f 83 3f
       -0.24132335 -0.63849366 0.3977847 1.0268372
000090 c0 d2 03 bd 22 a3 6a bf 83 f8 23 3f d9 9e 7f 3d
       -0.03218341 -0.9165517 0.64051074 0.06240735
0000a0 2e 19 7b be fa f8 96 3e 5c 66 ca 3e 05 9a 6d 3e
       -0.24521324 0.2948683 0.3953122 0.23203285
0000b0 6b c8 82 3f d4 21 44 3f 1d 57 ad bf 7f bd 9b bf
       1.0217413 0.7661412 -1.354221 -1.2167205
0000c0 e9 d8 8c be d7 89 77 3d 50 33 79 3e 95 d8 03 3f
       -0.2750924 0.06043419 0.2433598 0.5150235
0000d0 59 0f 80 bf 01 91 b9 3e c2 50 0f 3f f5 c2 b8 3e
       -1.0004684 0.36243442 0.559826 0.3608624
0000e0 83 59 b0 be cd 7a 65 3c 3b 4d 72 bf 03 78 ca bc
       -0.34443292 0.014006329 -0.94649094 -0.02471543
0000f0 88 1e 3b 3e 39 bb a6 bf 02 be 68 3f 91 a5 cd be
       0.18273365 -1.3025886 0.9091493 -0.4016538
000100 49 ae ce bd f8 f0 99 bf 93 cc 95 bd 36 58 07 bf
       -0.10091836 -1.2026663 -0.0731441 -0.52868974
000110 86 6d 1c 3f 39 c6 44 3e 27 a2 1e be 4e 67 e9 3e
       0.6110462 0.19216241 -0.15491544 0.45586628
000120 2a 5a 16 3e 2d 8c 27 bf a8 cf fa 3d cb 89 50 3e
       0.14682832 -0.65448266 0.122466385 0.20365064
000130 0c 77 28 3e 17 a7 8c be da f8 39 3f 16 a7 3d 3e
       0.16451663 -0.2747123 0.7264534 0.1852077
000140 95 e8 85 be ca a5 45 bf a0 92 bf bf a7 04 cf 3e
       -0.26154009 -0.772061 -1.4966621 0.40433237
000150 37 61 49 be 1b 50 c5 be f2 54 08 3f 6a 59 47 bf
       -0.19665991 -0.38537678 0.53254616 -0.7787081
000160 22 5e 9c bf ef e3 a3 bd 82 c5 d2 be fc 12 89 bf
       -1.2216227 -0.08002459 -0.41166312 -1.0708919
000170 f9 16 39 3f bb cf 5e 3d d8 da eb 3e 5f 16 37 bf
       0.7230068 0.054397326 0.46065402 -0.7151851
000180 6d 86 51 bf 79 aa 74 bd 07 29 52 3e 83 e4 65 be
       -0.8184574 -0.059732888 0.20523463 -0.22450452
000190 95 cc 7c bf 25 2c ea 3d 82 7b 27 3f ec 69 27 bf
       -0.9874967 0.11434201 0.6542283 -0.65396
0001a0 ae 89 2c bf 49 1f ba be 79 3d b5 3d e3 6b e6 bd
       -0.6739758 -0.36351994 0.088496156 -0.112510465
0001b0 5b 5c 14 3f a8 0a 8f bf 80 3e a6 bf 32 72 a2 3e
       0.57953423 -1.1175127 -1.2987823 0.3172775
0001c0 12 94 0a bf 3a 2e 31 bf 8b 5f 71 bf ff e1 4b bf
       -0.5413219 -0.6921116 -0.9428641 -0.7964172
0001d0 0e 2c 3f bf 7b 82 57 bd 83 9d ea be d9 01 14 bf
       -0.746766 -0.05261467 -0.45823297 -0.5781532
0001e0 8f 04 16 3e 89 d8 19 bf 65 69 10 bf 37 35 5c bf
       0.14650176 -0.6009603 -0.5641082 -0.860187
0001f0 07 4b c0 be 72 11 ca 3e 9d d2 ac bd 2c 48 88 3e
       -0.3755724 0.39466435 -0.08438609 0.26617563

sequential_3/re_lu_23/Relu;sequential_3/batch_normalization_23/FusedBatchNormV3;sequential_3/conv2d_23/BiasAdd/ReadVariableOp;sequential_3/conv2d_23/BiasAdd;sequential_3/conv2d_23/Conv2D f4 [128]
000000 12 1b 66 be 5c f2 50 be 10 d6 93 bb fd 4b 16 be
       -0.22471264 -0.20404953 -0.004511602 -0.14677425
000010 5c ee c7 bd b1 8e 5e 3e 6c d7 3f 3d 8d c8 ef be
       -0.0976226 0.2173412 0.0468363 -0.46832696
000020 4c 4b 4f 3e ba 51 8e be 0e 1c 8e be e0 fb 0b bf
       0.20243567 -0.27796727 -0.2775578 -0.54681206
000030 5d cb 93 3d ce 9a 8d be ed d0 e3 be 30 20 a8 be
       0.07216523 -0.2765717 -0.44495335 -0.32837057
000040 80 b1 c8 3e d1 53 8b be 5d 7f b9 3e 33 34 65 3d
       0.39197922 -0.27212384 0.36229983 0.055957984
000050 c7 dd 6e be d9 ae b2 be 78 d3 07 bc 12 43 75 be
       -0.23326789 -0.34899023 -0.008290164 -0.23951367
000060 d2 11 27 be 66 b2 71 3e a7 2f 1a be 9c 3d 52 3e
       -0.16315392 0.2360321 -0.1505724 0.20531315
000070 b9 1b 9b 3d 60 4a 78 be ad a8 e5 be 36 8f 29 3e
       0.07573647 -0.24247122 -0.44855252 0.16558537
000080 09 ad 4b be d5 c5 9a be ac ca c1 bc 8d 9e 21 3e
       -0.19890226 -0.3022906 -0.023656212 0.15783139
000090 0c 02 62 bd 19 cb 37 be 17 09 47 3d 90 73 e1 bd
       -0.055177733 -0.1794857 0.048592653 -0.1100837
0000a0 2d c5 38 bb d6 30 66 3d 58 03 83 3e 21 46 de bd
       -0.0028193698 0.056198917 0.2558849 -0.1085322
0000b0 b8 b1 8a be 45 d5 8f be 6d 1e f5 be f8 2c 0b 3e
       -0.27088714 -0.280924 -0.47874776 0.13591373
0000c0 90 22 1e bf 8b 67 41 be 47 bb 5e 3e dc 1a 29 bf
       -0.6177149 -0.18887155 0.21751128 -0.6605661
0000d0 b7 df 83 3c 99 63 06 be bf de 2d be 99 f7 8c be
       0.016097886 -0.13123931 -0.16979502 -0.27532652
0000e0 68 63 8d 3d 81 06 f1 be 20 14 00 bf c0 04 90 3e
       0.06903726 -0.47075275 -0.5003071 0.28128624
0000f0 be 03 c1 be 18 60 fc bd 4f fd 29 3c f3 79 9a 3d
       -0.37698168 -0.12323016 0.010375335 0.07542791
000100 a6 20 a7 bc d7 b0 26 3e e3 c4 20 3e 08 b1 95 3d
       -0.02040131 0.16278397 0.15700106 0.07309157
000110 9f ed 99 3a e5 f6 af be 45 d6 88 bd 7e 33 4b bd
       0.001174379 -0.34368053 -0.06681494 -0.049609654
000120 d1 5c 8f be 14 ec e7 be f3 59 3f bd 6e 0c fe bd
       -0.280005 -0.452973 -0.04671664 -0.124047145
000130 14 e9 3b bd a1 31 13 bc 9f 42 1b be fd 7d 1b 3e
       -0.045876577 -0.008984 -0.15162133 0.1518478
000140 84 c2 d6 bd ec 88 79 3d 06 43 3f be 82 f5 8e bd
       -0.1048632 0.060921595 -0.18677911 -0.06980421
000150 5c 0e b2 bd 97 04 1c be a1 80 34 bf 67 1e ba bc
       -0.08694145 -0.15236126 -0.7050877 -0.022719575
000160 0b a3 cb bd 93 2f 8e 3e 1c 1e 7a 3e b7 cf 01 3f
       -0.09943207 0.2777067 0.24425548 0.5070757
000170 a8 66 89 3e f4 06 ed be cc 96 ed bc d3 dd f6 3c
       0.26836133 -0.46294367 -0.02900257 0.03013507
000180 90 1a c2 bc 62 80 35 3c ee c1 41 be 37 28 19 be
       -0.023694307 0.011077972 -0.18921635 -0.14956747
000190 a9 e8 96 be c5 e1 6d be 47 3f 8d bd 70 73 4e bd
       -0.2947438 -0.23230655 -0.06896835 -0.05040306
0001a0 7e 10 c7 bd da 1b cd 3d 89 19 92 3e 27 fd 48 be
       -0.097199425 0.10015078 0.28535107 -0.1962782
0001b0 24 1b 5a be 57 fc c3 be d7 ad 21 3e 81 e3 8d be
       -0.21299416 -0.38278458 0.15788971 -0.27712634
0001c0 6b b7 ba be f2 42 cb be d0 0a e9 be 05 f5 67 be
       -0.36468062 -0.39699513 -0.45516062 -0.22652061
0001d0 7d a1 a0 be 15 30 f8 be f1 28 c0 be 44 a2 57 3e
       -0.31373206 -0.48474184 -0.37531236 0.21057993
0001e0 f8 e9 9c bc 23 2d 19 3d fc f3 07 bf 11 24 cc be
       -0.019154534 0.03739656 -0.53106666 -0.39871266
0001f0 75 c0 14 be 8e 8f a2 be bf 36 29 be 2f 7f ff bd
       -0.14526542 -0.3175015 -0.1652479 -0.1247543

sequential_3/conv2d_18/Conv2D f4 [32, 3, 3, 3]
000000 8e ea 89 3d 51 06 03 c0 ee eb 80 bb 30 8e 9d 3f
       0.06734191 -2.0472605 -0.003934375 1.2309017
000010 cd 0b b8 bf 95 b6 ad bd 50 5c 5d 3f d8 3d 92 be
       -1.4378601 -0.084820904 0.8646898 -0.28562808
000020 1c 04 e6 be fc c6 11 40 0a 10 9b 3e ac 2e ef bf
       -0.4492501 2.27777 0.30285674 -1.8686118
000030 21 05 de 3f 7f 9d c6 bf b9 dc f7 be 34 27 ad 3f
       1.7345315 -1.5516814 -0.48410586 1.3527589
000040 3d d3 1a 3f 60 9c 93 3f 8e 56 18 3f 74 79 3c 3e
       0.60478574 1.1532097 0.5950707 0.18405706
000050 23 0c 04 bf 8a d5 d8 bd 5c 2d 2d bf 17 8b 8c 3f
       -0.5158102 -0.10587604 -0.6764734 1.0979947
000060 f8 da c6 bf 51 16 5a bf af 35 da 3f 00 ef 7e bf
       -1.5535574 -0.851903 1.7047633 -0.99583435
000070 1e e0 f2 bf 56 f5 48 be f8 ec 3f 40 43 62 9e 40
       -1.8974645 -0.19624838 2.9988384 4.949495
000080 41 04 96 40 b4 eb 6b 3f 3f a5 a9 bf 88 66 42 c0
       4.6880193 0.9215653 -1.3253554 -3.037508
000090 99 8a 8e bf 88 65 2a be 8d 76 2f c0 45 a3 15 c0
       -1.1136047 -0.16640294 -2.7416108 -2.3380902
0000a0 e7 be 1b 40 c0 fd d5 3f bb 24 19 c0 e7 3e 1a c0
       2.4335268 1.6718063 -2.3928668 -2.4100893
0000b0 24 c4 89 c0 75 55 4b 40 00 5e ee bf ed 89 c9 3f
       -4.305193 3.177091 -1.8622437 1.5745217
0000c0 46 ac b4 bf 3f 0b 8b c0 2f e3 04 bf fb a7 59 3f
       -1.4115074 -4.345123 -0.51909155 0.8502194
0000d0 1c 1e 8b 40 59 a7 4c 40 80 2f 2d c0 c4 61 b0 3f
       4.3474255 3.197714 -2.7060242 1.3779836
0000e0 a5 2b 3c 40 35 22 dc bf 30 11 e1 3f 8f 50 2e 40
       2.9401639 -1.7197939 1.758337 2.723667
0000f0 12 0c 89 c0 54 6e e3 3d 04 06 78 40 eb 0a 71 bc
       -4.2827234 0.11105028 3.8753672 -0.014712076
000100 eb 15 03 c0 b3 2e 00 3e b3 3b c4 be 61 d3 11 c0
       -2.0482128 0.12517814 -0.38326797 -2.2785265
000110 94 9e 94 bf c2 d1 d1 3f e7 9c cf bf 92 49 03 3f
       -1.1610894 1.6392138 -1.6219758 0.51284134
000120 63 6c a2 3f 4e cf 20 40 23 f0 52 c0 76 aa 07 40
       1.2689327 2.5126529 -3.2959068 2.119779
000130 46 2e 01 40 4a 8a 20 c0 18 f9 6b 40 21 e9 d2 bf
       2.0184493 -2.5084405 3.6870785 -1.6477395
000140 56 a6 4b c0 d3 42 9a 3f 8f f5 e1 3f b9 7b 35 bf
       -3.1820273 1.2051643 1.7653064 -0.7089191
000150 c0 e0 a8 3f ab 10 9d 3e f4 47 8c bf a8 3a a8 be
       1.3193588 0.3067678 -1.0959458 -0.3285725
000160 26 6e 0a bf 60 02 d2 3e 19 99 aa 3f 4d 25 d4 3e
       -0.54074323 0.41017437 1.3327972 0.41434708
000170 f3 02 d7 3d 50 14 be bf 78 0c 96 bf a2 01 30 be
       0.104986094 -1.4849949 -1.1722555 -0.17188123
000180 9b 30 17 bf 4c 9a 80 be a4 af 56 3d 2a 4b a9 3e
       -0.5905854 -0.2511772 0.052413598 0.33065158
000190 af 6b df be d8 79 f9 3e b8 32 bc bf 9d 51 bc be
       -0.43636844 0.48725772 -1.4702978 -0.36781016
0001a0 fb a8 c4 3e 45 58 40 bf 10 b8 a0 bd e1 0a d2 3e
       0.38410172 -0.7513469 -0.07847607 0.41023925
0001b0 48 ae e7 3e ff d1 c9 3e e9 49 0d be 1d 9f 6b 3f
       0.45250154 0.39418027 -0.13797726 0.9203966
0001c0 c9 41 c7 be 19 fb c0 3f 07 d2 03 40 de 81 86 3f
       -0.38917378 1.5076629 2.059694 1.0508382
0001d0 a5 70 64 3f 81 ad 10 c0 a5 15 d2 3e 8a 11 f5 3e
       0.8923438 -2.2605898 0.41032138 0.47864944
0001e0 13 82 e1 bf e5 e0 25 c0 ae c9 ca be 33 81 92 3f
       -1.761782 -2.5918515 -0.39606994 1.1445678
0001f0 3c 59 2b 3e 70 20 f1 bf 25 4e 3e 3e 5e bb 09 40
       0.16733259 -1.8838024 0.18584497 2.152061
000200 b2 8e e3 3f f0 87 1e bf 61 f7 b7 3f 66 47 87 bf
       1.7777922 -0.61926174 1.4372369 -1.0568664
000210 b3 cb 4f bf 2d c9 d2 bf 72 fc e8 bf 0f 9a 05 3f
       -0.81170195 -1.6467644 -1.820204 0.521882
000220 b9 28 71 bf 02 56 86 bf 61 e6 00 3f 8f a6 bb be
       -0.9420276 -1.0494998 0.5035153 -0.36650512
000230 c3 87 c1 3e 10 0f b2 bc 1c f7 09 be 11 06 24 3f
       0.3779889 -0.021735698 -0.13473171 0.64071757
000240 e1 33 08 bf 4c 48 8d bf 1f 0f c3 bf bf 3a b2 bd
       -0.5320416 -1.1037688 -1.523899 -0.08702611
000250 66 7a c8 be 61 6e f2 3e 6f 19 77 3f 71 bf 19 3f
       -0.39155883 0.47349837 0.96523184 0.6005774
000260 2c 18 0c 3f c5 2e e8 be de ad 28 bf 3f ad 48 3c
       0.54724383 -0.45348182 -0.658903 0.012248336
000270 ac 91 37 3e 6f 36 5e 3f b6 91 35 be 2c b7 d0 3c
       0.17926663 0.8680181 -0.17731366 0.025477968
000280 35 84 e2 be b6 67 a0 3e 3a 6e 12 bf 4e 25 a1 be
       -0.4424149 0.31329125 -0.5719944 -0.31473774
000290 87 32 e6 3e 5c 93 08 bf 4c 03 5a be 1e dd 91 bf
       0.44960424 -0.5334985 -0.2129032 -1.1395605
0002a0 ff 6c 83 3f 14 0e 43 3e c4 51 66 3f 41 21 72 be
       1.0267638 0.19048339 0.89968514 -0.23645498
0002b0 34 66 94 3f 56 7a 50 3f 3b 2e 7b bf 00 47 98 3f
       1.159369 0.8143667 -0.9811742 1.1896667
0002c0 fd 71 2e bf 4f 8b 2a 3e 06 63 45 3f 8d cc 20 3f
       -0.6814268 0.16654705 0.7710422 0.6281212
0002d0 3e 08 31 be fc 4e a8 be 30 83 6b bd 9b 28 89 bf
       -0.172883 -0.3287276 -0.057498157 -1.0715517
0002e0 0c 33 0f 3f c9 ed 61 bf 4a 01 7f bf 8b 5c c9 3e
       0.55937266 -0.88253456 -0.9961134 0.39328417
0002f0 4e e2 af bf e8 e1 61 be b5 49 c3 be a9 8e 5c 3e
       -1.3740938 -0.22058833 -0.38142172 0.21538796
000300 9c 57 d8 3e 75 71 3b bf 72 16 62 3e 5d 18 10 bf
       0.4225434 -0.73219997 0.22078875 -0.56287175
000310 01 e5 71 bf 29 2f 37 bf 87 57 77 3e 58 62 90 bc
       -0.9449006 -0.71556336 0.24154483 -0.017625019
000320 3c 01 c7 be 18 0b 84 bc 7e 50 db be a9 84 de 3e
       -0.3886813 -0.016118571 -0.42834848 0.43460587
000330 9c f4 e4 3e 74 d2 ca be 49 6e 31 bf 37 66 d1 3e
       0.44717872 -0.39613688 -0.69308907 0.40898296
000340 77 92 d4 3e 9a 6d 35 be 4e 12 01 3f 48 4c 0b be
       0.41517994 -0.17717591 0.50418556 -0.13603318
000350 2e 46 e2 3c 9e 10 c8 bd ef f8 45 3e af 12 dd be
       0.027621355 -0.097687945 0.19333242 -0.43178317
000360 69 d2 08 3f 58 d1 7a 3f 8c eb f4 3f 9f 7a 12 3f
       0.5344606 0.97975683 1.9134383 0.57218355
000370 c8 0c 01 40 f3 9a e7 3f da 72 e9 be 6e d6 22 3f
       2.016405 1.8094162 -0.45595437 0.63608444
000380 63 60 b0 3f dd 88 42 bf 41 79 bb bf 43 71 1f 3f
       1.3779415 -0.75990087 -1.4646379 0.622822
000390 a2 64 81 bf cf c7 04 c0 0a 5f 06 c0 71 86 b7 be
       -1.0108836 -2.0746953 -2.0995507 -0.35844758
0003a0 e3 72 ae bf 01 f5 9a bf b1 6d ac 3e 71 07 a3 be
       -1.3628811 -1.2106019 0.33677438 -0.31841615
0003b0 88 c5 82 bf 89 ba e4 3f 4f d0 38 bf 64 19 36 3f
       -1.0216532 1.7869426 -0.72192854 0.71132493
0003c0 85 40 19 3f b9 e6 aa be 63 8e 15 bf 6e 7b ff be
       0.59864074 -0.33379152 -0.5842039 -0.49898857
0003d0 e7 18 06 bf cf 79 9a 3e 0f c3 1a 3f 4b 5a a9 3e
       -0.5238175 0.30171058 0.60453886 0.330767
0003e0 31 4c 18 3f f5 5e 6b 3e ad 2a d9 be 40 45 a5 3c
       0.5949126 0.22985442 -0.42415372 0.020174623
0003f0 ce 67 37 3e 68 59 10 3f cb ae 9b 3e 76 5f 41 3f
       0.17910692 0.56386423 0.30406794 0.75536287

sequential_3/conv2d_19/Conv2D i1 [32, 3, 3, 32]
000000 e2 f4 38 09 fb f0 f4 ea 1e d3 1d fd e8 fd b8 e0
       -30 -12 56 9 -5 -16 -12 -22 30 -45 29 -3 -24 -3 -72 -32
000010 d9 e5 e5 fd 1d 0d e6 e3 0a 01 f0 d0 cb ec 1a fa
       -39 -27 -27 -3 29 13 -26 -29 10 1 -16 -48 -53 -20 26 -6
000020 00 f9 26 f0 e5 f6 e3 0e f3 e2 f8 01 f8 cb b3 11
       0 -7 38 -16 -27 -10 -29 14 -13 -30 -8 1 -8 -53 -77 17
000030 06 f7 18 0b 02 0a fd f1 fd 10 32 09 e5 e1 9e f4
       6 -9 24 11 2 10 -3 -15 -3 16 50 9 -27 -31 -98 -12
000040 fa 11 30 e8 c6 0b d4 f6 03 ba 0c 21 f2 d2 bf fc
       -6 17 48 -24 -58 11 -44 -10 3 -70 12 33 -14 -46 -65 -4
000050 17 db 3a e3 f7 ce fe 1a e2 e6 1f 3c e7 ff 8b e3
       23 -37 58 -29 -9 -50 -2 26 -30 -26 31 60 -25 -1 -117 -29
000060 fb f0 f6 07 25 12 2b f5 1f 07 fc eb 1c eb f2 16
       -5 -16 -10 7 37 18 43 -11 31 7 -4 -21 28 -21 -14 22
000070 e1 1e d7 14 46 55 12 ef 0d 02 07 e4 f5 d6 48 0a
       -31 30 -41 20 70 85 18 -17 13 2 7 -28 -11 -42 72 10
000080 f7 d0 03 12 37 3c 01 13 f8 e6 e9 05 10 d0 ed 08
       -9 -48 3 18 55 60 1 19 -8 -26 -23 5 16 -48 -19 8
000090 f9 ff 02 13 3a 28 07 0e 23 09 2c ed d8 e6 27 00
       -7 -1 2 19 58 40 7 14 35 9 44 -19 -40 -26 39 0
0000a0 20 06 1f 03 e2 23 11 0e 25 f3 00 1f f1 e9 eb 01
       32 6 31 3 -30 35 17 14 37 -13 0 31 -15 -23 -21 1
0000b0 0b 27 16 f9 40 fc 1b e5 08 33 11 fe 07 cb bc ff
       11 39 22 -7 64 -4 27 -27 8 51 17 -2 7 -53 -68 -1
0000c0 d8 2a 81 f9 17 0d 15 2c d8 fa f8 c4 ec 0d df 03
       -40 42 -127 -7 23 13 21 44 -40 -6 -8 -60 -20 13 -33 3
0000d0 f2 0e f9 26 fe 02 e2 19 e1 17 c8 d5 04 de 61 06
       -14 14 -7 38 -2 2 -30 25 -31 23 -56 -43 4 -34 97 6
0000e0 db 08 a0 d9 17 f6 0f 29 ee 19 f1 c8 fd ef 08 d4
       -37 8 -96 -39 23 -10 15 41 -18 25 -15 -56 -3 -17 8 -44
0000f0 fb 26 e1 03 14 14 e9 05 f7 f0 e0 08 0e f0 5b 33
       -5 38 -31 3 20 20 -23 5 -9 -16 -32 8 14 -16 91 51

sequential_3/conv2d_20/Conv2D i1 [64, 3, 3, 32]
000000 06 f6 1c 06 f1 05 f3 ac ff 0d f0 12 11 f8 33 eb
       6 -10 28 6 -15 5 -13 -84 -1 13 -16 18 17 -8 51 -21
000010 06 17 fc 22 2f 20 e0 3c 01 fb 18 22 e7 0e 31 04
       6 23 -4 34 47 32 -32 60 1 -5 24 34 -25 14 49 4
000020 d3 ed 1a 1b e2 29 e4 e4 f4 d0 f3 f9 36 e3 01 fa
       -45 -19 26 27 -30 41 -28 -28 -12 -48 -13 -7 54 -29 1 -6
000030 21 0e f2 0b f4 0c ee 2f 0d d1 28 11 fb fb 13 08
       33 14 -14 11 -12 12 -18 47 13 -47 40 17 -5 -5 19 8
000040 c7 d5 22 07 1d cf f8 c7 f8 02 fd e6 02 f1 0b fb
       -57 -43 34 7 29 -49 -8 -57 -8 2 -3 -26 2 -15 11 -5
000050 06 f1 ce 02 ed 0a be 35 dd ca 0e d7 d8 22 08 0e
       6 -15 -50 2 -19 10 -66 53 -35 -54 14 -41 -40 34 8 14
000060 d9 d5 14 0d fe 2a f7 c8 e2 f7 f8 f4 fd e3 d4 f5
       -39 -43 20 13 -2 42 -9 -56 -30 -9 -8 -12 -3 -29 -44 -11
000070 33 17 ee 10 10 f2 f4 1f e9 e2 29 05 d4 18 fb ef
       51 23 -18 16 16 -14 -12 31 -23 -30 41 5 -44 24 -5 -17
000080 de ce f3 1c 1c ec f0 b8 e2 f4 ef b9 f8 f6 e5 f2
       -34 -50 -13 28 28 -20 -16 -72 -30 -12 -17 -71 -8 -10 -27 -14
000090 07 02 06 21 dc d9 dc 2c f7 97 3b fa ff d8 fc 0f
       7 2 6 33 -36 -39 -36 44 -9 -105 59 -6 -1 -40 -4 15
0000a0 cd dc 0f 21 28 e0 c7 81 bd 03 0b c2 16 dc 0c e3
       -51 -36 15 33 40 -32 -57 -127 -67 3 11 -62 22 -36 12 -29
0000b0 10 23 f2 29 de 03 d3 5c e7 e5 4f fe ea ee e5 e2
       16 35 -14 41 -34 3 -45 92 -25 -27 79 -2 -22 -18 -27 -30
0000c0 f2 d2 f3 e2 15 12 22 d8 06 f4 d8 32 35 15 f7 1e
       -14 -46 -13 -30 21 18 34 -40 6 -12 -40 50 53 21 -9 30
0000d0 04 30 0b ce f7 e2 cf 1b c3 de fa e2 da 16 00 0e
       4 48 11 -50 -9 -30 -49 27 -61 -34 -6 -30 -38 22 0 14
0000e0 d0 ca 10 ee 26 f8 15 e1 14 f6 14 07 2c 04 f9 0e
       -48 -54 16 -18 38 -8 21 -31 20 -10 20 7 44 4 -7 14
0000f0 03 15 21 24 12 da e9 18 f6 00 21 b8 f1 f1 d3 1f
       3 21 33 36 18 -38 -23 24 -10 0 33 -72 -15 -15 -45 31

sequential_3/conv2d_21/Conv2D i1 [64, 3, 3, 64]
000000 1c e8 1a 01 f3 f2 0e 00 dc 2e 0e e5 ce 4e ca 0e
       28 -24 26 1 -13 -14 14 0 -36 46 14 -27 -50 78 -54 14
000010 c4 fd e0 0e db f5 de d5 fb f5 f6 f0 f4 e8 ca d0
       -60 -3 -32 14 -37 -11 -34 -43 -5 -11 -10 -16 -12 -24 -54 -48
000020 b1 3b c8 fa ae dc e6 ab e6 29 e2 16 d7 ba ec fe
       -79 59 -56 -6 -82 -36 -26 -85 -26 41 -30 22 -41 -70 -20 -2
000030 cd e9 f8 ea 0d a7 b0 03 21 1e f1 0d fb 1c d3 19
       -51 -23 -8 -22 13 -89 -80 3 33 30 -15 13 -5 28 -45 25
000040 1f ec 0e fb 1d df dc e2 c0 0f 32 b5 c7 19 b4 02
       31 -20 14 -5 29 -33 -36 -30 -64 15 50 -75 -57 25 -76 2
000050 ce f1 d5 06 d9 13 0e ee f5 cd 0a 0c 1e e8 e8 f9
       -50 -15 -43 6 -39 19 14 -18 -11 -51 10 12 30 -24 -24 -7
000060 a8 1e f7 29 c5 bc df ba c7 fd f4 09 d6 f8 fe db
       -88 30 -9 41 -59 -68 -33 -70 -57 -3 -12 9 -42 -8 -2 -37
000070 86 b4 1f 90 04 e0 a0 06 00 d6 c6 0e fc 0a 1d 06
       -122 -76 31 -112 4 -32 -96 6 0 -42 -58 14 -4 10 29 6
000080 fd 13 f0 03 05 db 09 1c ae cb ef f0 10 37 e5 17
       -3 19 -16 3 5 -37 9 28 -82 -53 -17 -16 16 55 -27 23
000090 e8 f4 d3 0d f4 41 0a cd 16 c5 14 1f 37 0d 03 21
       -24 -12 -45 13 -12 65 10 -51 22 -59 20 31 55 13 3 33
0000a0 b9 21 c2 06 d9 d3 f2 81 1a 03 e4 04 ce f9 0e e3
       -71 33 -62 6 -39 -45 -14 -127 26 3 -28 4 -50 -7 14 -29
0000b0 d7 d5 41 a3 fc f5 cb 06 0d d4 35 c4 fa 0f f5 06
       -41 -43 65 -93 -4 -11 -53 6 13 -44 53 -60 -6 15 -11 6
0000c0 0d f3 40 04 fb 0d 24 31 1d f2 0d 14 d4 0d f3 12
       13 -13 64 4 -5 13 36 49 29 -14 13 20 -44 13 -13 18
0000d0 e7 f2 00 da da 32 22 14 11 f6 dd 07 2f 1e 15 13
       -25 -14 0 -38 -38 50 34 20 17 -10 -35 7 47 30 21 19
0000e0 0e ff bd 25 04 0f 12 eb e0 d7 12 00 f3 d4 f6 19
       14 -1 -67 37 4 15 18 -21 -32 -41 18 0 -13 -44 -10 25
0000f0 1f ed 16 12 08 01 ca 16 10 28 3b e1 eb 12 2f 27
       31 -19 22 18 8 1 -54 22 16 40 59 -31 -21 18 47 39

sequential_3/conv2d_22/Conv2D i1 [128, 3, 3, 64]
000000 1a 9f f2 f0 fb bf 9c b2 a9 35 18 33 24 15 11 20
       26 -97 -14 -16 -5 -65 -100 -78 -87 53 24 51 36 21 17 32
000010 ee 08 ad 0b 12 12 df db ce ca c7 6b 11 1c 20 ec
       -18 8 -83 11 18 18 -33 -37 -50 -54 -57 107 17 28 32 -20
000020 42 00 c2 24 20 fe 92 f1 fa c0 cf cc e4 fd f4 05
       66 0 -62 36 32 -2 -110 -15 -6 -64 -49 -52 -28 -3 -12 5
000030 a4 28 f1 f1 fc d0 dc e9 09 b1 cf b0 42 03 fd 17
       -92 40 -15 -15 -4 -48 -36 -23 9 -79 -49 -80 66 3 -3 23
000040 d2 ad ac 4a f6 f1 e8 ff e2 07 10 d4 ea 3b 46 22
       -46 -83 -84 74 -10 -15 -24 -1 -30 7 16 -44 -22 59 70 34
000050 fa 00 b2 48 f6 02 e2 dd 15 16 d4 15 5c 1c 10 19
       -6 0 -78 72 -10 2 -30 -35 21 22 -44 21 92 28 16 25
000060 f3 18 ac 3f 14 47 e6 f5 c2 10 c4 da b8 27 3c 08
       -13 24 -84 63 20 71 -26 -11 -62 16 -60 -38 -72 39 60 8
000070 a5 06 0a cf dc c4 be c3 0b ae d6 e8 ff fd 2f 0f
       -91 6 10 -49 -36 -60 -66 -61 11 -82 -42 -24 -1 -3 47 15
000080 00 bf d9 fc bf 93 03 c2 1d e3 f8 be 02 f2 21 cc
       0 -65 -39 -4 -65 -109 3 -62 29 -29 -8 -66 2 -14 33 -52
000090 0e cd f9 66 a6 e3 e9 cf f8 ec f5 13 54 f4 b8 32
       14 -51 -7 102 -90 -29 -23 -49 -8 -20 -11 19 84 -12 -72 50
0000a0 d0 01 b6 45 c0 24 e8 1a a7 d9 a3 f4 fb 1e 0c e4
       -48 1 -74 69 -64 36 -24 26 -89 -39 -93 -12 -5 30 12 -28
0000b0 b3 16 52 cf 12 f8 a5 b5 90 e4 cd 08 e5 39 39 24
       -77 22 82 -49 18 -8 -91 -75 -112 -28 -51 8 -27 57 57 36
0000c0 0e d5 1d 14 37 e4 d8 db db 20 19 1a f6 e7 30 0e
       14 -43 29 20 55 -28 -40 -37 -37 32 25 26 -10 -25 48 14
0000d0 06 27 8e 16 04 29 ec 13 f1 ce fc fd 49 39 47 cc
       6 39 -114 22 4 41 -20 19 -15 -50 -4 -3 73 57 71 -52
0000e0 11 ed e6 fc e0 f1 f6 ff aa e8 f7 de 14 03 08 35
       17 -19 -26 -4 -32 -15 -10 -1 -86 -24 -9 -34 20 3 8 53
0000f0 c6 e0 f3 d8 30 c2 2e f5 dc e7 02 d1 47 09 12 06
       -58 -32 -13 -40 48 -62 46 -11 -36 -25 2 -47 71 9 18 6

sequential_3/conv2d_23/Conv2D i1 [128, 3, 3, 128]
000000 f1 fc 08 f8 c1 2b 48 11 4a ec c9 fe 18 59 16 1a
       -15 -4 8 -8 -63 43 72 17 74 -20 -55 -2 24 89 22 26
000010 e1 20 42 ee f3 f6 2a 05 f9 3d 1e 3d 2f b2 5d ce
       -31 32 66 -18 -13 -10 42 5 -7 61 30 61 47 -78 93 -50
000020 f3 ed f3 07 0a 18 10 f8 16 e2 10 cf 01 f8 ed b8
       -13 -19 -13 7 10 24 16 -8 22 -30 16 -49 1 -8 -19 -72
000030 1a ed 01 e1 b8 ef ff 11 9f 29 b0 fb f0 2d 1d 1b
       26 -19 1 -31 -72 -17 -1 17 -97 41 -80 -5 -16 45 29 27
000040 ab 32 37 fa e1 10 bc 34 14 24 f9 10 df ce e4 11
       -85 50 55 -6 -31 16 -68 52 20 36 -7 16 -33 -50 -28 17
000050 e2 eb 2b 23 da 14 f5 22 e4 da f5 fa fe e0 f0 ed
       -30 -21 43 35 -38 20 -11 34 -28 -38 -11 -6 -2 -32 -16 -19
000060 27 01 c6 34 d5 fe 23 0b 0e e1 46 02 34 1b fd 4a
       39 1 -58 52 -43 -2 35 11 14 -31 70 2 52 27 -3 74
000070 02 15 fc fe c7 3b ed e6 f7 b3 da 26 2d ef f1 22
       2 21 -4 -2 -57 59 -19 -26 -9 -77 -38 38 45 -17 -15 34
000080 f5 0e fa 0b c3 31 13 15 1d c3 e2 d3 20 40 06 3b
       -11 14 -6 11 -61 49 19 21 29 -61 -30 -45 32 64 6 59
000090 e4 f2 2b 00 f3 d1 4a e5 db 00 3b 36 1f b9 48 c8
       -28 -14 43 0 -13 -47 74 -27 -37 0 59 54 31 -71 72 -56
0000a0 0b fe d2 ea 02 1e fe 05 f5 c9 15 eb 0a e3 cc d1
       11 -2 -46 -22 2 30 -2 5 -11 -55 21 -21 10 -29 -52 -47
0000b0 f6 e4 f4 b4 d6 eb fc 1f b0 39 af 07 f0 11 1d fb
       -10 -28 -12 -76 -42 -21 -4 31 -80 57 -81 7 -16 17 29 -5
0000c0 a3 f7 1e 16 e7 09 cb 3a ea 1c f9 1f fa d6 eb 0b
       -93 -9 30 22 -25 9 -53 58 -22 28 -7 31 -6 -42 -21 11
0000d0 e1 fc 19 33 df 27 fb 16 05 fd e6 06 0c df de f4
       -31 -4 25 51 -33 39 -5 22 5 -3 -26 6 12 -33 -34 -12
0000e0 17 16 fc 31 e4 f0 06 ed 05 f0 48 fd 24 28 ef 3a
       23 22 -4 49 -28 -16 6 -19 5 -16 72 -3 36 40 -17 58
0000f0 fa ff f2 ef 10 f9 ce e4 fd ac ca 16 1e d7 00 fd
       -6 -1 -14 -17 16 -7 -50 -28 -3 -84 -54 22 30 -41 0 -3

sequential_3/dense_6/MatMul i1 [256, 128] scale=0.004705079 zero_point=0
000000 df fb 31 06 fd 02 e6 f1 02 f8 12 ef ec 19 f4 08
       -0.1552676 -0.023525394 0.23054886 0.028230473 -0.014115237 0.009410158 -0.12233205 -0.07057618 0.009410158 -0.03764063 0.08469142 -0.07998634 -0.09410158 0.11762697 -0.056460947 0.03764063
000010 11 ec 22 ff f6 f4 d9 ef dc 1e ff 1c fb 10 0c 20
       0.07998634 -0.09410158 0.15997268 -0.004705079 -0.04705079 -0.056460947 -0.18349808 -0.07998634 -0.16938284 0.14115237 -0.004705079 0.13174221 -0.023525394 0.07528126 0.056460947 0.15056252
000020 c2 18 18 44 f6 e4 10 f9 1a f2 0f e7 15 e4 e9 36
       -0.2917149 0.11292189 0.11292189 0.31994537 -0.04705079 -0.13174221 0.07528126 -0.032935552 0.12233205 -0.065871105 0.07057618 -0.11762697 0.09880666 -0.13174221 -0.108216815 0.25407428
000030 dd 1c 17 ea fe 0a 17 eb 04 e1 f0 12 f0 05 02 1e
       -0.16467777 0.13174221 0.108216815 -0.103511736 -0.009410158 0.04705079 0.108216815 -0.09880666 0.018820316 -0.14585745 -0.07528126 0.08469142 -0.07528126 0.023525394 0.009410158 0.14115237
000040 ec f1 0e 28 e9 f9 f1 03 fd ed d1 f2 de 11 fa 0c
       -0.09410158 -0.07057618 0.065871105 0.18820316 -0.108216815 -0.032935552 -0.07057618 0.014115237 -0.014115237 -0.0893965 -0.22113872 -0.065871105 -0.15997268 0.07998634 -0.028230473 0.056460947
000050 e3 18 04 eb 04 0f fc f3 08 01 36 18 fe 3f 12 2b
       -0.13644728 0.11292189 0.018820316 -0.09880666 0.018820316 0.07057618 -0.018820316 -0.061166026 0.03764063 0.004705079 0.25407428 0.11292189 -0.009410158 0.29641998 0.08469142 0.2023184
000060 f1 14 fb 07 10 bd 11 06 01 eb 11 02 f5 ed 04 e3
       -0.07057618 0.09410158 -0.023525394 0.032935552 0.07528126 -0.3152403 0.07998634 0.028230473 0.004705079 -0.09880666 0.07998634 0.009410158 -0.051755868 -0.0893965 0.018820316 -0.13644728
000070 f8 eb eb ee ea 07 0e ee d7 f6 fd ef 30 09 1a ef
       -0.03764063 -0.09880666 -0.09880666 -0.08469142 -0.103511736 0.032935552 0.065871105 -0.08469142 -0.19290823 -0.04705079 -0.014115237 -0.07998634 0.22584379 0.04234571 0.12233205 -0.07998634
000080 22 0e ee ff e9 d5 c4 f8 ee 03 01 f9 bc 05 e3 2e
       0.15997268 0.065871105 -0.08469142 -0.004705079 -0.108216815 -0.2023184 -0.28230473 -0.03764063 -0.08469142 0.014115237 0.004705079 -0.032935552 -0.31994537 0.023525394 -0.13644728 0.21643363
000090 27 04 f9 ef 22 08 e7 01 d1 fa 08 05 02 e8 f9 eb
       0.18349808 0.018820316 -0.032935552 -0.07998634 0.15997268 0.03764063 -0.11762697 0.004705079 -0.22113872 -0.028230473 0.03764063 0.023525394 0.009410158 -0.11292189 -0.032935552 -0.09880666
0000a0 f1 00 14 dc 19 fe fa 01 11 f5 ff da 2a 04 df 10
       -0.07057618 0.0 0.09410158 -0.16938284 0.11762697 -0.009410158 -0.028230473 0.004705079 0.07998634 -0.051755868 -0.004705079 -0.178793 0.19761331 0.018820316 -0.1552676 0.07528126
0000b0 04 16 06 0d 17 dd 0a 17 b8 ef eb e8 01 ee f7 0d
       0.018820316 0.103511736 0.028230473 0.061166026 0.108216815 -0.16467777 0.04705079 0.108216815 -0.33876568 -0.07998634 -0.09880666 -0.11292189 0.004705079 -0.08469142 -0.04234571 0.061166026
0000c0 1d f4 1e 07 c0 1a cf 1d 15 08 ef 26 de 0f e6 f7
       0.13644728 -0.056460947 0.14115237 0.032935552 -0.30112505 0.12233205 -0.23054886 0.13644728 0.09880666 0.03764063 -0.07998634 0.178793 -0.15997268 0.07057618 -0.12233205 -0.04234571
0000d0 08 11 1c 1d fb 04 eb ee 1d e3 19 06 2f 02 1b ec
       0.03764063 0.07998634 0.13174221 0.13644728 -0.023525394 0.018820316 -0.09880666 -0.08469142 0.13644728 -0.13644728 0.11762697 0.028230473 0.22113872 0.009410158 0.12703714 -0.09410158
0000e0 03 25 14 e5 01 fb 13 0a 22 e6 05 fb 31 0b f8 f3
       0.014115237 0.17408791 0.09410158 -0.12703714 0.004705079 -0.023525394 0.0893965 0.04705079 0.15997268 -0.12233205 0.023525394 -0.023525394 0.23054886 0.051755868 -0.03764063 -0.061166026
0000f0 2a f9 11 1a 0e 26 e1 0d 14 f8 0a ff fa 07 20 21
       0.19761331 -0.032935552 0.07998634 0.12233205 0.065871105 0.178793 -0.14585745 0.061166026 0.09410158 -0.03764063 0.04705079 -0.004705079 -0.028230473 0.032935552 0.15056252 0.1552676

sequential_3/dense_7/MatMul i1 [10, 256] scale=0.004505876 zero_point=0
000000 18 15 1c dd ec 23 19 08 d6 1c 11 c1 1c f0 be 17
       0.10814102 0.094623394 0.12616453 -0.15770566 -0.09011752 0.15770566 0.1126469 0.036047008 -0.18924679 0.12616453 0.07659989 -0.2838702 0.12616453 -0.072094016 -0.2973878 0.10363515
000010 0c 0a 29 e9 21 0d d3 ed 13 d7 fe ca 0d de e4 e4
       0.05407051 0.04505876 0.18474092 -0.10363515 0.1486939 0.058576386 -0.20276442 -0.08561164 0.08561164 -0.18474092 -0.009011752 -0.2433173 0.058576386 -0.15319978 -0.12616453 -0.12616453
000020 13 f0 dc a9 10 08 df d4 ef 20 12 d7 e1 be ea c7
       0.08561164 -0.072094016 -0.16221154 -0.39201123 0.072094016 0.036047008 -0.1486939 -0.19825855 -0.07659989 0.14418803 0.08110577 -0.18474092 -0.13968216 -0.2973878 -0.099129274 -0.25683492
000030 fe 17 f6 d5 f2 16 15 d8 0b 17 0b 0f ed e9 16 19
       -0.009011752 0.10363515 -0.04505876 -0.19375266 -0.06308226 0.099129274 0.094623394 -0.18023504 0.049564637 0.10363515 0.049564637 0.06758814 -0.08561164 -0.10363515 0.099129274 0.1126469
000040 06 0d 00 ec ee 11 04 db ea ee cc 0b 18 08 e5 cc
       0.027035255 0.058576386 0.0 -0.09011752 -0.08110577 0.07659989 0.018023504 -0.16671741 -0.099129274 -0.08110577 -0.23430555 0.049564637 0.10814102 0.036047008 -0.12165865 -0.23430555
000050 d2 e6 0f a7 0a 14 02 14 bf 22 15 0d 1e 0d f9 05
       -0.2072703 -0.11715277 0.06758814 -0.40102297 0.04505876 0.09011752 0.009011752 0.09011752 -0.29288194 0.15319978 0.094623394 0.058576386 0.13517629 0.058576386 -0.03154113 0.02252938
000060 18 f0 e4 da 1f 03 fe d3 19 02 ee 1c f6 18 19 bd
       0.10814102 -0.072094016 -0.12616453 -0.17122328 0.13968216 0.0135176275 -0.009011752 -0.20276442 0.1126469 0.009011752 -0.08110577 0.12616453 -0.04505876 0.10814102 0.1126469 -0.30189368
000070 e6 17 e8 ec fc 1f dc 28 1a 04 d6 00 d6 04 0f db
       -0.11715277 0.10363515 -0.10814102 -0.09011752 -0.018023504 0.13968216 -0.16221154 0.18023504 0.11715277 0.018023504 -0.18924679 0.0 -0.18924679 0.018023504 0.06758814 -0.16671741
000080 1f 15 11 12 0f fe bd 1a d3 f9 d8 23 1b ef 0b f0
       0.13968216 0.094623394 0.07659989 0.08110577 0.06758814 -0.009011752 -0.30189368 0.11715277 -0.20276442 -0.03154113 -0.18023504 0.15770566 0.12165865 -0.07659989 0.049564637 -0.072094016
000090 25 cb 11 21 cc fd 20 2c 23 d9 ee d0 27 f1 00 ec
       0.16671741 -0.23881143 0.07659989 0.1486939 -0.23430555 -0.0135176275 0.14418803 0.19825855 0.15770566 -0.17572917 -0.08110577 -0.21628204 0.17572917 -0.06758814 0.0 -0.09011752
0000a0 0c fd ff 0f e6 ce f3 de fc 22 03 e8 f0 de d4 e1
       0.05407051 -0.0135176275 -0.004505876 0.06758814 -0.11715277 -0.2252938 -0.058576386 -0.15319978 -0.018023504 0.15319978 0.0135176275 -0.10814102 -0.072094016 -0.15319978 -0.19825855 -0.13968216
0000b0 08 e4 d3 02 18 f8 f4 fa 15 d0 d5 04 fd 1a ff da
       0.036047008 -0.12616453 -0.20276442 0.009011752 0.10814102 -0.036047008 -0.05407051 -0.027035255 0.094623394 -0.21628204 -0.19375266 0.018023504 -0.0135176275 0.11715277 -0.004505876 -0.17122328
0000c0 f6 13 3b fb 0d f5 d5 20 09 d4 db 1f 1c 2e f8 0b
       -0.04505876 0.08561164 0.26584667 -0.02252938 0.058576386 -0.049564637 -0.19375266 0.14418803 0.040552884 -0.19825855 -0.16671741 0.13968216 0.12616453 0.2072703 -0.036047008 0.049564637
0000d0 03 e7 13 1a f0 01 ef 1d ec f6 09 02 24 b0 d3 b5
       0.0135176275 -0.1126469 0.08561164 0.11715277 -0.072094016 0.004505876 -0.07659989 0.1306704 -0.09011752 -0.04505876 0.040552884 0.009011752 0.16221154 -0.3604701 -0.20276442 -0.3379407
0000e0 0c 0e fe 0d 15 02 e7 16 fa 01 0e bb f7 07 18 bc
       0.05407051 0.06308226 -0.009011752 0.058576386 0.094623394 0.009011752 -0.1126469 0.099129274 -0.027035255 0.004505876 0.06308226 -0.31090546 -0.040552884 0.03154113 0.10814102 -0.30639955
0000f0 c0 0c 1e 0f 15 0e fc c2 20 0d e0 e3 22 11 ff 09
       -0.28837606 0.05407051 0.13517629 0.06758814 0.094623394 0.06308226 -0.018023504 -0.27936432 0.14418803 0.058576386 -0.14418803 -0.1306704 0.15319978 0.07659989 -0.004505876 0.040552884
