part3_edge_optimization/float16.tflite (tflite, 655308 bytes, 16 tensors)

sequential_5/re_lu_30/Relu;sequential_5/batch_normalization_30/FusedBatchNormV3;sequential_5/conv2d_30/BiasAdd/ReadVariableOp;sequential_5/conv2d_30/BiasAdd;sequential_5/conv2d_31/Conv2D;sequential_5/conv2d_30/Conv2D f2 [32]
-0.6763 0.5273 -0.01502 0.3176 0.5137 0.7173 0.5015 0.9067
0.305 -1.655 0.0807 0.2065 0.0845 1.052 -0.3633 0.7114
0.586 0.4314 0.98 0.3394 0.2778 0.759 0.6777 0.1659
0.11273 0.02757 0.178 -0.02861 0.4084 0.03027 -0.07996 0.605
00000000: 69b9 3838 b1a3 1535 1c38 bd39 0338 413b
00000010: e134 9fbe 2a2d 9c32 682d 353c d0b5 b139
00000020: b038 e736 d73b 6e35 7234 123a 6c39 4f31
00000030: 372f 0f27 b231 53a7 8936 c027 1ead d738

sequential_5/re_lu_31/Relu;sequential_5/batch_normalization_31/FusedBatchNormV3;sequential_5/conv2d_31/BiasAdd/ReadVariableOp;sequential_5/conv2d_31/BiasAdd;sequential_5/conv2d_31/Conv2D f2 [32]
-0.3447 0.5444 1.515 -1.614 0.2454 0.6445 0.3093 0.311
0.305 0.3464 0.7134 1.225 0.995 0.658 0.2744 1.081
0.2334 -0.1225 0.03326 0.1783 0.003565 0.3145 -0.003983 0.581
0.3213 0.2239 0.6333 0.4788 0.9463 -0.1317 -1.947 0.11786
00000000: 84b5 5b38 0f3e 75be da33 2839 f334 fa34
00000010: e134 8b35 b539 e63c f63b 4439 6434 533c
00000020: 7833 d7af 4228 b531 4d1b 0835 149c a638
00000030: 2435 2a33 1139 a937 923b 37b0 cabf 8b2f

sequential_5/re_lu_32/Relu;sequential_5/batch_normalization_32/FusedBatchNormV3;sequential_5/conv2d_32/BiasAdd/ReadVariableOp;sequential_5/conv2d_32/BiasAdd;sequential_5/conv2d_33/Conv2D;sequential_5/conv2d_32/Conv2D f2 [64]
0.567 0.1141 0.766 -1.151 -0.1753 0.3845 -0.006115 0.1942
-0.8486 0.4475 0.2377 0.3682 0.158 0.879 0.2489 0.2294
0.364 -0.3696 0.5654 0.542 0.1087 0.6904 0.348 -0.1951
0.4282 0.1268 0.3975 -0.4575 -0.317 -0.202 0.0823 0.03174
0.6562 -0.1169 -0.04083 0.0707 1.019 -0.9497 0.3223 0.502
0.4094 0.5337 0.96 0.616 -0.01367 0.2222 0.6963 -0.4666
0.508 0.3767 -0.1489 0.9473 -0.06168 0.02596 0.1967 0.2369
0.506 0.2261 0.7583 -0.0752 0.654 0.281 0.7773 1.131
00000000: 8938 4d2f 213a 9bbc 9cb1 2736 439e 3732
00000010: caba 2937 9b33 e435 0e31 083b f733 5733
00000020: d335 eab5 8638 5638 f52e 8639 9135 3eb2
00000030: da36 0f30 5c36 52b7 12b5 77b2 442d 1028
00000040: 4039 7baf 3aa9 862c 133c 99bb 2835 0438
00000050: 8d36 4538 ae3b ee38 00a3 1c33 9239 77b7
00000060: 1038 0736 c4b0 943b e5ab a526 4b32 9533
00000070: 0c38 3c33 113a d0ac 3b39 7f34 383a 863c

sequential_5/re_lu_33/Relu;sequential_5/batch_normalization_33/FusedBatchNormV3;sequential_5/conv2d_33/BiasAdd/ReadVariableOp;sequential_5/conv2d_33/BiasAdd;sequential_5/conv2d_33/Conv2D f2 [64]
0.452 0.1884 1.356 1.182 0.743 1.352 0.5234 -0.7603
0.005825 0.3323 0.6016 0.5977 0.885 0.3237 0.7324 1.872
0.967 0.742 0.5527 0.04196 0.1392 0.905 0.3875 1.119
0.6274 1.279 0.984 0.3982 0.624 0.1976 -0.2498 0.7583
0.06665 -0.08606 1.344 0.1685 -0.6045 0.871 0.7954 0.556
-1.064 1.225 1.261 0.669 0.324 0.448 0.92 1.028
0.837 -1.177 1.237 -0.9004 0.2094 0.557 -0.4297 1.141
0.01104 0.535 1.394 0.716 -0.02498 0.881 0.4988 0.8047
00000000: 3b37 0732 6d3d ba3c f239 683d 3038 15ba
00000010: f71d 5135 d038 c838 143b 2e35 dc39 7d3f
00000020: bc3b f039 6c38 5f29 7430 3d3b 3336 7a3c
00000030: 0539 1e3d df3b 5f36 fe38 5332 feb3 113a
00000040: 442c 82ad 603d 6431 d6b8 f83a 5d3a 7338
00000050: 42bc e63c 0b3d 5a39 2f35 2b37 5c3b 1d3c
00000060: b23a b5bc f33c 34bb b332 7538 e0b6 903c
00000070: a721 4838 933d ba39 65a6 0c3b fb37 703a

sequential_5/re_lu_34/Relu;sequential_5/batch_normalization_34/FusedBatchNormV3;sequential_5/conv2d_34/BiasAdd/ReadVariableOp;sequential_5/conv2d_34/BiasAdd;sequential_5/conv2d_35/Conv2D;sequential_5/conv2d_34/Conv2D f2 [128]
0.2034 -0.649 0.3994 -1.522 -0.357 -0.1372 -0.215 -0.1511
-0.509 -0.646 -0.3982 -0.7295 0.7046 0.2391 -0.665 -0.4963
-0.10693 -0.323 0.1904 -0.677 -0.4397 0.3975 -0.1642 1.33
-0.285 0.3103 0.0773 -0.292 -0.57 1.037 0.981 0.851
-0.2413 -0.6387 0.3977 1.026 -0.0322 -0.9165 0.6406 0.0624
-0.2452 0.295 0.3953 0.232 1.021 0.766 -1.3545 -1.217
-0.2751 0.06042 0.2434 0.515 -1.0 0.3625 0.56 0.3608
-0.3445 0.01401 -0.9463 -0.02472 0.1827 -1.303 0.909 -0.4016
-0.1009 -1.203 -0.0731 -0.529 0.611 0.1921 -0.1549 0.4558
0.1469 -0.6543 0.12244 0.2036 0.1646 -0.2747 0.7266 0.1852
-0.2615 -0.772 -1.497 0.4043 -0.1967 -0.3855 0.5327 -0.779
-1.222 -0.08 -0.4116 -1.071 0.723 0.05438 0.4607 -0.7153
-0.8184 -0.05972 0.2052 -0.2245 -0.9873 0.1143 0.6543 -0.654
-0.674 -0.3635 0.0885 -0.1125 0.5796 -1.117 -1.299 0.3174
-0.5415 -0.692 -0.943 -0.7964 -0.7466 -0.0526 -0.4583 -0.578
0.1465 -0.601 -0.564 -0.8604 -0.3755 0.3948 -0.0844 0.266
00000000: 8232 31b9 6436 17be b6b5 64b0 e1b2 d6b0
00000010: 12b8 2bb9 5fb6 d6b9 a339 a733 52b9 f1b7
00000020: d8ae 2bb5 1832 6ab9 09b7 5c36 41b1 523d
00000030: 8fb4 f734 f22c acb4 8fb8 263c d93b cf3a
00000040: b9b3 1cb9 5d36 1b3c 1fa8 55bb 2039 fd2b
00000050: d9b3 b834 5336 6d33 163c 213a 6bbd debc
00000060: 67b4 bc2b ca33 1f38 00bc cd35 7b38 c635
00000070: 83b5 2c23 92bb 54a6 d931 36bd 463b 6db6
00000080: 75ae d0bc aeac 3bb8 e338 2632 f5b0 4b37
00000090: b330 3cb9 d62f 8432 4431 65b4 d039 ed31
000000a0: 2fb4 2dba fdbd 7836 4bb2 2bb6 4338 3bba
000000b0: e3bc 1fad 96b6 49bc c939 f62a 5f37 b9b9
000000c0: 8cba a5ab 9132 2fb3 e6bb 512f 3c39 3bb9
000000d0: 64b9 d1b5 aa2d 33af a338 78bc 32bd 1435
000000e0: 55b8 89b9 8bbb 5fba f9b9 bcaa 55b7 a0b8
000000f0: b030 cfb8 83b8 e2ba 02b6 5136 67ad 4234

sequential_5/re_lu_35/Relu;sequential_5/batch_normalization_35/FusedBatchNormV3;sequential_5/conv2d_35/BiasAdd/ReadVariableOp;sequential_5/conv2d_35/BiasAdd;sequential_5/conv2d_35/Conv2D f2 [128]
-0.2247 -0.2041 -0.004513 -0.1467 -0.0976 0.2173 0.04684 -0.4683
0.2024 -0.278 -0.2776 -0.547 0.07214 -0.2766 -0.445 -0.3284
0.392 -0.2722 0.3623 0.05597 -0.2333 -0.3489 -0.00829 -0.2395
-0.1632 0.2361 -0.1505 0.2053 0.07574 -0.2424 -0.4485 0.1655
-0.1989 -0.3022 -0.02365 0.1578 -0.05518 -0.1794 0.04858 -0.1101
-0.00282 0.0562 0.2559 -0.1085 -0.271 -0.281 -0.4788 0.1359
-0.6177 -0.1888 0.2175 -0.6606 0.0161 -0.1312 -0.1698 -0.2754
0.06903 -0.4707 -0.5005 0.2812 -0.377 -0.1232 0.010376 0.07544
-0.0204 0.1628 0.157 0.0731 0.001174 -0.3438 -0.06683 -0.04962
-0.28 -0.453 -0.04672 -0.124 -0.04587 -0.00899 -0.1516 0.1519
-0.10486 0.0609 -0.1868 -0.0698 -0.0869 -0.1523 -0.705 -0.02272
-0.0994 0.2776 0.2443 0.507 0.2683 -0.463 -0.029 0.03014
-0.0237 0.01108 -0.1892 -0.1495 -0.2947 -0.2323 -0.069 -0.0504
-0.0972 0.10016 0.2854 -0.1963 -0.213 -0.3828 0.1578 -0.277
-0.3647 -0.397 -0.455 -0.2266 -0.3137 -0.4849 -0.3752 0.2106
-0.01915 0.03738 -0.5312 -0.3987 -0.1453 -0.3174 -0.1653 -0.12476
00000000: 31b3 88b2 9f9c b2b0 3fae f432 ff29 7eb7
00000010: 7a32 73b4 71b4 60b8 9e2c 6db4 1fb7 41b5
00000020: 4636 5bb4 cc35 2a2b 77b3 95b5 3fa0 aab3
00000030: 39b1 8e33 d1b0 9232 d92c c2b3 2db7 4c31
00000040: 5db2 d6b4 0ea6 0d31 10ab beb1 382a 0caf
00000050: c699 322b 1834 f2ae 56b4 7fb4 a9b7 5930
00000060: f1b8 0bb2 f632 49b9 1f24 33b0 6fb1 68b4
00000070: 6b2c 88b7 01b8 8034 08b6 e3af 5021 d42c
00000080: 39a5 3631 0631 ae2c cf14 80b5 47ac 5aaa
00000090: 7bb4 3fb7 fba9 f0af dfa9 9aa0 dab0 dc30
000000a0: b6ae cc2b fab1 78ac 90ad e0b0 a4b9 d1a5
000000b0: 5dae 7134 d133 0e38 4b34 68b7 6da7 b727
000000c0: 11a6 ac21 0eb2 c9b0 b7b4 6fb3 6aac 74aa
000000d0: 39ae 692e 9134 48b2 d1b2 20b6 0d31 6fb4
000000e0: d6b5 5ab6 48b7 40b3 05b5 c2b7 01b6 bd32
000000f0: e7a4 c928 40b8 61b6 a6b0 14b5 4ab1 fcaf

sequential_5/conv2d_30/Conv2D f2 [32, 3, 3, 3]
0.0673 -2.047 -0.003933 1.23 -1.4375 -0.08484 0.8647 -0.2856
-0.4492 2.277 0.303 -1.868 1.734 -1.552 -0.4841 1.353
0.605 1.153 0.595 0.1841 -0.5156 -0.1059 -0.6763 1.098
-1.554 -0.852 1.705 -0.9956 -1.897 -0.1963 2.998 4.95
4.688 0.9214 -1.325 -3.037 -1.113 -0.1664 -2.742 -2.338
2.434 1.672 -2.393 -2.41 -4.305 3.178 -1.862 1.574
-1.411 -4.344 -0.519 0.85 4.348 3.197 -2.705 1.378
2.94 -1.72 1.759 2.725 -4.28 0.111 3.875 -0.01471
-2.049 0.1251 -0.3833 -2.28 -1.161 1.64 -1.622 0.5127
1.269 2.512 -3.297 2.12 2.018 -2.508 3.688 -1.647
-3.182 1.205 1.766 -0.709 1.319 0.307 -1.096 -0.3286
-0.5405 0.4102 1.333 0.4143 0.105 -1.485 -1.172 -0.1719
-0.591 -0.2512 0.0524 0.3306 -0.4363 0.4873 -1.471 -0.368
0.384 -0.7515 -0.0785 0.4102 0.4524 0.3943 -0.138 0.9204
-0.3892 1.508 2.06 1.051 0.8926 -2.26 0.4104 0.4788
-1.762 -2.592 -0.396 1.145 0.1674 -1.884 0.1858 2.152
1.777 -0.619 1.4375 -1.057 -0.8115 -1.646 -1.82 0.522
-0.942 -1.05 0.5034 -0.3665 0.378 -0.02173 -0.1348 0.6406
-0.532 -1.104 -1.523 -0.08704 -0.3916 0.4734 0.9653 0.6006
0.5474 -0.4534 -0.6587 0.012245 0.1793 0.868 -0.1774 0.02548
-0.4424 0.3132 -0.572 -0.3147 0.4497 -0.5337 -0.2129 -1.14
1.026 0.1904 0.9 -0.2365 1.159 0.8145 -0.981 1.189
-0.6816 0.1665 0.771 0.628 -0.1729 -0.3286 -0.0575 -1.071
0.5596 -0.8823 -0.996 0.3933 -1.374 -0.2206 -0.3813 0.2153
0.4226 -0.7324 0.2208 -0.563 -0.945 -0.7153 0.2416 -0.01762
-0.3887 -0.01611 -0.4285 0.4346 0.4473 -0.3962 -0.693 0.409
0.4153 -0.1771 0.5044 -0.136 0.02762 -0.0977 0.1934 -0.432
0.5347 0.98 1.913 0.5723 2.016 1.81 -0.456 0.636
1.378 -0.76 -1.465 0.623 -1.011 -2.074 -2.1 -0.3584
-1.363 -1.211 0.3367 -0.3184 -1.021 1.787 -0.722 0.7114
0.5986 -0.3337 -0.584 -0.499 -0.524 0.3018 0.6045 0.3308
0.5947 0.2299 -0.424 0.02017 0.1791 0.564 0.304 0.7554
00000000: 4f2c 18c0 079c ec3c c0bd 6ead eb3a 92b4
00000010: 30b7 8e40 d934 79bf f03e 35be bfb7 693d
00000020: d738 9d3c c338 e431 20b8 c7ae 69b9 643c
00000030: 37be d1ba d23e f7bb 97bf 48b2 ff41 f344
00000040: b044 5f3b 4dbd 13c2 74bc 53b1 7cc1 adc0
00000050: de40 b03e c9c0 d2c0 4ec4 5b42 73bf 4c3e
00000060: a5bd 58c4 27b8 cd3a 5944 6542 69c1 833d
00000070: e141 e1be 093f 7341 48c4 1b2f c043 88a3
00000080: 19c0 0130 22b6 8fc0 a5bc 8f3e 7dbe 1a38
00000090: 133d 0641 98c2 3d40 0940 04c1 6043 97be
000000a0: 5dc2 d23c 103f acb9 473d e934 62bc 42b5
000000b0: 53b8 9036 553d a136 b82e f1bd b0bc 80b1
000000c0: bab8 05b4 b52a 4a35 fbb6 cc37 e2bd e3b5
000000d0: 2536 03ba 06ad 9036 3d37 4f36 6ab0 5d3b
000000e0: 3ab6 083e 1f40 343c 243b 85c0 9136 a937
000000f0: 0cbf 2fc1 56b6 943c 5b31 89bf f231 4e40
00000100: 1c3f f4b8 c03d 3abc 7eba 96be 48bf 2d38
00000110: 89bb 33bc 0738 ddb5 0c36 90a5 50b0 2039
00000120: 42b8 6abc 18be 92ad 44b6 9337 b93b ce38
00000130: 6138 41b7 45b9 4522 bd31 f23a adb1 8626
00000140: 14b7 0335 93b8 09b5 3237 45b8 d0b2 8fbc
00000150: 1b3c 1832 333b 91b3 a33c 843a d9bb c23c
00000160: 74b9 5431 2b3a 0639 88b1 42b5 5cab 49bc
00000170: 7a38 0fbb f8bb 4b36 7fbd 0fb3 1ab6 e432
00000180: c336 dcb9 1133 81b8 8fbb b9b9 bb33 83a4
00000190: 38b6 20a4 dbb6 f436 2837 57b6 8bb9 8b36
000001a0: a536 abb1 0938 5ab0 1227 41ae 3032 e9b6
000001b0: 4738 d73b a73f 9438 0840 3d3f 4cb7 1739
000001c0: 833d 14ba dcbd fc38 0bbc 26c0 33c0 bcb5
000001d0: 74bd d8bc 6335 18b5 16bc 263f c7b9 b139
000001e0: ca38 57b5 acb8 fcb7 31b8 d434 d638 4b35
000001f0: c238 5b33 c9b6 2a25 bb31 8338 dd34 0b3a

sequential_5/conv2d_31/Conv2D f2 [32, 3, 3, 32]
-0.05072 -0.02051 0.09436 0.01588 -0.00908 -0.02646 -0.02065 -0.03708
0.05048 -0.07544 0.04935 -0.005066 -0.04028 -0.00497 -0.1205 -0.05402
-0.06525 -0.0451 -0.0452 -0.00561 0.0488 0.0217 -0.04358 -0.0479
0.01746 0.0008507 -0.02646 -0.0813 -0.08875 -0.0331 0.04395 -0.00968
-0.0006447 -0.01161 0.0642 -0.0265 -0.045 -0.01682 -0.04855 0.02376
-0.02237 -0.05005 -0.01359 0.000994 -0.01317 -0.08844 -0.1298 0.02867
0.00956 -0.01517 0.04105 0.01907 0.003857 0.01608 -0.00571 -0.02473
-0.00425 0.02614 0.08386 0.01447 -0.04446 -0.05194 -0.1643 -0.01938
-0.01079 0.0287 0.08124 -0.04102 -0.09705 0.0191 -0.0736 -0.0162
0.005352 -0.11676 0.02051 0.0553 -0.02315 -0.0769 -0.1084 -0.006527
0.03912 -0.06247 0.097 -0.04834 -0.01554 -0.0838 -0.0035 0.0441
-0.05075 -0.044 0.05136 0.1008 -0.0416 -0.000931 -0.1958 -0.04877
-0.007687 -0.02742 -0.01718 0.01227 0.0618 0.03041 0.07275 -0.0187
0.05222 0.011284 -0.006924 -0.03525 0.04617 -0.03497 -0.02283 0.0377
-0.05206 0.05112 -0.0689 0.0332 0.11743 0.1431 0.03041 -0.02907
0.02159 0.002985 0.01124 -0.0465 -0.01785 -0.0703 0.1206 0.01654
-0.01593 -0.0806 0.005074 0.03029 0.09247 0.1001 0.002449 0.03192
-0.01416 -0.04428 -0.03775 0.008965 0.02687 -0.0805 -0.03226 0.013084
-0.012375 -0.001138 0.004147 0.03137 0.0968 0.06726 0.0118 0.02344
0.05945 0.015526 0.0732 -0.0313 -0.0668 -0.04373 0.0654 -0.0002747
0.053 0.0101 0.05145 0.005245 -0.05087 0.05875 0.02875 0.024
0.0618 -0.02226 7.45e-06 0.0527 -0.02557 -0.03845 -0.0349 0.001872
0.01799 0.0662 0.03683 -0.01175 0.1066 -0.006832 0.04468 -0.0448
0.01376 0.0848 0.02797 -0.003513 0.011086 -0.0889 -0.114 -0.0022
-0.0678 0.0702 -0.213 -0.01091 0.03888 0.02193 0.03564 0.0741
-0.06665 -0.01029 -0.01373 -0.10095 -0.0337 0.0218 -0.05472 0.005405
-0.02313 0.02344 -0.011284 0.0632 -0.004025 0.002739 -0.05008 0.04245
-0.05237 0.03857 -0.09436 -0.07275 0.006634 -0.05762 0.162 0.010345
-0.062 0.01328 -0.1604 -0.066 0.03937 -0.01646 0.02548 0.0689
-0.02939 0.04187 -0.02466 -0.0932 -0.00492 -0.02876 0.01307 -0.073
-0.007607 0.06433 -0.05185 0.00477 0.03424 0.0329 -0.03775 0.0089
-0.01506 -0.02766 -0.05313 0.01311 0.02312 -0.02628 0.1533 0.085
00000000: 7eaa 40a5 0a2e 1124 a6a0 c6a6 49a5 bfa8
00000010: 762a d4ac 512a 309d 28a9 179d b6af eaaa
00000020: 2dac c6a9 c9a9 bf9d 3f2a 8e25 94a9 22aa
00000030: 7824 f812 c6a6 34ad aead 3da8 a029 f5a0
00000040: 4891 f2a1 1c2c c9a6 c3a9 4ea4 37aa 1526
00000050: baa5 68aa f5a2 1214 bea2 a9ad 27b0 5727
00000060: e520 c4a3 4129 e224 e61b 1e24 d99d 55a6
00000070: 5a9c b126 5e2d 6923 b1a9 a6aa 42b1 f6a4
00000080: 86a1 5927 332d 40a9 36ae e424 b6ac 26a4
00000090: 7b1d 79af 4025 142b eda5 ecac f0ae af9e
000000a0: 0229 ffab 352e 30aa f5a3 5dad 2b9b a529
000000b0: 7faa a2a9 932a 742e 53a9 a093 44b2 3eaa
000000c0: df9f 05a7 66a4 4822 e92b c927 a82c caa4
000000d0: af2a c721 179f 83a8 e929 7aa8 d8a5 d328
000000e0: aaaa 8b2a 69ac 4028 842f 9430 c927 71a7
000000f0: 8725 1d1a c121 f4a9 92a4 80ac b82f 3c24
00000100: 14a4 29ad 321d c127 eb2d 682e 0419 1628
00000110: 40a3 aba9 d5a8 9720 e126 27ad 21a8 b322
00000120: 56a2 a994 3f1c 0428 322e 4e2c 0b22 0026
00000130: 9c2b f323 af2c 02a8 46ac 99a9 302c 808c
00000140: c92a 2c21 962a 5f1d 83aa 852b 5c27 2526
00000150: e92b b3a5 7d00 bf2a 8ca6 eca8 78a8 ab17
00000160: 9b24 3d2c b728 04a2 d32e ff9e b829 bca9
00000170: 0c23 6d2d 2927 329b ad21 b1ad 4caf 8198
00000180: 57ac 7e2c d1b2 96a1 fa28 9d25 9028 be2c
00000190: 44ac 45a1 08a3 76ae 50a8 9525 01ab 891d
000001a0: eca5 0026 c7a1 0b2c 1f9c 9c19 69aa 6f29
000001b0: b4aa f028 0aae a8ac cb1e 60ab 2f31 4c21
000001c0: f0ab cd22 22b1 39ac 0a29 37a4 8626 692c
000001d0: 86a7 5c29 50a6 f7ad 0a9d 5da7 b122 acac
000001e0: ca9f 1e2c a3aa e21c 6228 3628 d5a8 8f20
000001f0: b6a3 15a7 cdaa b622 eb25 baa6 e830 712d

sequential_5/conv2d_32/Conv2D f2 [64, 3, 3, 32]
0.00992 -0.01613 0.04672 0.0097 -0.02464 0.0085 -0.02246 -0.1412
-0.002253 0.02213 -0.0272 0.02974 0.02824 -0.0133 0.08514 -0.03464
0.00983 0.03867 -0.006718 0.05725 0.0783 0.05432 -0.05334 0.10126
0.002443 -0.00881 0.0412 0.05667 -0.04196 0.02429 0.08203 0.005905
-0.07623 -0.03137 0.04446 0.0451 -0.051 0.0691 -0.04782 -0.0466
-0.02052 -0.0807 -0.02208 -0.012375 0.0906 -0.04916 0.00249 -0.010544
0.0555 0.02303 -0.02333 0.01918 -0.01968 0.02055 -0.03067 0.0785
0.02179 -0.0784 0.0665 0.0292 -0.00832 -0.00903 0.0325 0.01344
-0.0967 -0.0719 0.05676 0.01244 0.04837 -0.08234 -0.01344 -0.0965
-0.01339 0.002596 -0.004414 -0.04327 0.004208 -0.02486 0.01898 -0.009125
0.00999 -0.02515 -0.08344 0.003351 -0.03143 0.0175 -0.11127 0.09
-0.05887 -0.09094 0.02281 -0.0689 -0.0679 0.0579 0.01357 0.02336
-0.06604 -0.0719 0.0341 0.02141 -0.002682 0.0714 -0.01551 -0.09454
-0.05035 -0.0153 -0.01299 -0.02054 -0.005806 -0.0496 -0.07416 -0.01807
0.08655 0.0384 -0.02995 0.02672 0.02664 -0.02422 -0.02065 0.0528
-0.03876 -0.0513 0.06854 0.008255 -0.0739 0.04117 -0.00919 -0.0278
-0.05807 -0.08484 -0.02144 0.0471 0.0466 -0.03336 -0.02617 -0.1205
-0.0513 -0.01984 -0.02876 -0.1193 -0.01402 -0.01604 -0.04572 -0.0233
0.0125 0.00375 0.01065 0.05496 -0.0608 -0.065 -0.06094 0.07336
-0.014435 -0.1774 0.0989 -0.00927 -0.001255 -0.067 -0.006702 0.02501
-0.08624 -0.0598 0.02507 0.0551 0.0669 -0.05316 -0.0956 -0.2139
-0.1124 0.00433 0.01793 -0.1044 0.0364 -0.0614 0.02054 -0.0492
0.02678 0.0581 -0.02396 0.0693 -0.0571 0.004932 -0.07623 0.1545
-0.04193 -0.0459 0.1329 -0.003656 -0.0367 -0.02951 -0.04495 -0.05093
-0.02283 -0.07806 -0.02249 -0.0497 0.0355 0.02994 0.05743 -0.06726
0.01079 -0.0205 -0.0673 0.0849 0.0893 0.03528 -0.01528 0.04996
0.007313 0.0805 0.01874 -0.0837 -0.01595 -0.05075 -0.0828 0.04626
-0.1021 -0.05695 -0.010704 -0.05072 -0.06415 0.0374 0.0005927 0.02412
-0.08124 -0.0902 0.02678 -0.02954 0.06384 -0.012695 0.0362 -0.05273
0.03412 -0.01715 0.0339 0.011185 0.074 0.0073 -0.01257 0.02356
0.00435 0.03558 0.05566 0.0613 0.03053 -0.06384 -0.03867 0.04
-0.01704 -0.0003848 0.05548 -0.12134 -0.0255 -0.02579 -0.07587 0.0521
00000000: 1421 21a4 fb29 f720 4fa6 5a20 c0a5 85b0
00000010: 9d98 aa25 f7a6 9d27 3b27 cfa2 732d 6fa8
00000020: 0821 f328 e19e 542b 032d f42a d4aa 7b2e
00000030: 0119 83a0 4629 412b 5fa9 3826 402d 0c1e
00000040: e1ac 04a8 b129 c629 87aa 6c2c 1faa f7a9
00000050: 41a5 2aad a7a5 56a2 cc2d 4baa 1919 66a1
00000060: 1b2b e525 f9a5 e924 0aa5 4325 daa7 062d
00000070: 9425 05ad 422c 7a27 43a0 a0a0 2928 e222
00000080: 30ae 9aac 442b 5f22 312a 45ad e2a2 2dae
00000090: dba2 5119 859c 8aa9 4f1c 5da6 dc24 aca0
000000a0: 1d21 70a6 57ad dd1a 06a8 7b24 1faf c32d
000000b0: 89ab d2ad d725 69ac 58ac 692b f322 fb25
000000c0: 3aac 9aac 5d28 7b25 7e99 922c f1a3 0dae
000000d0: 72aa d5a3 a7a2 42a5 f29d 59aa bfac a0a4
000000e0: 8a2d ea28 aba7 d726 d226 33a6 49a5 c22a
000000f0: f6a8 91aa 632c 3a20 bbac 4529 b5a0 1ea7
00000100: 6fab 6ead 7da5 072a f729 45a8 b3a6 b6af
00000110: 91aa 14a5 5da7 a3af 2ea3 1ba4 daa9 f7a5
00000120: 6622 ae1b 7421 092b c8ab 29ac cdab b22c
00000130: 64a3 adb1 542e bfa0 2495 4aac dd9e 6726
00000140: 85ad a8ab 6b26 0e2b 482c ceaa 1eae d8b2
00000150: 32af 6f1c 9724 aeae a928 dcab 4225 4caa
00000160: db26 702b 22a6 6f2c 4fab 0d1d e1ac f230
00000170: 5ea9 e0a9 4130 7d9b b3a8 8ea7 c1a9 85aa
00000180: d8a5 ffac c2a5 5daa 8b28 aa27 5a2b 4eac
00000190: 8621 3fa5 4fac 6f2d b72d 8428 d3a3 652a
000001a0: 7d1f 272d cc24 5bad 15a4 7faa 4dad ec29
000001b0: 89ae 4aab 7ba1 7eaa 1bac ca28 db10 2d26
000001c0: 33ad c6ad db26 90a7 162c 80a2 a228 c0aa
000001d0: 5e28 64a4 5728 ba21 bc2c 7a1f 70a2 0826
000001e0: 741c 8e28 202b d92b d127 16ac f3a8 1f29
000001f0: 5da4 4e8e 1a2b c4af 87a6 9aa6 dbac ab2a

sequential_5/conv2d_33/Conv2D f2 [64, 3, 3, 64]
0.0462 -0.0392 0.04202 0.00243 -0.02058 -0.02257 0.02232 -0.0001583
-0.05887 0.0744 0.02289 -0.04382 -0.0807 0.1262 -0.0874 0.02309
-0.0978 -0.005116 -0.05215 0.02205 -0.05957 -0.01778 -0.05453 -0.06964
-0.008224 -0.01741 -0.01628 -0.02585 -0.02013 -0.03864 -0.08844 -0.0778
-0.1276 0.0965 -0.09125 -0.01053 -0.1334 -0.0584 -0.04147 -0.1382
-0.043 0.06683 -0.0495 0.03543 -0.06647 -0.11304 -0.0332 -0.003635
-0.08295 -0.03687 -0.01356 -0.03613 0.02188 -0.1447 -0.1294 0.004204
0.05432 0.04807 -0.02469 0.02072 -0.00828 0.04507 -0.0735 0.0402
0.0497 -0.0323 0.0232 -0.00787 0.04758 -0.053 -0.05927 -0.0486
-0.10443 0.02437 0.082 -0.1218 -0.0924 0.0403 -0.12274 0.003841
-0.0812 -0.02444 -0.0696 0.00896 -0.0626 0.0313 0.02335 -0.0289
-0.0171 -0.0827 0.01657 0.01976 0.04852 -0.03918 -0.03973 -0.011734
-0.1438 0.04877 -0.01387 0.067 -0.0962 -0.11005 -0.0544 -0.11395
-0.09204 -0.004284 -0.0189 0.01526 -0.0684 -0.01227 -0.003845 -0.05942
-0.1989 -0.1233 0.05032 -0.1827 0.006153 -0.05188 -0.1559 0.0101
-0.000501 -0.06866 -0.0943 0.02242 -0.006878 0.01599 0.04703 0.01029
-0.004753 0.03104 -0.02632 0.00544 0.00861 -0.06033 0.01488 0.04495
-0.1329 -0.0865 -0.02701 -0.02522 0.02554 0.08875 -0.04416 0.03683
-0.039 -0.01904 -0.0735 0.02074 -0.0198 0.1054 0.0162 -0.0823
0.03534 -0.0967 0.0326 0.051 0.08936 0.02177 0.00493 0.05408
-0.1151 0.05344 -0.1012 0.01008 -0.06256 -0.0723 -0.02202 -0.2064
0.0427 0.00502 -0.046 0.007137 -0.081 -0.01137 0.02335 -0.0478
-0.0672 -0.0702 0.1049 -0.1511 -0.006073 -0.01842 -0.0869 0.009224
0.02188 -0.0709 0.08594 -0.0973 -0.010315 0.02411 -0.0177 0.00996
0.0208 -0.02138 0.1044 0.006653 -0.00733 0.02179 0.05835 0.0795
0.04672 -0.02347 0.0211 0.03238 -0.07227 0.02121 -0.02055 0.02985
-0.04004 -0.02206 0.0001376 -0.06168 -0.06128 0.0806 0.05524 0.03174
0.02785 -0.01616 -0.05768 0.01081 0.07697 0.0483 0.03424 0.03065
0.02254 -0.001325 -0.1086 0.05942 0.005703 0.02382 0.02945 -0.03384
-0.05157 -0.067 0.02861 0.000809 -0.02034 -0.0708 -0.01605 0.03998
0.05008 -0.0311 0.03638 0.02893 0.01375 0.001642 -0.08716 0.03598
0.02666 0.0647 0.0967 -0.05038 -0.03488 0.02942 0.0767 0.06384
00000000: ea29 05a9 6129 fa18 45a5 c7a5 b725 3089
00000010: 89ab c32c dc25 9ca9 2aad 0a30 98ad e925
00000020: 42ae 3d9d adaa a525 a0ab 8da4 fbaa 75ac
00000030: 36a0 75a4 2ba4 9ea6 27a5 f2a8 a9ad fbac
00000040: 15b0 2d2e d7ad 64a1 45b0 7aab 4fa9 6cb0
00000050: 81a9 472c 56aa 8928 41ac 3caf 40a8 729b
00000060: 4fad b8a8 f1a2 a0a8 9a25 a1b0 24b0 4e1c
00000070: f42a 272a 52a6 4e25 3da0 c529 b4ac 2529
00000080: 5d2a 22a8 f025 08a0 172a c9aa 96ab 39aa
00000090: afae 3d26 3f2d ccaf eaad 2929 dbaf de1b
000000a0: 32ad 42a6 74ac 9620 02ac 0228 fa25 66a7
000000b0: 61a4 4bad 3e24 0f25 362a 04a9 16a9 02a2
000000c0: 9ab0 3e2a 1aa3 4a2c 28ae 0baf f7aa 4baf
000000d0: e4ad 639c d7a4 d023 61ac 48a2 e09b 9bab
000000e0: 5db2 e4af 712a d9b1 4d1e a4aa fdb0 2c21
000000f0: 1b90 65ac 09ae bd25 0b9f 1824 052a 4521
00000100: de9c f227 bda6 921d 6920 b9ab 9e23 c129
00000110: 41b0 89ad eaa6 75a6 8a26 ae2d a7a9 b728
00000120: fea8 e0a4 b4ac 4f25 12a5 bf2e 2624 44ad
00000130: 8628 30ae 2c28 872a b82d 9325 0c1d ec2a
00000140: 5eaf d72a 7aae 2921 01ac a1ac a3a5 9bb2
00000150: 7729 241d e3a9 4f1f 2fad d2a1 fa25 1eaa
00000160: 4dac 7eac b72e d6b0 389e b7a4 90ad b920
00000170: 9a25 8aac 802d 3aae 48a1 2c26 88a4 1921
00000180: 5325 79a5 ae2e d01e 829f 9425 782b 172d
00000190: fb29 02a6 6725 2528 a0ac 6e25 43a5 a427
000001a0: 20a9 a6a5 8208 e5ab d8ab 292d 122b 1028
000001b0: 2127 23a4 62ab 8921 ed2c 2f2a 6228 d927
000001c0: c525 6d95 f3ae 9b2b d71d 1926 8a27 55a8
000001d0: 9aaa 4aac 5327 a112 35a5 88ac 1ca4 1e29
000001e0: 692a f6a7 a828 6827 0a23 ba16 94ad 9b28
000001f0: d326 242c 302e 73aa 77a8 8827 e92c 162c

sequential_5/conv2d_34/Conv2D f2 [128, 3, 3, 64]
0.02225 -0.0815 -0.012054 -0.01353 -0.004326 -0.0547 -0.08374 -0.06573
-0.0734 0.04434 0.01979 0.0432 0.02997 0.01736 0.014015 0.02646
-0.01535 0.00674 -0.06995 0.00944 0.01506 0.01498 -0.02736 -0.03098
-0.04196 -0.0451 -0.04785 0.08984 0.01446 0.02362 0.02715 -0.01678
0.0556 -0.0003047 -0.05215 0.02985 0.02664 -0.0012865 -0.0927 -0.01259
-0.00535 -0.05356 -0.0415 -0.04337 -0.02318 -0.002914 -0.01037 0.004284
-0.0771 0.0334 -0.0122 -0.0126 -0.003536 -0.0406 -0.02995 -0.01926
0.007553 -0.06665 -0.04105 -0.06757 0.0556 0.002716 -0.002104 0.01924
-0.0383 -0.0696 -0.0705 0.06226 -0.00848 -0.01254 -0.0205 -0.001014
-0.02524 0.00583 0.013794 -0.03668 -0.01875 0.04974 0.05853 0.02823
-0.005245 0.0003335 -0.0654 0.0608 -0.00873 0.001798 -0.02489 -0.02907
0.01765 0.01877 -0.03735 0.01729 0.0776 0.02316 0.01309 0.02127
-0.010605 0.02043 -0.0705 0.05304 0.01703 0.05972 -0.02208 -0.0094
-0.05176 0.01378 -0.04996 -0.03207 -0.0608 0.0329 0.05045 0.006416
-0.0768 0.005074 0.00859 -0.04138 -0.0306 -0.05045 -0.05576 -0.05115
0.00929 -0.0691 -0.03494 -0.02051 -0.000864 -0.002495 0.0396 0.01259
-0.0003364 -0.0544 -0.03253 -0.003777 -0.05478 -0.0915 0.002745 -0.05222
0.02428 -0.0244 -0.00654 -0.0555 0.001993 -0.01198 0.02785 -0.04364
0.012146 -0.04285 -0.00612 0.0857 -0.0753 -0.02452 -0.01953 -0.04077
-0.006416 -0.0171 -0.00906 0.0161 0.0705 -0.010414 -0.06064 0.04184
-0.04056 0.001217 -0.062 0.05826 -0.0537 0.03001 -0.0198 0.02214
-0.07513 -0.03278 -0.078 -0.010376 -0.004513 0.02551 0.00983 -0.02318
-0.0647 0.01807 0.06854 -0.04108 0.014885 -0.006737 -0.0767 -0.0627
-0.0941 -0.02339 -0.04318 0.006676 -0.02298 0.04767 0.04752 0.03043
0.01208 -0.03644 0.02463 0.01645 0.04596 -0.0231 -0.0332 -0.0314
-0.03117 0.02655 0.02086 0.02162 -0.00862 -0.02104 0.04016 0.01198
0.005352 0.03305 -0.0961 0.01842 0.003515 0.03403 -0.01688 0.01562
-0.012634 -0.04218 -0.003029 -0.00217 0.06094 0.04788 0.05933 -0.04373
0.01413 -0.016 -0.02145 -0.003065 -0.02658 -0.012474 -0.00801 -0.0011015
-0.07214 -0.02017 -0.007305 -0.02838 0.01707 0.002632 0.00653 0.04486
-0.049 -0.02675 -0.010544 -0.03387 0.04053 -0.05197 0.03873 -0.00925
-0.03056 -0.0209 0.001963 -0.03958 0.05957 0.00733 0.014984 0.00478
00000000: b225 37ad 2ca2 eda2 6e9c 00ab 5cad 35ac
00000010: b3ac ad29 1125 8829 ac27 7224 2d23 c626
00000020: dca3 e71e 7aac d520 b623 ab23 01a7 eea7
00000030: 5fa9 c6a9 20aa c02d 6723 0c26 f326 4ca4
00000040: 1e2b fe8c adaa a427 d226 4595 efad 72a2
00000050: 7a9d dbaa 50a9 8da9 efa5 f899 4fa1 631c
00000060: efac 4628 3fa2 74a2 3e9b 32a9 aba7 eea4
00000070: bc1f 44ac 41a9 53ac 1e2b 9019 4f98 ed24
00000080: e7a8 74ac 83ac f82b 57a0 6ca2 3fa5 2794
00000090: 76a6 f81d 1023 b2a8 cda4 5e2a 7e2b 3a27
000000a0: 5f9d 770d 30ac c82b 78a0 5d17 5fa6 71a7
000000b0: 8524 ce24 c8a8 6d24 f72c ee25 b422 7225
000000c0: 6ea1 3b25 83ac ca2a 5c24 a52b a7a5 d0a0
000000d0: a0aa 0e23 65aa 1ba8 c8ab 3628 752a 921e
000000e0: eaac 321d 6620 4ca9 d5a7 75aa 23ab 8caa
000000f0: c220 6cac 79a8 40a5 1493 1c99 1229 7222
00000100: 838d f7aa 2aa8 bc9b 03ab dbad 9f19 afaa
00000110: 3726 3fa6 b29e 1bab 1518 22a2 2127 96a9
00000120: 3822 7ca9 449e 7c2d d2ac 47a6 00a5 38a9
00000130: 929e 61a4 a4a0 1f24 832c 55a1 c3ab 5b29
00000140: 31a9 fc14 f0ab 752b e0aa af27 12a5 ab25
00000150: cfac 32a8 feac 50a1 9f9c 8826 0821 efa5
00000160: 24ac a024 632c 42a9 9f23 e69e e9ac 03ac
00000170: 06ae fda5 87a9 d61e e2a5 1a2a 152a ca27
00000180: 2f22 aaa8 4e26 3624 e229 eaa5 40a8 05a8
00000190: fba7 cc26 5725 8925 6aa0 63a5 2429 2222
000001a0: 7b1d 3b28 27ae b724 331b 5b28 52a4 ff23
000001b0: 78a2 66a9 349a 7298 cd2b 212a 982b 99a9
000001c0: 3c23 19a4 7ea5 479a cea6 63a2 1aa0 8394
000001d0: 9eac 2aa5 7b9f 44a7 5f24 6419 b01e be29
000001e0: 46aa d9a6 66a1 56a8 3029 a7aa f528 bca0
000001f0: d3a7 5aa5 0518 11a9 a02b 821f ac23 e51c

sequential_5/conv2d_35/Conv2D f2 [128, 3, 3, 128]
-0.0166 -0.004566 0.00839 -0.00871 -0.0686 0.04715 0.0785 0.01894
0.0813 -0.02216 -0.06058 -0.00213 0.02592 0.0972 0.02399 0.02829
-0.03406 0.0347 0.0722 -0.01942 -0.01403 -0.01058 0.04547 0.005196
-0.00815 0.0667 0.03336 0.06696 0.05154 -0.0855 0.1019 -0.0553
-0.014465 -0.02095 -0.01461 0.00819 0.01054 0.02673 0.01712 -0.009026
0.02449 -0.03314 0.017 -0.0541 0.001487 -0.00832 -0.02077 -0.07855
0.02875 -0.02058 0.00118 -0.03445 -0.0788 -0.0183 -0.0005965 0.01883
-0.1064 0.0453 -0.0878 -0.00524 -0.0176 0.04977 0.03195 0.02956
-0.0929 0.05487 0.06027 -0.00639 -0.0335 0.01765 -0.0749 0.05698
0.02153 0.03964 -0.007744 0.018 -0.0357 -0.05472 -0.03099 0.01842
-0.03287 -0.02278 0.0472 0.0387 -0.04214 0.02144 -0.01218 0.0375
-0.03102 -0.04166 -0.01178 -0.006157 -0.00255 -0.03546 -0.01787 -0.02132
0.04312 0.001319 -0.0632 0.05685 -0.04745 -0.001711 0.03815 0.01176
0.01499 -0.03354 0.0762 0.002682 0.05685 0.02905 -0.003685 0.08093
0.001892 0.02332 -0.00398 -0.002193 -0.06216 0.0651 -0.02103 -0.02795
-0.0102 -0.084 -0.04163 0.04156 0.04962 -0.01881 -0.01694 0.03708
-0.01183 0.01528 -0.0066 0.01232 -0.067 0.05334 0.02122 0.02303
0.03128 -0.0672 -0.03278 -0.0492 0.03452 0.0697 0.00689 0.06433
-0.03098 -0.01541 0.04742 0.000375 -0.01409 -0.05197 0.081 -0.02962
-0.04062 -0.000178 0.0652 0.0597 0.0337 -0.0774 0.07886 -0.06125
0.01176 -0.002106 -0.05035 -0.02397 0.002552 0.03265 -0.002472 0.00521
-0.01177 -0.06076 0.0235 -0.02336 0.01103 -0.03134 -0.05704 -0.05197
-0.01119 -0.03073 -0.01266 -0.0836 -0.04636 -0.02263 -0.004208 0.03387
-0.0874 0.063 -0.0889 0.007427 -0.01735 0.01825 0.03143 -0.005375
-0.10236 -0.00999 0.03323 0.02446 -0.02692 0.01007 -0.05786 0.0632
-0.02397 0.03049 -0.007748 0.03384 -0.006508 -0.04605 -0.02306 0.01246
-0.03354 -0.004463 0.02716 0.05536 -0.0366 0.043 -0.005608 0.02377
0.005646 -0.003454 -0.02843 0.00644 0.01329 -0.03625 -0.03687 -0.01339
0.02567 0.02417 -0.003838 0.05383 -0.03114 -0.017 0.006924 -0.02048
0.005924 -0.01733 0.0791 -0.003807 0.0392 0.0436 -0.01895 0.06335
-0.006947 -0.0008087 -0.01584 -0.01854 0.01804 -0.007614 -0.05426 -0.03049
-0.003262 -0.09235 -0.05927 0.02362 0.03336 -0.04462 -0.000422 -0.003448
00000000: 40a4 ad9c 4c20 76a0 64ac 092a 062d d924
00000010: 342d aca5 c1ab 5d98 a326 392e 2426 3e27
00000020: 5ca8 7128 9f2c f9a4 2fa3 6ba1 d229 521d
00000030: 2ca0 452c 4528 492c 992a 79ad 862e 14ab
00000040: 68a3 5da5 7ba3 3120 6521 d826 6224 9fa0
00000050: 4526 3ea8 5a24 edaa 1716 43a0 51a5 07ad
00000060: 5c27 45a5 d514 69a8 0bad afa4 e390 d224
00000070: cfae cc29 9fad 5e9d 81a4 5f2a 1728 9127
00000080: f2ad 062b b72b 8b9e 4aa8 8524 cbac 4b2b
00000090: 8325 1329 ee9f 9c24 92a8 01ab efa7 b724
000000a0: 35a8 d5a5 0b2a f428 65a9 7d25 3ca2 cd28
000000b0: f1a7 55a9 08a2 4e9e 3999 8aa8 93a4 75a5
000000c0: 8529 6715 0bac 472b 13aa 0297 e228 0522
000000d0: ad23 4ba8 e02c 7e19 472b 7027 8c9b 2e2d
000000e0: c017 f825 139c 7e98 f5ab 2b2c 62a5 28a7
000000f0: 39a1 60ad 54a9 5229 5a2a d1a4 56a4 bf28
00000100: 0fa2 d323 c29e 4f22 4aac d42a 6f25 e525
00000110: 0128 4dac 32a8 4caa 6b28 762c 0e1f 1e2c
00000120: eea7 e4a3 122a 250e 37a3 a7aa 2f2d 95a7
00000130: 33a9 d589 2c2c a42b 5028 f4ac 0c2d d7ab
00000140: 0522 5098 72aa 23a6 3a19 2e28 1099 561d
00000150: 07a2 c7ab 0426 fba5 a621 03a8 4dab a7aa
00000160: bba1 dea7 7ba2 5aad efa9 cba5 4f9c 5628
00000170: 98ad 082c b1ad 9b1f 71a4 ac24 0628 819d
00000180: 8dae 1da1 4128 4326 e4a6 2821 68ab 0b2c
00000190: 23a6 ce27 ef9f 5528 aa9e e5a9 e7a5 6122
000001a0: 4ba8 929c f426 162b afa8 8129 be9d 1626
000001b0: c81d 139b 47a7 981e ce22 a4a8 b8a8 dba2
000001c0: 9226 3026 dc9b e42a f9a7 5aa4 171f 3ea5
000001d0: 111e 70a4 102d cc9b 0529 9529 daa4 0e2c
000001e0: 1d9f a092 0ea4 bfa4 9e24 cc9f f2aa cea7
000001f0: ae9a e9ad 96ab 0c26 4528 b6a9 ea8e 109b

sequential_5/dense_11/BiasAdd/ReadVariableOp f2 [10]
0.0689 -0.1592 0.1179 0.2607 -0.02237 -0.1553 -0.05344 0.0628
-0.16 -0.03102
00000000: 692c 18b1 8c2f 2c34 baa5 f8b0 d7aa 052c
00000010: 1fb1 f1a7

sequential_5/dense_10/BiasAdd/ReadVariableOp f2 [256]
0.1156 0.1743 0.2372 0.00633 0.1686 0.2102 0.265 0.1197
0.0772 0.2551 0.2834 0.0467 0.1462 0.1554 0.12305 0.1986
0.1971 0.2166 0.2496 0.06537 0.2654 0.2356 0.1517 0.1142
0.1869 0.1567 0.1378 0.231 0.2023 0.1012 0.1251 -0.012474
0.1893 0.1564 0.0391 0.2462 0.3076 0.09247 0.05807 -0.02098
0.06824 0.2585 0.1844 0.0947 0.0994 0.2102 0.1575 0.2385
0.1414 0.1407 0.099 0.1344 0.1205 0.2937 0.1354 0.00703
-0.0816 0.1239 0.146 0.2686 0.08777 0.194 0.03104 0.1884
-0.0825 0.1428 0.1045 -0.1248 0.1805 0.1192 0.154 0.2076
0.0683 0.1876 0.0314 0.207 0.1836 -0.08923 0.1482 0.2058
0.03482 0.1312 0.1901 0.2096 0.09576 0.2445 0.1819 0.2249
0.1184 0.1942 0.2708 0.2686 0.11536 0.1694 0.2366 0.1032
0.03223 0.1301 0.08685 0.001836 0.143 0.274 0.0685 0.1588
0.1748 0.11523 0.01363 0.1967 0.1864 0.2394 0.127 0.2031
0.1031 0.1807 0.09937 0.005974 0.1498 0.0992 0.08795 0.293
0.146 0.133 0.0905 0.0822 0.1849 0.2686 0.1282 0.2021
0.2373 0.2074 0.0571 0.1476 0.1731 -0.04486 0.002998 0.284
0.0314 0.01144 0.05817 0.2357 0.2264 0.1925 0.0729 0.1155
0.195 0.07794 0.1863 0.192 0.0048 0.2109 0.1533 0.272
0.2379 0.2213 0.2155 0.1853 0.3093 0.11273 0.07904 0.0721
0.1848 0.2668 0.2318 0.09576 -0.02983 0.1115 0.1346 0.0794
0.1952 -0.0814 0.1648 0.03488 0.2332 0.11066 0.1779 0.281
0.2115 0.2141 0.1937 0.2015 0.2261 0.0366 0.04773 0.2059
0.2285 0.01479 0.0995 0.1875 0.05902 0.1343 0.2203 0.1211
0.2104 0.202 0.226 0.1598 0.2576 0.1595 0.1282 0.255
0.1211 0.08704 0.1609 0.2756 0.3154 0.3005 0.1628 0.1117
-0.0893 0.05933 0.2462 0.261 0.1011 0.10425 0.1343 0.0603
0.03397 0.1422 0.3188 0.1117 0.237 0.1169 0.0977 0.2018
0.2966 0.2244 0.2231 -0.117 0.3289 0.12445 0.1671 0.1289
0.00498 0.2241 0.2257 0.02301 0.0695 0.08655 0.05185 0.28
0.2211 0.1788 0.259 0.0544 0.2534 0.1989 0.2676 0.11084
0.3193 0.0894 -0.10504 0.02379 0.2418 0.1017 -0.077 0.2089
00000000: 662f 9431 9733 7b1e 6531 ba32 3d34 a92f
00000010: f12c 1534 8934 fa29 ae30 f930 e02f 5b32
00000020: 4f32 ee32 fd33 2f2c 3f34 8a33 db30 4f2f
00000030: fb31 0431 6930 6433 7932 7a2e 0130 63a2
00000040: 0f32 0131 0129 e133 ec34 eb2d 6f2b 5fa5
00000050: 5e2c 2334 e731 102e 5d2e ba32 0a31 a233
00000060: 8630 8130 562e 4d30 b62f b334 5530 331f
00000070: 39ad ee2f ac30 4c34 9e2d 3532 f227 0732
00000080: 48ad 9230 b02e fdaf c731 a12f ee30 a532
00000090: 5f2c 0132 0528 a032 e031 b6ad be30 9632
000000a0: 7528 3330 1532 b532 212e d333 d231 3233
000000b0: 942f 3732 5534 4c34 622f 6c31 9233 9b2e
000000c0: 2028 2a30 8f2d 8517 9330 6234 622c 1531
000000d0: 9831 602f fb22 4b32 f731 a933 1030 8032
000000e0: 992e c831 5c2e 1e1e cb30 592e a12d b034
000000f0: ac30 4230 cb2d 432d eb31 4c34 1a30 7832
00000100: 9833 a332 4f2b b930 8a31 bea9 241a 8b34
00000110: 0528 db21 722b 8b33 3f33 2932 aa2c 642f
00000120: 3d32 fd2c f631 2532 ea1c c032 e830 5a34
00000130: 9d33 1533 e532 ee31 f334 372f 0f2d 9d2c
00000140: ea31 4534 6b33 212e a3a7 232f 4f30 152d
00000150: 3f32 36ad 4631 7728 7633 152f b131 7f34
00000160: c532 da32 3332 7332 3c33 af28 1c2a 9732
00000170: 5033 9323 5e2e 0032 8e2b 4c30 0d33 c02f
00000180: bc32 7732 3b33 1d31 1f34 1b31 1a30 1434
00000190: c02f 922d 2631 6934 0c35 cf34 3631 262f
000001a0: b7ad 982b e133 2d34 782e ac2e 4c30 b82b
000001b0: 5928 8d30 1a35 262f 9633 7b2f 412e 7532
000001c0: bf34 2e33 2433 7daf 4335 f72f 5931 2030
000001d0: 191d 2c33 3933 e425 732c 8a2d a32a 7b34
000001e0: 1333 b931 2534 f72a 0e34 5d32 4834 182f
000001f0: 1c35 b92d b9ae 1726 bd33 822e eeac af32

sequential_5/dense_10/MatMul f2 [256, 128]
-0.1532 -0.02415 0.2296 0.02924 -0.01343 0.00902 -0.1223 -0.0709
0.00839 -0.03632 0.087 -0.0796 -0.0926 0.1172 -0.05502 0.0384
0.079 -0.0944 0.1595 -0.004528 -0.04474 -0.0555 -0.1838 -0.0783
-0.1687 0.1433 -0.005383 0.1306 -0.02142 0.0739 0.05493 0.1517
-0.2908 0.1108 0.114 0.3215 -0.0476 -0.1313 0.075 -0.03284
0.1206 -0.0641 0.06866 -0.11926 0.0975 -0.1295 -0.10645 0.2542
-0.1636 0.1317 0.1064 -0.1032 -0.00833 0.04666 0.1075 -0.09906
0.01668 -0.1466 -0.07324 0.08594 -0.0769 0.02556 0.00794 0.1399
-0.09436 -0.06964 0.06525 0.1882 -0.11017 -0.03482 -0.069 0.01274
-0.0133 -0.09155 -0.2202 -0.06635 -0.1576 0.0785 -0.02882 0.05823
-0.136 0.11475 0.01814 -0.09656 0.02092 0.0693 -0.01898 -0.0624
0.03854 0.003448 0.2527 0.1107 -0.008446 0.2983 0.08594 0.2026
-0.06854 0.0921 -0.02321 0.03104 0.0755 -0.3164 0.0809 0.02919
0.00556 -0.09735 0.0806 0.010635 -0.0536 -0.0888 0.01813 -0.1378
-0.03693 -0.0996 -0.0968 -0.0852 -0.1032 0.03467 0.0642 -0.08673
-0.1914 -0.04523 -0.0144 -0.0799 0.2267 0.0426 0.1222 -0.0812
0.1619 0.06714 -0.0854 -0.00692 -0.10974 -0.2036 -0.2842 -0.03778
-0.08374 0.01541 0.00464 -0.03183 -0.3206 0.02399 -0.1368 0.2157
0.1857 0.0173 -0.03174 -0.07965 0.1613 0.03778 -0.1156 0.00535
-0.2196 -0.02776 0.03632 0.02386 0.00853 -0.1113 -0.0346 -0.09705
-0.06915 -0.001123 0.09314 -0.1716 0.11993 -0.01116 -0.02896 0.00657
0.08136 -0.04944 -0.00552 -0.1774 0.1985 0.01767 -0.1547 0.0774
0.02103 0.10443 0.02998 0.0596 0.10645 -0.167 0.0451 0.1082
-0.3389 -0.0784 -0.10034 -0.1131 0.006832 -0.0868 -0.04004 0.06143
0.1366 -0.05804 0.1388 0.03366 -0.3032 0.12396 -0.2316 0.1362
0.10004 0.0374 -0.0804 0.1776 -0.1599 0.06866 -0.1214 -0.04297
0.03946 0.0783 0.1334 0.1365 -0.02545 0.02045 -0.09906 -0.0847
0.1362 -0.1349 0.1193 0.02731 0.223 0.010666 0.1257 -0.09235
0.01631 0.1721 0.09375 -0.1262 0.00256 -0.02306 0.0906 0.0447
0.1614 -0.12115 0.02205 -0.02307 0.2292 0.05206 -0.03827 -0.0635
0.1957 -0.03168 0.08105 0.12103 0.06696 0.1771 -0.1448 0.05963
0.09357 -0.03625 0.0457 -0.005253 -0.02707 0.03061 0.1499 0.1567
00000000: e7b0 2fa6 5933 7c27 e0a2 9e20 d4af 8aac
00000010: 4c20 a6a8 912d 18ad edad 802f 0bab ea28
00000020: 0e2d 0bae 1b31 a39c baa9 1bab e2b1 03ad
00000030: 66b1 9630 839d 2e30 7ca5 bb2c 082b db30
00000040: a7b4 172f 4c2f 2535 18aa 34b0 cd2c 34a8
00000050: b82f 1aac 652c a2af 3d2e 25b0 d0ae 1134
00000060: 3cb1 3730 cf2e 9bae 44a0 f929 e12e 57ae
00000070: 4524 b1b0 b0ac 802d ecac 8b26 1120 7a30
00000080: 0aae 75ac 2d2c 0632 0daf 75a8 6aac 8622
00000090: cfa2 dcad 0cb3 3fac 0bb1 062d 61a7 742b
000000a0: 5ab0 582f a524 2eae 5b25 6f2c dca4 fdab
000000b0: ef28 101b 0b34 162f 53a0 c634 802d 7c32
000000c0: 63ac e52d f1a5 f227 d52c 10b5 2d2d 7927
000000d0: b21d 3bae 292d 7221 dcaa afad a424 69b0
000000e0: baa8 60ae 32ae 74ad 9bae 7028 1c2c 8dad
000000f0: 20b2 caa9 5fa3 1dad 4133 7429 d22f 32ad
00000100: 2e31 4c2c 77ad 169f 06af 84b2 8cb4 d6a8
00000110: 5cad e423 c01c 13a8 21b5 2426 61b0 e732
00000120: f131 6e24 10a8 19ad 2931 d628 66af 7a1d
00000130: 07b3 1ba7 a628 1c26 5e20 20af 6ea8 36ae
00000140: 6dac 9a94 f62d 7eb1 ad2f b7a1 6aa7 ba1e
00000150: 352d 54aa a79d adb1 5a32 8624 f3b0 f42c
00000160: 6225 af2e ad27 a12b d02e 58b1 c629 ed2e
00000170: 6cb5 05ad 6cae 3daf ff1e 8ead 20a9 dd2b
00000180: 5f30 6eab 7130 4f28 dab4 ef2f 69b3 5c30
00000190: 672e ca28 25ad af31 1eb1 652c c5af 80a9
000001a0: 0d29 032d 4530 5e30 84a6 3c25 57ae 6cad
000001b0: 5c30 51b0 a32f fe26 2333 7621 0630 e9ad
000001c0: 2d24 8231 002e 0ab0 3e19 e7a5 cc2d b929
000001d0: 2a31 c1af a525 e8a5 5633 aa2a e6a8 10ac
000001e0: 4332 0ea8 302d bf2f 492c ab31 a2b0 a22b
000001f0: fd2d a4a8 d929 619d eea6 d627 cc30 0431

sequential_5/dense_11/MatMul f2 [10, 256]
0.11005 0.0927 0.1268 -0.1575 -0.0913 0.1567 0.1129 0.03558
-0.1903 0.12415 0.0751 -0.2844 0.1278 -0.0717 -0.299 0.1036
0.05493 0.04608 0.1836 -0.10345 0.148 0.05923 -0.204 -0.08704
0.0834 -0.1843 -0.01115 -0.243 0.05966 -0.1522 -0.1284 -0.1244
0.0856 -0.0733 -0.16 -0.392 0.07367 0.0355 -0.1509 -0.2004
-0.0756 0.1423 0.07904 -0.1829 -0.1411 -0.2996 -0.1013 -0.2563
-0.009705 0.1029 -0.0435 -0.1938 -0.065 0.097 0.09357 -0.1813
0.05048 0.1034 0.0507 0.0698 -0.08624 -0.10406 0.0996 0.1105
0.0274 0.05865 -0.001189 -0.0917 -0.0797 0.07837 0.0164 -0.1669
-0.1002 -0.08203 -0.2363 0.05084 0.10986 0.03787 -0.11993 -0.2325
-0.2063 -0.1156 0.0669 -0.401 0.04388 0.0919 0.008095 0.0888
-0.293 0.154 0.0964 0.05716 0.1354 0.05768 -0.03143 0.02441
0.10645 -0.07416 -0.1271 -0.1697 0.1409 0.01241 -0.00966 -0.201
0.111 0.00974 -0.08325 0.1254 -0.04538 0.1087 0.111 -0.3025
-0.11646 0.1037 -0.1062 -0.08936 -0.01953 0.14 -0.16 0.1788
0.1181 0.01643 -0.1884 -0.001288 -0.1897 0.01744 0.06714 -0.169
0.1382 0.0924 0.0769 0.0814 0.0657 -0.00931 -0.3013 0.1184
-0.2014 -0.03186 -0.1786 0.1599 0.12 -0.07666 0.05173 -0.07135
0.1654 -0.2397 0.07556 0.1466 -0.2334 -0.01165 0.143 0.197
0.1595 -0.1743 -0.0808 -0.2167 0.1772 -0.0696 0.0008674 -0.0914
0.0532 -0.01277 -0.002556 0.0671 -0.1171 -0.225 -0.06003 -0.1531
-0.01663 0.1537 0.01187 -0.1072 -0.07007 -0.1511 -0.1971 -0.1381
0.03815 -0.127 -0.2012 0.00707 0.11005 -0.03384 -0.0527 -0.02641
0.0962 -0.2178 -0.1957 0.0177 -0.01385 0.1185 -0.004005 -0.1698
-0.04535 0.08777 0.2646 -0.02412 0.0589 -0.04858 -0.1942 0.145
0.04047 -0.1996 -0.1648 0.1414 0.124 0.2089 -0.0338 0.04962
0.01249 -0.1116 0.0866 0.1163 -0.0736 0.00439 -0.07684 0.1302
-0.0909 -0.04437 0.0395 0.01048 0.1615 -0.3591 -0.2023 -0.338
0.05374 0.06122 -0.01079 0.05695 0.0945 0.00721 -0.1107 0.1008
-0.02539 0.003866 0.06354 -0.313 -0.04028 0.0331 0.1087 -0.3083
-0.2869 0.05453 0.1357 0.0669 0.0924 0.0643 -0.01663 -0.2805
0.1442 0.05856 -0.1433 -0.1322 0.1552 0.0782 -0.004932 0.04166
00000000: 0b2f ef2d 0f30 0ab1 d8ad 0431 3a2f 8e28
00000010: 17b2 f22f ce2c 8db4 1730 97ac c9b4 a12e
00000020: 082b e629 e031 9fae bc30 952b 87b2 92ad
00000030: 562d e6b1 b5a1 c7b3 a32b dfb0 1cb0 f6af
00000040: 7a2d b1ac 1fb1 46b6 b72c 8b28 d4b0 6ab2
00000050: d7ac 8e30 0f2d dab1 84b0 cbb4 7cae 1ab4
00000060: f8a0 962e 91a9 34b2 29ac 352e fd2d cdb1
00000070: 762a 9e2e 7d2a 782c 85ad a9ae 602e 122f
00000080: 0427 822b df94 dead 1aad 042d 3324 57b1
00000090: 6aae 40ad 90b3 822a 082f d928 adaf 71b3
000000a0: 9ab2 66af 482c 6ab6 9e29 e22d 2520 af2d
000000b0: b0b4 ee30 2b2e 512b 5530 622b 06a8 4026
000000c0: d02e bfac 11b0 6eb1 8230 5b22 f2a0 6fb2
000000d0: 1b2f fd20 54ad 0330 cfa9 f52e 1b2f d7b4
000000e0: 74af a32e ccae b8ad 00a5 7b30 1fb1 b931
000000f0: 8f2f 3524 07b2 4795 12b2 7724 4c2c 68b1
00000100: 6c30 ea2d ec2c 362d 342c c4a0 d2b4 942f
00000110: 72b2 14a8 b7b1 1e31 ae2f e8ac 9f2a 91ac
00000120: 4b31 acb3 d62c b130 78b3 f7a1 9330 4e32
00000130: 1b31 94b1 2cad efb2 ac31 74ac 1b13 d9ad
00000140: cf2a 8aa2 3c99 4b2c 7faf 33b3 afab e6b0
00000150: 42a4 eb30 1422 dcae 7cac d6b0 4fb2 6bb0
00000160: e228 10b0 70b2 3d1f 0b2f 55a8 bfaa c3a6
00000170: 282e f8b2 43b2 8824 17a3 962f 1a9c 6fb1
00000180: cea9 9e2d 3c34 2da6 8a2b 38aa 37b2 a430
00000190: 2e29 63b2 46b1 8630 f02f af32 54a8 5a2a
000001a0: 6522 24af 8b2d 712f b6ac 7f1c ebac 2b30
000001b0: d1ad aea9 0e29 5e21 2b31 bfb5 79b2 68b5
000001c0: e12a d62b 86a1 4a2b 0c2e 621f 16af 742e
000001d0: 80a6 eb1b 112c 02b5 28a9 3d28 f52e efb4
000001e0: 97b4 fb2a 5830 482c ea2d 1d2c 42a4 7db4
000001f0: 9d30 7f2b 96b0 3bb0 f730 012d 0d9d 5529
