part3_edge_optimization/float16.tflite (tflite, 655308 bytes, 16 tensors)

sequential_5/re_lu_30/Relu;sequential_5/batch_normalization_30/FusedBatchNormV3;sequential_5/conv2d_30/BiasAdd/ReadVariableOp;sequential_5/conv2d_30/BiasAdd;sequential_5/conv2d_31/Conv2D;sequential_5/conv2d_30/Conv2D f2 [32]
0	0xbc03	-1.003
1	0x3790	0.4727
2	0x3c35	1.052
3	0xad8e	-0.0868
4	0xbbac	-0.959
5	0x3407	0.2517
6	0xbe80	-1.625
7	0x3c02	1.002
8	0xbc4b	-1.073
9	0xa26b	-0.012535
10	0x333a	0.2258
11	0x38cd	0.6
12	0x3667	0.4001
13	0x361a	0.3813
14	0x385e	0.546
15	0x3b16	0.8857
16	0x3849	0.5356
17	0x395a	0.669
18	0xaddb	-0.0915
19	0x3992	0.6963
20	0x357b	0.3425
21	0x355e	0.3354
22	0x39d9	0.731
23	0x2c4d	0.0672
24	0x34d9	0.303
25	0x345b	0.2722
26	0x36c7	0.4236
27	0x3c6f	1.108
28	0x35e0	0.3672
29	0x3895	0.5728
30	0xb79e	-0.476
31	0x376b	0.4636

sequential_5/re_lu_31/Relu;sequential_5/batch_normalization_31/FusedBatchNormV3;sequential_5/conv2d_31/BiasAdd/ReadVariableOp;sequential_5/conv2d_31/BiasAdd;sequential_5/conv2d_31/Conv2D f2 [32]
0	0x3469	0.2756
1	0x345c	0.2725
2	0x358c	0.3467
3	0x35e4	0.3682
4	0x282f	0.03268
5	0xadf9	-0.0933
6	0xacbe	-0.0741
7	0xbb3d	-0.905
8	0x2f68	0.1157
9	0xc004	-2.008
10	0xb183	-0.1722
11	0xb423	-0.2585
12	0x33ae	0.24
13	0x3b74	0.9316
14	0x3823	0.517
15	0x3c12	1.018
16	0x1d26	0.005028
17	0x3713	0.4421
18	0xb1b7	-0.1786
19	0x3b10	0.883
20	0x350f	0.3162
21	0x3a70	0.8047
22	0x354c	0.331
23	0x38ef	0.6167
24	0x3980	0.6875
25	0x3966	0.675
26	0xb135	-0.1627
27	0xbe8b	-1.636
28	0x3492	0.2856
29	0x349a	0.2876
30	0x3ddb	1.464
31	0x38ac	0.584

sequential_5/re_lu_32/Relu;sequential_5/batch_normalization_32/FusedBatchNormV3;sequential_5/conv2d_32/BiasAdd/ReadVariableOp;sequential_5/conv2d_32/BiasAdd;sequential_5/conv2d_33/Conv2D;sequential_5/conv2d_32/Conv2D f2 [64]
0	0x30f0	0.1543
1	0x2c86	0.0707
2	0xb9b2	-0.712
3	0x3899	0.5747
4	0xb64c	-0.3936
5	0x3c09	1.009
6	0x2ac1	0.05276
7	0xb533	-0.325
8	0x32c8	0.2119
9	0x38fa	0.622
10	0x3947	0.6597
11	0x3830	0.5234
12	0x360c	0.378
13	0x3459	0.2717
14	0x2ade	0.05365
15	0xacc8	-0.0747
16	0x3a3e	0.7803
17	0x39ad	0.7095
18	0x3c1a	1.025
19	0x39c4	0.7207
20	0xb946	-0.659
21	0x37d0	0.4883
22	0x389d	0.5767
23	0xac21	-0.0645
24	0x37da	0.4907
25	0x31fa	0.1868
26	0xb45e	-0.273
27	0x3c58	1.086
28	0x392a	0.6455
29	0x3a7a	0.8096
30	0x34ee	0.308
31	0x39e9	0.739
32	0xab7c	-0.05847
33	0x35ba	0.358
34	0x2f49	0.11383
35	0xb406	-0.2515
36	0xae51	-0.0987
37	0x3b5a	0.919
38	0xa5a9	-0.02211
39	0x360c	0.378
40	0xb619	-0.381
41	0x35da	0.3657
42	0xb63d	-0.39
43	0x3151	0.1661
44	0x32be	0.2107
45	0xb295	-0.2057
46	0x305f	0.1366
47	0x3700	0.4375
48	0xaa38	-0.04858
49	0x3a7d	0.811
50	0x35d1	0.3635
51	0x36f8	0.4355
52	0x286a	0.0345
53	0x39a7	0.7065
54	0x3574	0.3408
55	0x336a	0.2317
56	0x3ae3	0.861
57	0x3d39	1.306
58	0x36ae	0.4175
59	0x3ae3	0.861
60	0x2ccf	0.07513
61	0xb15d	-0.1676
62	0x39f3	0.7437
63	0x35bc	0.3584

sequential_5/re_lu_33/Relu;sequential_5/batch_normalization_33/FusedBatchNormV3;sequential_5/conv2d_33/BiasAdd/ReadVariableOp;sequential_5/conv2d_33/BiasAdd;sequential_5/conv2d_33/Conv2D f2 [64]
0	0x23dc	0.01535
1	0x35a4	0.3525
2	0x363b	0.3894
3	0x3bf8	0.996
4	0x38be	0.593
5	0x39b6	0.714
6	0x3c56	1.084
7	0x3709	0.4397
8	0x3b9f	0.9526
9	0xb4f3	-0.3093
10	0x399e	0.702
11	0xb480	-0.2812
12	0x39f1	0.7427
13	0x393b	0.654
14	0x3049	0.1339
15	0x357b	0.3425
16	0x34b5	0.2942
17	0x3c8b	1.136
18	0x3a05	0.7524
19	0x38be	0.593
20	0x353e	0.3276
21	0xb719	-0.4436
22	0xaeac	-0.10425
23	0x3e05	1.505
24	0x3cb5	1.177
25	0xa339	-0.01411
26	0x3d16	1.271
27	0x3578	0.3418
28	0x3b17	0.886
29	0xbaf1	-0.8677
30	0x304b	0.1342
31	0x36fb	0.4363
32	0x3400	0.25
33	0xb254	-0.1978
34	0x388d	0.569
35	0xae3c	-0.0974
36	0xa5ef	-0.02318
37	0x31c8	0.1807
38	0x3607	0.3767
39	0x2e5a	0.09924
40	0x3b88	0.9414
41	0x3c61	1.095
42	0x3bda	0.9814
43	0x34c7	0.2986
44	0x3c19	1.024
45	0x3b70	0.9297
46	0xacf4	-0.0774
47	0xb918	-0.6367
48	0x3d93	1.394
49	0xaf25	-0.11163
50	0xb75e	-0.4604
51	0x37df	0.492
52	0x3426	0.2593
53	0x3b5a	0.919
54	0x2d73	0.08514
55	0xb1cf	-0.1815
56	0x36da	0.4282
57	0xba32	-0.7744
58	0xa65c	-0.02484
59	0x3d3a	1.307
60	0x3c0a	1.01
61	0x3d11	1.267
62	0x3c26	1.037
63	0x3bde	0.9834

sequential_5/re_lu_34/Relu;sequential_5/batch_normalization_34/FusedBatchNormV3;sequential_5/conv2d_34/BiasAdd/ReadVariableOp;sequential_5/conv2d_34/BiasAdd;sequential_5/conv2d_35/Conv2D;sequential_5/conv2d_34/Conv2D f2 [128]
0	0xb8c5	-0.596
1	0xbe57	-1.585
2	0x3bab	0.9585
3	0xb2af	-0.2089
4	0x31a2	0.176
5	0xb9c7	-0.722
6	0x3408	0.252
7	0x3579	0.342
8	0xb575	-0.341
9	0x3a51	0.7896
10	0xbc3c	-1.059
11	0xbbe8	-0.9883
12	0xbbad	-0.9595
13	0xb74f	-0.4568
14	0x35b0	0.3555
15	0x3aaf	0.8354
16	0xb5dd	-0.3665
17	0xb977	-0.683
18	0xb713	-0.4421
19	0xbd28	-1.289
20	0xb7d9	-0.4905
21	0x381d	0.514
22	0x3ae6	0.8623
23	0xbb15	-0.8853
24	0x3c05	1.005
25	0xb151	-0.1661
26	0xbd01	-1.251
27	0x3433	0.2625
28	0xb843	-0.5327
29	0xb88a	-0.5674
30	0xb13f	-0.164
31	0xbcd0	-1.203
32	0x3080	0.1406
33	0xb4db	-0.3035
34	0xb054	-0.1353
35	0xb9c1	-0.719
36	0xbe4a	-1.572
37	0xa2d3	-0.01333
38	0xbd9e	-1.404
39	0x3522	0.3208
40	0xb973	-0.681
41	0xb9bc	-0.717
42	0xb87e	-0.5615
43	0xb402	-0.2505
44	0x3545	0.3293
45	0xb8fb	-0.6226
46	0x3710	0.4414
47	0xb651	-0.3948
48	0xb55b	-0.3347
49	0xb355	-0.2291
50	0xb706	-0.439
51	0xb85e	-0.546
52	0xb742	-0.4536
53	0xb912	-0.634
54	0xb6c2	-0.4224
55	0x3a9c	0.826
56	0xb43d	-0.265
57	0xb8fc	-0.623
58	0xb612	-0.3794
59	0x2d35	0.08136
60	0x319e	0.1755
61	0xb806	-0.503
62	0xad1e	-0.07996
63	0xb019	-0.128
64	0x3987	0.691
65	0x34e0	0.3047
66	0x38cd	0.6
67	0xbf3c	-1.809
68	0xbae3	-0.861
69	0x3998	0.699
70	0x1a5d	0.003107
71	0xb75c	-0.46
72	0xbc85	-1.13
73	0x371a	0.4438
74	0xb754	-0.458
75	0x39a9	0.7075
76	0xbc68	-1.102
77	0xb2ae	-0.2087
78	0x3af0	0.867
79	0x34e9	0.307
80	0xad40	-0.08203
81	0xaf14	-0.1106
82	0xba9a	-0.825
83	0xb8ac	-0.584
84	0x362e	0.3862
85	0x35ea	0.3696
86	0xbaf9	-0.8716
87	0xbaa1	-0.8286
88	0xbd14	-1.27
89	0xba65	-0.7993
90	0xbb4b	-0.9116
91	0xb046	-0.1335
92	0xbdec	-1.48
93	0xb4c0	-0.2969
94	0x3c3e	1.061
95	0xbf05	-1.755
96	0xbbc2	-0.9697
97	0xbf85	-1.88
98	0x388b	0.568
99	0x3681	0.4065
100	0xbc50	-1.078
101	0xac91	-0.07135
102	0x3dab	1.417
103	0x2431	0.01637
104	0x3c4a	1.072
105	0x3138	0.1631
106	0x34fa	0.311
107	0x2865	0.03433
108	0x2b01	0.05472
109	0xb319	-0.2218
110	0x9400	-0.000977
111	0x3c35	1.052
112	0xbb7a	-0.9346
113	0xb638	-0.3887
114	0xb881	-0.563
115	0x3a02	0.751
116	0x3218	0.1904
117	0xbc7a	-1.119
118	0x3046	0.1335
119	0xb86a	-0.552
120	0x300e	0.1267
121	0x3611	0.3792
122	0x3502	0.313
123	0x387c	0.5605
124	0xb87a	-0.5596
125	0xb513	-0.3171
126	0xbbdd	-0.983
127	0x33a4	0.2388

sequential_5/re_lu_35/Relu;sequential_5/batch_normalization_35/FusedBatchNormV3;sequential_5/conv2d_35/BiasAdd/ReadVariableOp;sequential_5/conv2d_35/BiasAdd;sequential_5/conv2d_35/Conv2D f2 [128]
0	0x31f6	0.1863
1	0xacee	-0.077
2	0x3021	0.129
3	0xb46c	-0.2764
4	0xb451	-0.2698
5	0xb27e	-0.2029
6	0x34ec	0.3076
7	0x2efb	0.1091
8	0xa718	-0.02771
9	0xb173	-0.1703
10	0x332f	0.2245
11	0xb906	-0.628
12	0x32f0	0.2168
13	0xb573	-0.3406
14	0xb076	-0.1394
15	0x2bde	0.06146
16	0xb92f	-0.648
17	0xa44d	-0.0168
18	0xa9d9	-0.0457
19	0x238c	0.01474
20	0xa888	-0.0354
21	0x2875	0.03482
22	0xaf77	-0.11664
23	0xb1a4	-0.1763
24	0xb8c1	-0.594
25	0x3153	0.1664
26	0x32d2	0.2131
27	0xafca	-0.1217
28	0xb7f7	-0.4978
29	0x2d41	0.0821
30	0xb58a	-0.3462
31	0x3263	0.1996
32	0xb562	-0.3364
33	0xb8cb	-0.599
34	0xb3f1	-0.2482
35	0xad99	-0.08746
36	0xb585	-0.345
37	0x325d	0.1989
38	0x3409	0.2522
39	0xb56b	-0.3386
40	0xb0be	-0.1482
41	0xb053	-0.1351
42	0xb474	-0.2783
43	0x2259	0.0124
44	0x302e	0.1306
45	0x35cd	0.3625
46	0x3121	0.1603
47	0x181c	0.002007
48	0xb1c2	-0.1799
49	0xade5	-0.0921
50	0x234b	0.014244
51	0xa8fc	-0.03894
52	0xb271	-0.2013
53	0xaa27	-0.04807
54	0x2182	0.01076
55	0x22d4	0.013336
56	0x304c	0.1343
57	0xb6da	-0.4282
58	0xb78b	-0.4714
59	0xb526	-0.3218
60	0x3463	0.2742
61	0xb374	-0.2329
62	0xb540	-0.3281
63	0x286f	0.03464
64	0x2989	0.04324
65	0xa278	-0.012634
66	0x3411	0.2542
67	0xaecd	-0.10626
68	0xb18a	-0.1731
69	0x2f05	0.1097
70	0xb0ca	-0.1497
71	0xb833	-0.525
72	0xb287	-0.204
73	0x2521	0.02003
74	0xb3db	-0.2455
75	0xae8c	-0.1023
76	0xb3f6	-0.2488
77	0xa5fb	-0.02336
78	0x2fbd	0.1209
79	0xb444	-0.2666
80	0xb4c1	-0.297
81	0x3128	0.1611
82	0x94a9	-0.001138
83	0xac0f	-0.0634
84	0xb1ab	-0.1771
85	0xb0ff	-0.1561
86	0xb467	-0.2751
87	0xb09d	-0.1442
88	0xb1ae	-0.1775
89	0xb39a	-0.2375
90	0xb25e	-0.199
91	0xb1ae	-0.1775
92	0xb186	-0.1726
93	0xae08	-0.09424
94	0xae56	-0.099
95	0xb28b	-0.2045
96	0xb52d	-0.3235
97	0xb411	-0.2542
98	0xb685	-0.4075
99	0xae02	-0.0939
100	0xaeb1	-0.10455
101	0xb2db	-0.2142
102	0xb8a4	-0.58
103	0xb614	-0.38
104	0xabbc	-0.06042
105	0xb3d4	-0.2446
106	0xac6f	-0.0693
107	0x3420	0.2578
108	0xb3ca	-0.2434
109	0xb6cc	-0.4248
110	0x2d00	0.0781
111	0xad7d	-0.08575
112	0xb506	-0.314
113	0xb633	-0.3875
114	0xb353	-0.2289
115	0x2832	0.03278
116	0xb693	-0.411
117	0xae05	-0.09406
118	0xb814	-0.51
119	0xb240	-0.1953
120	0x3276	0.2019
121	0xb0fb	-0.1556
122	0xb8e0	-0.6094
123	0xaf3b	-0.113
124	0x0e97	0.0004022
125	0xa21a	-0.01192
126	0xb582	-0.3442
127	0x312c	0.1616

sequential_5/conv2d_30/Conv2D f2 [32, 3, 3, 3]
0	0xb7fd	-0.4993
1	0xb97e	-0.6865
2	0xb87f	-0.562
3	0x3191	0.174
4	0xbac6	-0.8467
5	0xb817	-0.511
6	0x38c7	0.597
7	0x340f	0.2537
8	0x39e1	0.735
9	0x349c	0.288
10	0xa846	-0.0334
11	0xb90c	-0.631
12	0xb793	-0.4734
13	0x34e8	0.3066
14	0xbb40	-0.9062
15	0x35d3	0.364
16	0x3834	0.5254
17	0x3573	0.3406
18	0x3151	0.1661
19	0x3800	0.5
20	0x378c	0.4717
21	0xaf53	-0.11444
22	0x3992	0.6963
23	0x3877	0.558
24	0x35c6	0.3608
25	0x399c	0.701
26	0xae73	-0.10077
27	0x3959	0.6685
28	0x2ca2	0.0724
29	0x2452	0.01688
30	0xae04	-0.094
31	0xb96c	-0.6777
32	0xb97c	-0.6855
33	0xa8af	-0.0366
34	0x38ee	0.616
35	0xb927	-0.644
36	0x3c4b	1.073
37	0x3d55	1.333
38	0x3d2f	1.296
39	0xbcf8	-1.242
40	0xbc69	-1.103
41	0x303a	0.1321
42	0xb4ba	-0.2954
43	0x3776	0.4663
44	0xbce1	-1.22
45	0x3837	0.527
46	0x3aac	0.834
47	0x3e3f	1.562
48	0x341a	0.2563
49	0xb4c8	-0.2988
50	0xb07a	-0.1399
51	0xbb4c	-0.912
52	0xb99f	-0.7026
53	0xbb80	-0.9375
54	0x416c	2.71
55	0xbacf	-0.851
56	0x414c	2.648
57	0xb3d3	-0.2445
58	0xc48c	-4.547
59	0x3938	0.6523
60	0x427e	3.246
61	0x3999	0.6997
62	0x3c84	1.129
63	0xbd7f	-1.374
64	0x406f	2.217
65	0x3808	0.504
66	0xc81f	-8.24
67	0xc826	-8.3
68	0xc4d7	-4.84
69	0x44e9	4.91
70	0x3e2b	1.542
71	0x3fc8	1.945
72	0xb8f7	-0.6206
73	0x4586	5.523
74	0x4208	3.016
75	0x401e	2.059
76	0x410e	2.527
77	0xc349	-3.643
78	0xc014	-2.04
79	0x3a27	0.769
80	0xbace	-0.8506
81	0xa96e	-0.04242
82	0xbc1b	-1.026
83	0x3aeb	0.8647
84	0x3956	0.667
85	0xb704	-0.4385
86	0x3ee1	1.72
87	0xb653	-0.3953
88	0xbc14	-1.02
89	0xb826	-0.5186
90	0x3b05	0.8774
91	0xbe62	-1.596
92	0x3d12	1.268
93	0xb83d	-0.53
94	0x2f82	0.1173
95	0x3f21	1.782
96	0x39d0	0.7266
97	0xbeec	-1.73
98	0x3e37	1.554
99	0xb867	-0.5503
100	0xb187	-0.1727
101	0x29e5	0.04605
102	0x3949	0.6606
103	0xbd76	-1.365
104	0xbd0d	-1.263
105	0x3d13	1.269
106	0xb39a	-0.2375
107	0xb991	-0.696
108	0xb9ca	-0.7236
109	0x3598	0.3496
110	0x2d51	0.08307
111	0xad1e	-0.07996
112	0xb8ba	-0.591
113	0x367c	0.4053
114	0x3097	0.1434
115	0xb89c	-0.576
116	0xae6e	-0.10046
117	0xba8f	-0.82
118	0x3552	0.3325
119	0x37ef	0.4958
120	0xa1f6	-0.01164
121	0x334c	0.228
122	0x3ce4	1.223
123	0x3544	0.329
124	0x352a	0.3228
125	0x346a	0.276
126	0xb3d7	-0.245
127	0xbc07	-1.007
128	0xb16e	-0.1697
129	0xb7be	-0.484
130	0x3663	0.3992
131	0x3ade	0.8584
132	0x3830	0.5234
133	0x34ae	0.2925
134	0x373a	0.4517
135	0xbc16	-1.021
136	0xba76	-0.8076
137	0xb7c2	-0.4849
138	0xbc8d	-1.138
139	0xb9ca	-0.7236
140	0xb8ff	-0.6245
141	0x341b	0.2566
142	0xaee2	-0.10754
143	0x3aed	0.8657
144	0xbc7a	-1.119
145	0xb592	-0.3481
146	0xacf1	-0.0772
147	0x37ae	0.48
148	0xb599	-0.3499
149	0xb90d	-0.6313
150	0x3981	0.688
151	0x3760	0.461
152	0xb8d3	-0.603
153	0x3b69	0.9263
154	0x3470	0.2773
155	0x344d	0.2688
156	0x3a05	0.7524
157	0x3d02	1.252
158	0x3085	0.1412
159	0xae7f	-0.1015
160	0x3c80	1.125
161	0x3117	0.159
162	0x3203	0.1879
163	0x3840	0.5312
164	0x35d2	0.3638
165	0xac19	-0.064
166	0x354e	0.3315
167	0xb002	-0.1252
168	0xa962	-0.04205
169	0x2ea5	0.1038
170	0xb0a7	-0.1454
171	0x3530	0.3242
172	0x3c27	1.038
173	0x3057	0.1356
174	0xb4f4	-0.3096
175	0x389c	0.576
176	0x3092	0.1428
177	0xb5ca	-0.3618
178	0x3098	0.1436
179	0xa442	-0.01663
180	0x32d3	0.2133
181	0x3335	0.2252
182	0xb3d1	-0.2443
183	0xaf15	-0.11066
184	0xb10b	-0.1576
185	0x23bf	0.01513
186	0x2dbc	0.0896
187	0xb0d4	-0.1509
188	0x2919	0.03983
189	0xba68	-0.801
190	0xbc03	-1.003
191	0x30bd	0.1481
192	0x3d05	1.255
193	0x3847	0.5347
194	0x390f	0.6323
195	0x30ec	0.1538
196	0x320a	0.1887
197	0xb7a0	-0.4766
198	0xbdbc	-1.434
199	0xba03	-0.7515
200	0xb595	-0.3489
201	0x331c	0.2222
202	0xb668	-0.4004
203	0x3a2f	0.773
204	0x3281	0.2032
205	0xac96	-0.07166
206	0xb804	-0.502
207	0xba69	-0.8013
208	0xb39d	-0.2379
209	0x362b	0.3855
210	0xb614	-0.38
211	0xb65b	-0.3972
212	0x3647	0.3923
213	0xb9a3	-0.7046
214	0x3813	0.5093
215	0x3386	0.2351
216	0x38b9	0.5903
217	0xb9b5	-0.7134
218	0x37ac	0.4795
219	0x3a72	0.8057
220	0xb926	-0.6436
221	0x3904	0.627
222	0xbc21	-1.032
223	0x21aa	0.01106
224	0x33fd	0.2496
225	0x3e94	1.645
226	0x3958	0.668
227	0x2242	0.01222
228	0x3e8a	1.635
229	0x379f	0.4763
230	0xb8ce	-0.6006
231	0x3648	0.3926
232	0xa525	-0.0201
233	0xb8e6	-0.6123
234	0x2831	0.03275
235	0xb9f3	-0.7437
236	0xb98b	-0.693
237	0x391d	0.639
238	0x33bf	0.2421
239	0xbb29	-0.895
240	0xb99a	-0.7
241	0xb816	-0.5107
242	0x31d3	0.182
243	0xb876	-0.5576
244	0x357d	0.343
245	0xbbff	-0.9995
246	0x38ad	0.5845
247	0x3de3	1.472
248	0x2e59	0.0992
249	0x9f35	-0.00704
250	0x3824	0.5176
251	0x3c07	1.007
252	0x3516	0.3179
253	0x3dba	1.432
254	0xa929	-0.0403
255	0x31b8	0.1787

sequential_5/conv2d_31/Conv2D f2 [32, 3, 3, 32]
0	0xa3d1	-0.01527
1	0x2b01	0.05472
2	0x15f0	0.00145
3	0x2d48	0.0825
4	0x25db	0.02287
5	0xa72b	-0.028
6	0x25fd	0.02339
7	0x14cb	0.00117
8	0x223e	0.01219
9	0x27a2	0.02982
10	0x9a67	-0.003126
11	0xb020	-0.1289
12	0x1dad	0.005543
13	0x27df	0.03075
14	0xac88	-0.0708
15	0xa4cb	-0.01872
16	0xa9e6	-0.04608
17	0x2c36	0.0658
18	0xac65	-0.06866
19	0xade5	-0.0921
20	0xb02e	-0.1306
21	0xa6b9	-0.02626
22	0xa319	-0.01386
23	0x2fec	0.1238
24	0xa8cc	-0.03748
25	0xa8cb	-0.03745
26	0xaf14	-0.1106
27	0xa8de	-0.03802
28	0xac0e	-0.06335
29	0xa733	-0.02812
30	0x2b47	0.05685
31	0x2d9e	0.08777
32	0xacab	-0.07294
33	0x9d47	-0.005154
34	0xb2e0	-0.2148
35	0x2c69	0.0689
36	0xa653	-0.0247
37	0xafc8	-0.1216
38	0x2a12	0.04742
39	0x1d9c	0.005478
40	0x2945	0.04117
41	0x284a	0.0335
42	0x29c6	0.0451
43	0xafa9	-0.1197
44	0x2ae0	0.0537
45	0x2f6d	0.116
46	0x284a	0.0335
47	0x2f61	0.1153
48	0xb060	-0.1367
49	0x2905	0.0392
50	0x2621	0.02394
51	0xa6c7	-0.02647
52	0xa684	-0.02545
53	0x2e79	0.10114
54	0xad69	-0.08453
55	0x27c6	0.03036
56	0xabfd	-0.0624
57	0xa086	-0.008835
58	0xaf4b	-0.11395
59	0x2287	0.01275
60	0xafb6	-0.1205
61	0x2c3f	0.06635
62	0x2861	0.0342
63	0x2258	0.01239
64	0xaca0	-0.07227
65	0x942b	-0.001018
66	0xb13f	-0.164
67	0x2a27	0.04807
68	0x116f	0.0006633
69	0xac45	-0.0667
70	0x2bf7	0.06223
71	0xa87a	-0.03497
72	0x2b18	0.05542
73	0xace7	-0.0766
74	0x25e3	0.023
75	0x9b93	-0.003698
76	0x9815	-0.001993
77	0x29c9	0.0452
78	0x309e	0.1443
79	0x320a	0.1887
80	0x26a4	0.02594
81	0xadeb	-0.09247
82	0xa195	-0.0109
83	0x2dc1	0.0899
84	0x1c9e	0.00451
85	0x3018	0.1279
86	0xa073	-0.00869
87	0xaa1c	-0.04773
88	0xac46	-0.0668
89	0xa9b4	-0.04456
90	0xac33	-0.0656
91	0xad13	-0.0793
92	0xb0e4	-0.1528
93	0x2849	0.03348
94	0x262f	0.02415
95	0x2a8c	0.05115
96	0x9d94	-0.005447
97	0xa87a	-0.03497
98	0x30e3	0.1527
99	0xa4c5	-0.01863
100	0xab5c	-0.0575
101	0x2441	0.01662
102	0x9d4d	-0.005177
103	0x2590	0.02173
104	0xabec	-0.0619
105	0x2c5d	0.0682
106	0xa5c9	-0.0226
107	0x2c6e	0.0692
108	0xa5e5	-0.02303
109	0xac2c	-0.0652
110	0xac8a	-0.0709
111	0xaae8	-0.05396
112	0x2ebf	0.1054
113	0x27a4	0.02985
114	0x2c7f	0.07025
115	0x2957	0.04172
116	0x25e3	0.023
117	0x2502	0.01956
118	0x201b	0.00802
119	0xaae4	-0.05383
120	0x2960	0.042
121	0xa64e	-0.02463
122	0x230b	0.013756
123	0x291f	0.04
124	0x2bc7	0.06076
125	0x1e60	0.006226
126	0xa9b5	-0.0446
127	0x2e71	0.10065
128	0x2c6c	0.0691
129	0xa20d	-0.01182
130	0x301b	0.1283
131	0xab61	-0.05765
132	0xa698	-0.02576
133	0xa775	-0.02913
134	0xa316	-0.01384
135	0x24a2	0.0181
136	0x2816	0.03192
137	0x2b88	0.05884
138	0x2575	0.02132
139	0x2472	0.01736
140	0xaabc	-0.0526
141	0xa9b6	-0.04462
142	0xa9f4	-0.0465
143	0xae6b	-0.1003
144	0x28d5	0.03775
145	0x23e8	0.01544
146	0x2534	0.02032
147	0xa624	-0.02399
148	0xab3e	-0.05658
149	0xb00b	-0.1263
150	0x2743	0.02837
151	0xa5be	-0.02243
152	0x1a69	0.00313
153	0x838f	-5.43e-05
154	0x2a03	0.04697
155	0x0954	0.0001626
156	0x2d21	0.08014
157	0x24e5	0.01912
158	0x2434	0.01642
159	0x2ea4	0.10376
160	0xab75	-0.05826
161	0xac43	-0.0666
162	0x2fdf	0.123
163	0x2d88	0.0864
164	0x20a8	0.009094
165	0xac17	-0.0639
166	0x28f9	0.03885
167	0x2a3a	0.04865
168	0xa8a7	-0.03635
169	0xa6d2	-0.02664
170	0xa97d	-0.04288
171	0xa002	-0.00783
172	0x2cba	0.07385
173	0x25d7	0.02281
174	0xadd1	-0.0909
175	0xae3f	-0.0976
176	0xa86b	-0.03452
177	0x2ecd	0.10626
178	0x2c96	0.07166
179	0xaf00	-0.1094
180	0x9adf	-0.003355
181	0xacc0	-0.0742
182	0x2af7	0.0544
183	0x2c0c	0.06323
184	0x2a76	0.05048
185	0x2a98	0.0515
186	0x24be	0.01852
187	0xa4e2	-0.01907
188	0x2a81	0.0508
189	0xafc6	-0.12146
190	0x20aa	0.00911
191	0x2960	0.042
192	0xaad8	-0.05347
193	0xaaf8	-0.05444
194	0xa9a3	-0.04404
195	0xaa35	-0.0485
196	0x2411	0.01588
197	0xacca	-0.0748
198	0xa53b	-0.02043
199	0x9922	-0.002506
200	0xa7a3	-0.02983
201	0x299c	0.04382
202	0xa4d8	-0.01892
203	0xa787	-0.0294
204	0x2301	0.01368
205	0x1bb5	0.003763
206	0x29c1	0.04495
207	0x1c10	0.003967
208	0xaeb8	-0.105
209	0xa72e	-0.02805
210	0x2988	0.0432
211	0xa24b	-0.01229
212	0x2a1f	0.04782
213	0x9ebe	-0.006584
214	0x28ba	0.03693
215	0x24cd	0.01875
216	0x244e	0.01682
217	0x2ab1	0.05228
218	0x2cc1	0.0743
219	0xac01	-0.06256
220	0x26ee	0.02707
221	0x9e75	-0.006306
222	0x9a6d	-0.003138
223	0xac21	-0.0645
224	0x243b	0.01653
225	0xa672	-0.02518
226	0xaa91	-0.0513
227	0xab59	-0.0574
228	0xa8b1	-0.03665
229	0x2c5c	0.0681
230	0x272e	0.02805
231	0xa82d	-0.03262
232	0x1f58	0.00717
233	0x28a7	0.03635
234	0xabc1	-0.06058
235	0xa4f1	-0.0193
236	0xa688	-0.02551
237	0xa385	-0.01469
238	0x9fa6	-0.00747
239	0x99b9	-0.002794
240	0x2960	0.042
241	0xaca3	-0.07245
242	0x2925	0.0402
243	0x2793	0.02959
244	0xa871	-0.0347
245	0x2ab8	0.0525
246	0x29d5	0.04556
247	0x9ae8	-0.003372
248	0xad0a	-0.07874
249	0xa793	-0.02959
250	0xa02a	-0.00813
251	0x262a	0.02408
252	0xa8c6	-0.0373
253	0xa38e	-0.014755
254	0xa803	-0.03134
255	0xa821	-0.03226

sequential_5/conv2d_32/Conv2D f2 [64, 3, 3, 32]
0	0xa30f	-0.01379
1	0x219e	0.01097
2	0xae2e	-0.09656
3	0x21d0	0.01135
4	0xac97	-0.0717
5	0x251d	0.01997
6	0x240d	0.01582
7	0xaa7e	-0.05072
8	0x2881	0.0352
9	0x287f	0.03513
10	0x2757	0.02867
11	0x2c40	0.0664
12	0x27b5	0.0301
13	0x9c2e	-0.00408
14	0x2de6	0.09216
15	0x29df	0.04587
16	0xa9e0	-0.0459
17	0xb048	-0.1338
18	0x96ce	-0.001661
19	0xa8d5	-0.03775
20	0xa593	-0.02177
21	0xabf3	-0.0621
22	0x1dd1	0.00568
23	0x2d95	0.0872
24	0x21c5	0.01127
25	0x94a5	-0.001134
26	0x27b6	0.03012
27	0x1c22	0.004036
28	0x2ccd	0.075
29	0x1028	0.0005074
30	0x2d3f	0.082
31	0x2723	0.02788
32	0x1378	0.0009117
33	0x211e	0.009995
34	0xab13	-0.05527
35	0x2420	0.01611
36	0x0d9e	0.0003428
37	0x2940	0.04102
38	0xa98f	-0.04343
39	0xacab	-0.07294
40	0x2993	0.04355
41	0x2459	0.01698
42	0xa396	-0.01482
43	0x1bd8	0.00383
44	0xacc7	-0.07465
45	0x1ca8	0.004547
46	0x24c8	0.01868
47	0x9d38	-0.005096
48	0xae77	-0.101
49	0xae53	-0.0988
50	0x1828	0.00203
51	0xad5f	-0.0839
52	0xa68a	-0.02554
53	0xa435	-0.01643
54	0x2db9	0.0894
55	0x2817	0.03195
56	0xa9cb	-0.04526
57	0xae4d	-0.09845
58	0x2cdf	0.0761
59	0x2a6e	0.05023
60	0xabe1	-0.06155
61	0xad4b	-0.0827
62	0x2d50	0.083
63	0xa927	-0.04025
64	0x2204	0.01175
65	0xa9a7	-0.04416
66	0xad0a	-0.07874
67	0x2506	0.01962
68	0xac70	-0.06934
69	0x2ac9	0.053
70	0x973c	-0.001766
71	0xac36	-0.0658
72	0xa526	-0.02011
73	0x27d4	0.03058
74	0xadbf	-0.0898
75	0x1924	0.00251
76	0xaf1d	-0.11115
77	0xada0	-0.0879
78	0x24cc	0.01874
79	0xa5d0	-0.0227
80	0xaf94	-0.1184
81	0xab6a	-0.05792
82	0x2410	0.01587
83	0xa576	-0.02133
84	0xae18	-0.0952
85	0x20fa	0.00972
86	0x3008	0.126
87	0x2ed5	0.10675
88	0xa817	-0.03195
89	0xb0d0	-0.1504
90	0x2c22	0.0646
91	0xa7a2	-0.02982
92	0xb010	-0.127
93	0xb0a4	-0.145
94	0x2da4	0.08813
95	0xa405	-0.0157
96	0x2aa0	0.05176
97	0x2524	0.02008
98	0xb039	-0.132
99	0x2c10	0.0635
100	0xad17	-0.0795
101	0xa72d	-0.02803
102	0x2b93	0.05917
103	0xaf0f	-0.1103
104	0x2aa2	0.05182
105	0xa4d1	-0.01881
106	0x9288	-0.0007973
107	0x2ac2	0.0528
108	0xaacb	-0.05307
109	0x8d24	-0.0003138
110	0x2cff	0.07806
111	0x0f4f	0.000446
112	0xa9a1	-0.04398
113	0xaf60	-0.11523
114	0x28f5	0.03873
115	0x24c0	0.01855
116	0xadc3	-0.09
117	0x2b5a	0.05743
118	0x2bd4	0.06116
119	0x9c02	-0.003914
120	0x1a63	0.003119
121	0xa766	-0.0289
122	0x2803	0.03134
123	0x2138	0.01019
124	0x9002	-0.000489
125	0xa737	-0.02818
126	0x1271	0.0007863
127	0x2a26	0.04803
128	0x2a85	0.05093
129	0xa851	-0.03372
130	0x2b5f	0.0576
131	0x244c	0.01678
132	0xab4c	-0.057
133	0x27d6	0.03061
134	0x253a	0.02042
135	0xa8ea	-0.0384
136	0x27de	0.03073
137	0xa3af	-0.01501
138	0xa610	-0.02368
139	0xa7c5	-0.03035
140	0xa853	-0.03378
141	0x28be	0.03705
142	0x2087	0.00884
143	0x96a8	-0.001625
144	0xa439	-0.0165
145	0xad40	-0.08203
146	0x1ecd	0.00664
147	0x1be6	0.003857
148	0xa550	-0.02075
149	0x2ccc	0.07495
150	0x11ce	0.0007086
151	0x2cc4	0.07446
152	0xa81b	-0.03207
153	0xa8bb	-0.03696
154	0xa75d	-0.02876
155	0x2790	0.02954
156	0xaacf	-0.0532
157	0xa56d	-0.0212
158	0x28f3	0.03867
159	0x27d5	0.0306
160	0x3029	0.13
161	0xa48d	-0.01778
162	0x2514	0.01984
163	0x2cff	0.07806
164	0xa850	-0.0337
165	0x2a99	0.05154
166	0x2df7	0.0932
167	0xacce	-0.0751
168	0x249e	0.01804
169	0x2592	0.02176
170	0x2519	0.01991
171	0x157d	0.00134
172	0xad6e	-0.08484
173	0xa993	-0.04355
174	0xa0ba	-0.00923
175	0xa75a	-0.02872
176	0xa812	-0.0318
177	0xa330	-0.01404
178	0xa71b	-0.02776
179	0xa816	-0.03192
180	0xa5af	-0.0222
181	0x1a9a	0.003223
182	0x1e72	0.006294
183	0x2c53	0.06757
184	0x2820	0.03223
185	0x9925	-0.002512
186	0x9cb4	-0.004593
187	0x2563	0.02104
188	0xa3ae	-0.015
189	0xaaf3	-0.0543
190	0x2a36	0.04852
191	0x2d9e	0.08777
192	0x9fc7	-0.007595
193	0xa39e	-0.01488
194	0x2a3b	0.04868
195	0x20c7	0.00933
196	0x231d	0.01389
197	0xab5f	-0.0576
198	0x2d72	0.0851
199	0xa084	-0.00882
200	0xa518	-0.0199
201	0xa72d	-0.02803
202	0x2e75	0.1009
203	0xad54	-0.08325
204	0xac93	-0.0715
205	0x2ca0	0.07227
206	0xac3a	-0.06604
207	0x2c30	0.0654
208	0xa8bf	-0.03708
209	0xa88a	-0.03546
210	0xad70	-0.08496
211	0x2b52	0.0572
212	0x283c	0.03308
213	0x25e8	0.02307
214	0xa884	-0.03528
215	0xaaea	-0.05402
216	0xaa46	-0.049
217	0x1b97	0.003706
218	0xa088	-0.00885
219	0xa174	-0.01065
220	0xaa95	-0.05142
221	0x28c3	0.0372
222	0xaa34	-0.04846
223	0x9828	-0.00203
224	0xaed9	-0.107
225	0xad0d	-0.0789
226	0x2cb8	0.0737
227	0x2da6	0.08826
228	0x2e39	0.0972
229	0xa9df	-0.04587
230	0x3002	0.1252
231	0xab95	-0.05923
232	0xa45a	-0.017
233	0xaeb3	-0.1047
234	0x2cd9	0.07574
235	0x94be	-0.001158
236	0xa8a8	-0.03638
237	0x2dc6	0.0902
238	0xaa79	-0.05057
239	0x2c14	0.0637
240	0xa1a2	-0.011
241	0x28bc	0.037
242	0xae72	-0.1007
243	0x292f	0.0405
244	0xa979	-0.04276
245	0x2f7a	0.1168
246	0xab83	-0.0587
247	0xac8c	-0.07104
248	0xa3f1	-0.01551
249	0x2a10	0.04736
250	0x1a00	0.00293
251	0xa882	-0.03522
252	0x2131	0.01014
253	0xa73f	-0.0283
254	0x24cb	0.01872
255	0xa6e5	-0.02693

sequential_5/conv2d_33/Conv2D f2 [64, 3, 3, 64]
0	0xacd0	-0.0752
1	0xa5e2	-0.02298
2	0xaa78	-0.05054
3	0x2515	0.01985
4	0x9dad	-0.005543
5	0x2ffd	0.1248
6	0xad08	-0.0786
7	0xa6ae	-0.0261
8	0x265b	0.02483
9	0x9c53	-0.004223
10	0xad39	-0.0816
11	0x29ce	0.04535
12	0xa77b	-0.02922
13	0xa53f	-0.0205
14	0xaa92	-0.05133
15	0xa79b	-0.02971
16	0xa10c	-0.00986
17	0xaa34	-0.04846
18	0x2e59	0.0992
19	0xaaf8	-0.05444
20	0x1f5b	0.007183
21	0xad6d	-0.0848
22	0x2bf3	0.0621
23	0xac4c	-0.06714
24	0xa1b4	-0.01114
25	0xa869	-0.03445
26	0xae2b	-0.0964
27	0x203c	0.00827
28	0x2602	0.02347
29	0xa42d	-0.01631
30	0x9833	-0.00205
31	0x2c08	0.063
32	0x28e0	0.0381
33	0x1a9e	0.003231
34	0xa5f3	-0.02324
35	0x22b8	0.01312
36	0xae26	-0.09607
37	0x25f9	0.02333
38	0x2d48	0.0825
39	0x9e23	-0.005993
40	0x1858	0.002121
41	0xa933	-0.04062
42	0xa8da	-0.0379
43	0xac80	-0.0703
44	0xaa9f	-0.05173
45	0xacb1	-0.0733
46	0x2c90	0.0713
47	0xae3f	-0.0976
48	0x2447	0.01671
49	0x2eb3	0.1047
50	0xa1c9	-0.0113
51	0xa6ef	-0.02708
52	0x2d30	0.08105
53	0x2d51	0.08307
54	0x2aee	0.05414
55	0xa8df	-0.03806
56	0x0c86	0.000276
57	0x28e7	0.0383
58	0x24df	0.01903
59	0xac72	-0.06946
60	0x26a5	0.02596
61	0x28ff	0.03903
62	0xb064	-0.1372
63	0x1f70	0.007263
64	0xae8e	-0.1024
65	0x2109	0.009834
66	0xa916	-0.03973
67	0x2666	0.025
68	0x26eb	0.02702
69	0x28aa	0.03644
70	0xb10d	-0.1578
71	0x952a	-0.001261
72	0x14cb	0.00117
73	0x230e	0.01378
74	0x9ee0	-0.006714
75	0x2464	0.01715
76	0xa6d3	-0.02666
77	0x26be	0.02634
78	0xa955	-0.04166
79	0xa2a6	-0.012985
80	0x2590	0.02173
81	0xa960	-0.042
82	0x9e86	-0.00637
83	0x2763	0.02885
84	0x2831	0.03275
85	0x1d69	0.005283
86	0x2655	0.02473
87	0xaeb4	-0.10474
88	0xa787	-0.0294
89	0x2597	0.02184
90	0xa9d3	-0.0455
91	0xacd3	-0.0754
92	0x2cb5	0.07355
93	0xa827	-0.03244
94	0xa37c	-0.01462
95	0xa77c	-0.02924
96	0x27b4	0.03009
97	0xa87d	-0.03506
98	0x246b	0.01726
99	0x2a0d	0.04727
100	0xacdc	-0.0759
101	0x9fbe	-0.00756
102	0x2dc6	0.0902
103	0xa2dd	-0.013405
104	0x2c0d	0.0633
105	0x1bf2	0.00388
106	0x1db5	0.005573
107	0xa953	-0.0416
108	0xa5ee	-0.02316
109	0xacca	-0.0748
110	0x2b4e	0.05707
111	0xa8ca	-0.0374
112	0x282a	0.03253
113	0x2c65	0.06866
114	0x19de	0.002865
115	0xa960	-0.042
116	0x2c07	0.0629
117	0xab4e	-0.05707
118	0x269f	0.02586
119	0xad5b	-0.0837
120	0x1f45	0.0071
121	0xa1b0	-0.01111
122	0x2661	0.02492
123	0x9f12	-0.006905
124	0x2e6b	0.1003
125	0x20f2	0.00966
126	0xac05	-0.0628
127	0x29cc	0.0453
128	0xa60b	-0.0236
129	0xa979	-0.04276
130	0x299d	0.04385
131	0xa45c	-0.01703
132	0x9dee	-0.00579
133	0x2c8d	0.0711
134	0xa725	-0.02791
135	0x1e5c	0.00621
136	0xab35	-0.0563
137	0xa8ec	-0.03845
138	0x2d05	0.0784
139	0xa29c	-0.01291
140	0xa02c	-0.00815
141	0x2ed4	0.1067
142	0xa688	-0.02551
143	0x244f	0.01683
144	0x2012	0.00795
145	0x2532	0.0203
146	0xa8b1	-0.03665
147	0x2fbb	0.1208
148	0x9c31	-0.004093
149	0x2084	0.00882
150	0x1c31	0.004093
151	0xa863	-0.03427
152	0x2c27	0.0649
153	0xa542	-0.02054
154	0xa9c4	-0.04504
155	0x1ca6	0.00454
156	0x2398	0.01483
157	0x2846	0.0334
158	0x1f3e	0.007072
159	0xa985	-0.04312
160	0x21ef	0.01159
161	0x26b7	0.02623
162	0xa7f1	-0.03102
163	0x296c	0.04236
164	0x299b	0.0438
165	0xae48	-0.09814
166	0x2890	0.03564
167	0x3154	0.1665
168	0x3013	0.1273
169	0x298d	0.04337
170	0x23f5	0.01554
171	0x2a1e	0.0478
172	0x2427	0.01622
173	0x2d50	0.083
174	0x2c8e	0.07117
175	0x9df4	-0.005814
176	0xa3e8	-0.01544
177	0x2821	0.03226
178	0xa8ec	-0.03845
179	0xacea	-0.0768
180	0xa79a	-0.0297
181	0x9e53	-0.006176
182	0x2626	0.02402
183	0x2889	0.03543
184	0x2d2e	0.08093
185	0x15a8	0.001381
186	0x23dc	0.01535
187	0xa789	-0.02943
188	0x277f	0.02928
189	0x9e71	-0.00629
190	0xa066	-0.00859
191	0xaac5	-0.0529
192	0xa190	-0.010864
193	0x2c3a	0.06604
194	0xa581	-0.0215
195	0xa9d5	-0.04556
196	0xab2a	-0.05597
197	0x296b	0.04233
198	0xa48a	-0.01773
199	0x9638	-0.001518
200	0x2a8f	0.05124
201	0x2d60	0.084
202	0x207f	0.00878
203	0x29e5	0.04605
204	0x2802	0.0313
205	0x2897	0.03586
206	0xa522	-0.02005
207	0xace4	-0.0764
208	0x2981	0.043
209	0x2f66	0.1156
210	0x2abb	0.05258
211	0x243d	0.01656
212	0xa8c3	-0.0372
213	0xad66	-0.08435
214	0x996b	-0.002645
215	0xac8f	-0.0712
216	0x9e82	-0.006355
217	0xa9af	-0.0444
218	0xa4a5	-0.01814
219	0x2463	0.01714
220	0xa103	-0.00979
221	0xaa92	-0.05133
222	0x2e63	0.0998
223	0x2390	0.01477
224	0x191a	0.002491
225	0x26d4	0.02667
226	0x22df	0.01342
227	0xa9dd	-0.0458
228	0xb14b	-0.1654
229	0x2c80	0.0703
230	0xa3b8	-0.015076
231	0xa1dc	-0.011444
232	0x1906	0.002453
233	0xa951	-0.04153
234	0x2c4f	0.0673
235	0x2a54	0.04944
236	0x95a1	-0.001374
237	0xa6b9	-0.02626
238	0x2b1f	0.05563
239	0xac88	-0.0708
240	0xa78a	-0.02945
241	0x2635	0.02425
242	0x2811	0.03177
243	0x999f	-0.002745
244	0x2477	0.01744
245	0x2dc7	0.0903
246	0xa648	-0.02454
247	0x8dba	-0.0003495
248	0x210b	0.00985
249	0x9e5f	-0.00622
250	0x145b	0.001063
251	0xa33d	-0.01414
252	0x2818	0.03198
253	0xa5ef	-0.02318
254	0xacdc	-0.0759
255	0xa9ad	-0.04434

sequential_5/conv2d_34/Conv2D f2 [128, 3, 3, 64]
0	0x29f5	0.04654
1	0xac16	-0.06384
2	0xb0c4	-0.1489
3	0x2471	0.01735
4	0x1170	0.0006638
5	0x1cc6	0.00466
6	0x24cf	0.01878
7	0xa5bd	-0.02242
8	0x1c42	0.004158
9	0x2728	0.02795
10	0x2884	0.03528
11	0x9405	-0.000981
12	0x273d	0.02827
13	0x2d4e	0.0829
14	0x25fa	0.02335
15	0x2c50	0.0674
16	0x9f8c	-0.00737
17	0x2791	0.02956
18	0x2782	0.02933
19	0xa2fe	-0.01366
20	0xa9eb	-0.04623
21	0x2559	0.02089
22	0x9d47	-0.005154
23	0xb178	-0.1709
24	0x27ea	0.03091
25	0xaf4f	-0.1142
26	0x1d50	0.005188
27	0xa5b8	-0.02234
28	0xa8e6	-0.03827
29	0x9eb4	-0.006546
30	0x2b54	0.05725
31	0x2ba0	0.05957
32	0xabd3	-0.06113
33	0xa3f7	-0.01556
34	0x21ee	0.01158
35	0x2d11	0.07916
36	0xaad8	-0.05347
37	0x285c	0.03406
38	0xa11c	-0.00998
39	0x2aec	0.05408
40	0xa9b7	-0.04465
41	0x1cf9	0.004856
42	0x2bcb	0.06088
43	0x29f2	0.04645
44	0xab36	-0.05634
45	0xa990	-0.04346
46	0xad1b	-0.0798
47	0xaba5	-0.05972
48	0x25b3	0.02226
49	0x28ca	0.0374
50	0xa2c7	-0.01324
51	0x2ca8	0.07275
52	0xa215	-0.01188
53	0x271b	0.02776
54	0x25dc	0.02289
55	0x18ee	0.002407
56	0x2a5d	0.0497
57	0xa931	-0.04056
58	0x24af	0.0183
59	0x9dca	-0.005653
60	0xaa55	-0.04947
61	0xa0d9	-0.00947
62	0x2af8	0.05444
63	0x985e	-0.002132
64	0x2468	0.01721
65	0x233e	0.014145
66	0xa392	-0.014786
67	0xa693	-0.02568
68	0x2264	0.01248
69	0x20a8	0.009094
70	0x9f04	-0.00685
71	0xa945	-0.04117
72	0xa16b	-0.01058
73	0x259e	0.02194
74	0x2110	0.00989
75	0x99b0	-0.002777
76	0x9885	-0.002207
77	0x98f7	-0.002424
78	0x2c07	0.0629
79	0x2988	0.0432
80	0xa46a	-0.01724
81	0xaacb	-0.05307
82	0xa814	-0.03186
83	0x2413	0.01591
84	0x1a55	0.003092
85	0x9c24	-0.004044
86	0xa32a	-0.01399
87	0xaea0	-0.1035
88	0x2556	0.02084
89	0xa1a9	-0.011055
90	0x278f	0.02953
91	0x2b4f	0.0571
92	0xa452	-0.01688
93	0xa75c	-0.02875
94	0x9e92	-0.006416
95	0x2807	0.03146
96	0x217f	0.010735
97	0x9f13	-0.00691
98	0x2a26	0.04803
99	0x276b	0.02898
100	0x2862	0.03424
101	0xac7e	-0.0702
102	0xa206	-0.011765
103	0x2843	0.0333
104	0x9cb2	-0.004585
105	0x252a	0.02017
106	0x2b5f	0.0576
107	0x1bc1	0.003786
108	0xabf6	-0.0622
109	0xa783	-0.02934
110	0xac1c	-0.0642
111	0xa53b	-0.02043
112	0xa505	-0.0196
113	0x215f	0.01049
114	0x1aff	0.003416
115	0x2c53	0.06757
116	0x1195	0.0006814
117	0x2c2c	0.0652
118	0x200b	0.0079
119	0xac58	-0.0679
120	0xa263	-0.012474
121	0xa38b	-0.01473
122	0xa974	-0.0426
123	0x9cd7	-0.004726
124	0x2b81	0.05862
125	0xa4ed	-0.01924
126	0x2a3e	0.04877
127	0xa5e9	-0.02309
128	0x2926	0.04022
129	0x9e05	-0.00588
130	0xa4ce	-0.01877
131	0x2920	0.04004
132	0xa867	-0.0344
133	0xa430	-0.01636
134	0xb09f	-0.1444
135	0x1993	0.002722
136	0xa6a7	-0.02599
137	0xa311	-0.0138
138	0xa5d5	-0.02278
139	0x28ca	0.0374
140	0xa2c0	-0.01318
141	0x2bcc	0.0609
142	0x2f27	0.11176
143	0x1e21	0.005985
144	0xa85d	-0.0341
145	0xaec3	-0.10565
146	0xb0b1	-0.1466
147	0xa241	-0.012215
148	0x263e	0.02438
149	0x22e8	0.01349
150	0xa5c3	-0.0225
151	0xadf8	-0.09326
152	0xa0ca	-0.00935
153	0x9590	-0.001358
154	0x27b1	0.03004
155	0x23ae	0.015
156	0x1b2e	0.003506
157	0x21ad	0.011086
158	0xad82	-0.08606
159	0xaac5	-0.0529
160	0x2a35	0.0485
161	0x22da	0.01338
162	0x1eac	0.006516
163	0x1aa1	0.003237
164	0x264a	0.02457
165	0xa51d	-0.01997
166	0x2257	0.01238
167	0x2372	0.01454
168	0x24ad	0.01826
169	0x29b3	0.04453
170	0x2993	0.04355
171	0x2998	0.0437
172	0xa3d5	-0.0153
173	0xaa61	-0.04984
174	0xa708	-0.02747
175	0xa232	-0.0121
176	0xab45	-0.0568
177	0x23e2	0.015396
178	0x2816	0.03192
179	0x2c73	0.0695
180	0xa69d	-0.02583
181	0x2983	0.04306
182	0x9fe8	-0.00772
183	0xaea1	-0.1036
184	0xa669	-0.02504
185	0x24d8	0.01892
186	0x9d7a	-0.00535
187	0xaa83	-0.05087
188	0x275e	0.02878
189	0xad3f	-0.082
190	0xabf6	-0.0622
191	0xad23	-0.08026
192	0xa309	-0.01374
193	0xacb7	-0.07367
194	0xac7f	-0.07025
195	0x241e	0.01608
196	0x2c69	0.0689
197	0x89e6	-0.00018
198	0x2b6e	0.05804
199	0xa182	-0.01076
200	0x9738	-0.001762
201	0xa1ac	-0.01108
202	0x2e51	0.0987
203	0xa3fb	-0.01559
204	0xa31a	-0.01387
205	0x25c9	0.0226
206	0xa65c	-0.02484
207	0x1af2	0.003391
208	0x1f25	0.006977
209	0xabb0	-0.06006
210	0x29a7	0.04416
211	0x9d03	-0.004894
212	0x200c	0.007904
213	0x2bc9	0.06082
214	0x2bbe	0.0605
215	0xabe5	-0.06168
216	0xaa71	-0.05032
217	0xaa96	-0.05145
218	0x2cbe	0.0741
219	0xab8b	-0.05893
220	0x8cc3	-0.0002906
221	0x2c00	0.0625
222	0x9d54	-0.005203
223	0xa5c9	-0.0226
224	0xa823	-0.03232
225	0xa7a1	-0.0298
226	0xa248	-0.01227
227	0x2156	0.01042
228	0x9d45	-0.005146
229	0xa4e2	-0.01907
230	0x1ddc	0.005722
231	0xa8d9	-0.03787
232	0x21d9	0.01142
233	0xa30e	-0.01378
234	0x9723	-0.001742
235	0x2ebb	0.10516
236	0x9bc9	-0.003801
237	0xa9fd	-0.04678
238	0xa25e	-0.012436
239	0x2461	0.0171
240	0x21c2	0.011246
241	0x296f	0.04245
242	0xa15a	-0.01045
243	0xa93e	-0.04095
244	0x296f	0.04245
245	0xaab4	-0.05237
246	0x296c	0.04236
247	0x2c27	0.0649
248	0xabca	-0.06085
249	0xa8c5	-0.03726
250	0xac43	-0.0666
251	0xa0c8	-0.00934
252	0xa4ba	-0.01846
253	0xaae9	-0.054
254	0x26d0	0.02661
255	0xa719	-0.02773

sequential_5/conv2d_35/Conv2D f2 [128, 3, 3, 128]
0	0xa4c8	-0.01868
1	0xa552	-0.02078
2	0xaa0f	-0.04733
3	0x2071	0.008675
4	0x271b	0.02776
5	0xa8dd	-0.038
6	0x9cbb	-0.00462
7	0xac28	-0.06494
8	0x298d	0.04337
9	0x2b92	0.05914
10	0x23ec	0.01547
11	0xab97	-0.0593
12	0xa849	-0.03348
13	0xacb5	-0.07355
14	0xa448	-0.01672
15	0xa03c	-0.00827
16	0xb0c6	-0.1492
17	0x23ac	0.014984
18	0x2f13	0.11053
19	0x2379	0.014595
20	0x281d	0.03214
21	0x2843	0.0333
22	0x2ce3	0.07635
23	0x2ddf	0.09174
24	0x27bd	0.03023
25	0x11f0	0.000725
26	0xa5e8	-0.02307
27	0x2401	0.01564
28	0x9279	-0.00079
29	0x1633	0.0015135
30	0x2a53	0.0494
31	0xa8e1	-0.03812
32	0x1c7c	0.00438
33	0x2cd7	0.0756
34	0xa75d	-0.02876
35	0xaa5d	-0.0497
36	0x9510	-0.001236
37	0x2810	0.03174
38	0xa526	-0.02011
39	0xa5ce	-0.02267
40	0x27b5	0.0301
41	0x20da	0.009476
42	0x114c	0.0006466
43	0x290d	0.03946
44	0x199a	0.002735
45	0x2a15	0.04752
46	0xa9a9	-0.04422
47	0x9cc0	-0.00464
48	0xa973	-0.04257
49	0x20d5	0.00944
50	0x256b	0.02116
51	0x296e	0.04242
52	0xa898	-0.0359
53	0xa6e2	-0.02689
54	0x2c20	0.06445
55	0xa924	-0.04016
56	0x9d21	-0.00501
57	0xae2f	-0.0966
58	0x2df9	0.0933
59	0xa0b9	-0.009224
60	0xad5c	-0.08374
61	0x29e7	0.0461
62	0xad90	-0.0869
63	0x9d96	-0.005455
64	0x24bc	0.0185
65	0x22e9	0.0135
66	0x2a39	0.0486
67	0x15a1	0.001374
68	0x2ee0	0.1074
69	0xa0ec	-0.00961
70	0x29f6	0.04657
71	0x1ba8	0.003738
72	0xa15c	-0.01047
73	0xafec	-0.1238
74	0x2288	0.01276
75	0x215c	0.01047
76	0x1cdf	0.004757
77	0x25c9	0.0226
78	0xab67	-0.05783
79	0x2a5a	0.04962
80	0xab0a	-0.055
81	0x2679	0.02528
82	0x2862	0.03424
83	0x237f	0.01464
84	0x2903	0.03915
85	0x2c1f	0.0644
86	0x2c2a	0.06506
87	0x2281	0.0127
88	0xa0f8	-0.009705
89	0xa9ab	-0.04428
90	0xa346	-0.014206
91	0x2c68	0.06885
92	0xa340	-0.01416
93	0x21cb	0.011314
94	0xa991	-0.0435
95	0xa493	-0.01787
96	0x9795	-0.001851
97	0xaa12	-0.04742
98	0x2877	0.03488
99	0x2b70	0.0581
100	0x2a20	0.04785
101	0x29c9	0.0452
102	0xac4c	-0.06714
103	0xab36	-0.05634
104	0x2155	0.010414
105	0xade8	-0.0923
106	0x9810	-0.001984
107	0xab18	-0.05542
108	0xa778	-0.02917
109	0xb090	-0.1426
110	0x1031	0.0005116
111	0xa90b	-0.0394
112	0xac2e	-0.0653
113	0xa45f	-0.01707
114	0x21d3	0.011375
115	0xa853	-0.03378
116	0x2947	0.04123
117	0xa04f	-0.008415
118	0x2856	0.03387
119	0xab0f	-0.05515
120	0x1efb	0.006817
121	0x25a5	0.02205
122	0xa6d0	-0.02661
123	0x286e	0.0346
124	0x2d5b	0.0837
125	0x21fb	0.01168
126	0x254e	0.02072
127	0xaa7d	-0.0507
128	0xa0d0	-0.0094
129	0x244e	0.01682
130	0xab78	-0.05835
131	0x25e5	0.02303
132	0x2665	0.02498
133	0xa5ad	-0.02217
134	0x2058	0.008484
135	0xa9ae	-0.04437
136	0x222b	0.01205
137	0x2995	0.0436
138	0x28f8	0.03882
139	0xa77e	-0.02927
140	0xa104	-0.009796
141	0xa6a9	-0.02602
142	0x2098	0.00897
143	0xa440	-0.0166
144	0xafa6	-0.1195
145	0x24da	0.01895
146	0x2eda	0.10706
147	0x21ad	0.011086
148	0x8650	-9.63e-05
149	0x2cd0	0.0752
150	0x2a05	0.04703
151	0x29d0	0.0454
152	0x2744	0.02838
153	0xa0d8	-0.00946
154	0xa9ef	-0.04636
155	0x2775	0.02913
156	0x269b	0.0258
157	0xa9d0	-0.0454
158	0x2724	0.0279
159	0xa843	-0.0333
160	0xa326	-0.01396
161	0x28de	0.03802
162	0x25e2	0.02298
163	0xa6d7	-0.02672
164	0x280a	0.03156
165	0x2758	0.02869
166	0xa42a	-0.01627
167	0xa895	-0.0358
168	0x1bb7	0.003767
169	0x2ac8	0.05298
170	0x2980	0.04297
171	0x9832	-0.002048
172	0x9863	-0.002142
173	0x16e7	0.001685
174	0x22fc	0.01364
175	0x114e	0.0006475
176	0xabd3	-0.06113
177	0x287b	0.035
178	0x28a4	0.03625
179	0x2850	0.0337
180	0xa6bf	-0.02635
181	0xa775	-0.02913
182	0x22b6	0.01311
183	0xa452	-0.01688
184	0xa5a2	-0.022
185	0xae70	-0.1006
186	0x2d15	0.0794
187	0x9dd0	-0.005676
188	0xa582	-0.02151
189	0x2d62	0.0841
190	0xad0e	-0.079
191	0xa364	-0.014435
192	0xa552	-0.02078
193	0x2ac6	0.05292
194	0x2920	0.04004
195	0x9f1f	-0.006954
196	0x2e04	0.094
197	0xac59	-0.06793
198	0x25b4	0.02228
199	0x256e	0.02121
200	0xa11e	-0.009995
201	0xada3	-0.0881
202	0x9228	-0.0007515
203	0x1e01	0.005863
204	0x155b	0.0013075
205	0x1e50	0.006165
206	0xadb1	-0.0889
207	0x29c2	0.04498
208	0xaa45	-0.04898
209	0x946d	-0.0010805
210	0x9ff0	-0.00775
211	0x9e75	-0.006306
212	0x273d	0.02827
213	0x2d7c	0.0857
214	0x971f	-0.001739
215	0xa08f	-0.0089
216	0x98ac	-0.002281
217	0xa738	-0.0282
218	0xa831	-0.03275
219	0x2c6b	0.06903
220	0xa8f2	-0.03864
221	0x21db	0.01144
222	0x260c	0.02362
223	0x1e59	0.0062
224	0x26fd	0.0273
225	0xa65a	-0.02481
226	0x2803	0.03134
227	0x262a	0.02408
228	0x261d	0.02388
229	0x2656	0.02475
230	0xac71	-0.0694
231	0xa91f	-0.04
232	0xa7b3	-0.03008
233	0xac47	-0.06683
234	0xa10f	-0.00988
235	0xa251	-0.01234
236	0x1d1f	0.005
237	0xab4a	-0.05695
238	0xa612	-0.02371
239	0xa184	-0.01077
240	0xac62	-0.0685
241	0xaa33	-0.04843
242	0x24c7	0.01866
243	0xa480	-0.01758
244	0xa1ad	-0.011086
245	0xa8cf	-0.03757
246	0x20a3	0.009056
247	0x9592	-0.00136
248	0x24f1	0.0193
249	0x0fb8	0.000471
250	0xa435	-0.01643
251	0x2a74	0.0504
252	0x29ac	0.0443
253	0x2929	0.0403
254	0x295e	0.04193
255	0x1ce8	0.00479

sequential_5/dense_11/BiasAdd/ReadVariableOp f2 [10]
0	0x288a	0.03546
1	0xaeb7	-0.1049
2	0x2cc2	0.07434
3	0x336e	0.2322
4	0xa1c1	-0.01124
5	0xb1de	-0.1833
6	0xa047	-0.008354
7	0x24f2	0.01932
8	0xad57	-0.08344
9	0xa6d2	-0.02664

sequential_5/dense_10/BiasAdd/ReadVariableOp f2 [256]
0	0x25b3	0.02226
1	0x303e	0.1326
2	0x3474	0.2783
3	0x2bd9	0.0613
4	0x2f1c	0.1111
5	0x3166	0.1687
6	0x3110	0.1582
7	0x3199	0.1749
8	0x3032	0.1311
9	0x2e33	0.09686
10	0xad24	-0.0803
11	0x2eae	0.1044
12	0x3120	0.1602
13	0x2cba	0.07385
14	0x3279	0.2023
15	0x3501	0.3127
16	0x3173	0.1703
17	0x31be	0.1794
18	0x32ff	0.2186
19	0x3313	0.2211
20	0x267e	0.02536
21	0x3083	0.141
22	0x3208	0.1885
23	0x2e92	0.10266
24	0x3116	0.1589
25	0x2e38	0.09717
26	0x3423	0.2585
27	0x31ad	0.1774
28	0x312a	0.1614
29	0x32b9	0.2101
30	0x33ad	0.2399
31	0xa0d0	-0.0094
32	0x297c	0.04285
33	0x27ff	0.03123
34	0xadeb	-0.09247
35	0x3167	0.1688
36	0x3456	0.271
37	0x3275	0.2018
38	0x3138	0.1631
39	0x2eb5	0.1048
40	0x27be	0.03024
41	0x31ac	0.1772
42	0x32ed	0.2164
43	0x34db	0.3035
44	0xacab	-0.07294
45	0x348e	0.2847
46	0x30f4	0.1548
47	0x317d	0.1715
48	0x2cc4	0.07446
49	0x34a0	0.289
50	0x342a	0.2603
51	0x3147	0.1649
52	0x3567	0.3376
53	0x33af	0.2401
54	0x3055	0.1354
55	0x2e2a	0.0963
56	0x33c1	0.2423
57	0x342e	0.2612
58	0x2fba	0.1207
59	0x3389	0.2355
60	0x3248	0.1963
61	0x30fb	0.1556
62	0x31af	0.1776
63	0x347a	0.2798
64	0xaebc	-0.1052
65	0x3264	0.1997
66	0x3001	0.1251
67	0x3216	0.1902
68	0x2645	0.02449
69	0x33f0	0.248
70	0x2e1b	0.0954
71	0x3403	0.2507
72	0x3408	0.252
73	0x33d7	0.245
74	0xa2ff	-0.013664
75	0x34a0	0.289
76	0x2ea3	0.1037
77	0x3010	0.127
78	0x3470	0.2773
79	0x3358	0.2295
80	0x3193	0.1742
81	0x311d	0.1598
82	0x2fe7	0.1235
83	0x32b7	0.2098
84	0x3471	0.2776
85	0x3174	0.1704
86	0x303d	0.1324
87	0x30b6	0.1472
88	0x34a0	0.289
89	0x3011	0.1271
90	0x31aa	0.177
91	0x31aa	0.177
92	0x322e	0.1931
93	0x2d2c	0.0808
94	0x2973	0.04257
95	0x32dc	0.2144
96	0x2fc1	0.12115
97	0x3298	0.206
98	0x33f6	0.2488
99	0x3328	0.2236
100	0x30ad	0.1461
101	0x30b2	0.1467
102	0x2f2f	0.11224
103	0x2ef8	0.1089
104	0x2b2e	0.0561
105	0x3525	0.3215
106	0x3075	0.1393
107	0x2a1a	0.04767
108	0xadba	-0.0895
109	0x309f	0.1444
110	0x32b0	0.209
111	0x3251	0.1974
112	0x2e52	0.09875
113	0x3065	0.1373
114	0x3508	0.3145
115	0x33dd	0.2457
116	0x32a1	0.2072
117	0x31d7	0.1825
118	0x2c0d	0.0633
119	0x2acc	0.0531
120	0x312b	0.1615
121	0x33b8	0.2412
122	0x33a2	0.2385
123	0x2ffe	0.1249
124	0x31e9	0.1847
125	0x2dc7	0.0903
126	0x2e07	0.0942
127	0x329e	0.2068
128	0x2d23	0.08026
129	0x34bb	0.2957
130	0x3436	0.2632
131	0x323d	0.195
132	0x3125	0.1608
133	0x2d11	0.07916
134	0x315e	0.1677
135	0x310c	0.1577
136	0x2efe	0.10925
137	0x3078	0.1396
138	0x22d4	0.013336
139	0x24da	0.01895
140	0x31ac	0.1772
141	0x3226	0.1921
142	0x31ac	0.1772
143	0x310f	0.1581
144	0x3304	0.2192
145	0x2e77	0.101
146	0x3032	0.1311
147	0x32f7	0.2177
148	0xade0	-0.0918
149	0x301d	0.1285
150	0xaa5a	-0.04962
151	0x3022	0.1292
152	0x2640	0.02441
153	0x2a80	0.05078
154	0x31a8	0.1768
155	0x308f	0.1425
156	0x3490	0.2852
157	0x3403	0.2507
158	0x2de4	0.09204
159	0x31c2	0.1799
160	0x3002	0.1252
161	0x3234	0.1938
162	0x3126	0.1609
163	0x3410	0.254
164	0x320f	0.1893
165	0x33d5	0.2448
166	0x3030	0.1309
167	0x31fd	0.1871
168	0x3109	0.1573
169	0x33b3	0.2406
170	0x2e0e	0.0946
171	0x2e73	0.10077
172	0x3349	0.2277
173	0xa1ac	-0.01108
174	0x2c46	0.0668
175	0x3106	0.157
176	0x3214	0.19
177	0x2f9b	0.11884
178	0x34cd	0.3
179	0x33f1	0.2482
180	0x3144	0.1646
181	0x349d	0.2883
182	0x31c2	0.1799
183	0x280f	0.0317
184	0x2cde	0.07605
185	0x300f	0.1268
186	0x330e	0.2205
187	0x3081	0.1407
188	0x2e26	0.09607
189	0xa207	-0.01177
190	0x2993	0.04355
191	0x2b6d	0.058
192	0x303a	0.1321
193	0x35a8	0.3535
194	0x2dd6	0.0912
195	0x3299	0.2062
196	0x31d7	0.1825
197	0xacaa	-0.0729
198	0x310a	0.1575
199	0x2b67	0.05783
200	0x3069	0.1378
201	0x3164	0.1685
202	0x3194	0.1743
203	0x33cd	0.2438
204	0x316f	0.1698
205	0x31b5	0.1783
206	0x2d71	0.085
207	0x2f98	0.11865
208	0x320e	0.1892
209	0x3269	0.2003
210	0x34d3	0.3015
211	0x321e	0.1912
212	0x32f5	0.2174
213	0x32b8	0.21
214	0x2ebe	0.10535
215	0x301a	0.1282
216	0x9984	-0.002693
217	0x3266	0.2
218	0x3510	0.3164
219	0x32f0	0.2168
220	0x3443	0.2664
221	0x337e	0.2341
222	0xa4a9	-0.0182
223	0x2d2c	0.0808
224	0x3355	0.2291
225	0x35d7	0.365
226	0x3483	0.282
227	0x324d	0.1969
228	0xaed0	-0.10645
229	0x312e	0.1619
230	0x2e6a	0.1002
231	0x2c19	0.064
232	0x3223	0.1918
233	0x345c	0.2725
234	0x30ac	0.146
235	0x2822	0.0323
236	0x2ecb	0.10614
237	0x345a	0.272
238	0x3129	0.1613
239	0x2b81	0.05862
240	0x3146	0.1648
241	0x3485	0.2825
242	0x31ba	0.179
243	0x98d8	-0.002365
244	0x318f	0.1737
245	0x2b45	0.0568
246	0x341e	0.2573
247	0x31ce	0.1814
248	0x2ca9	0.0728
249	0x3311	0.2208
250	0x3465	0.2747
251	0x346e	0.2769
252	0x32b9	0.2101
253	0x33f1	0.2482
254	0x314b	0.1654
255	0x2ca9	0.0728

sequential_5/dense_10/MatMul f2 [256, 128]
0	0xad7e	-0.0858
1	0xa9e9	-0.04617
2	0xa9ac	-0.0443
3	0x2f81	0.11725
4	0xacb8	-0.0737
5	0xb068	-0.1377
6	0xac03	-0.0627
7	0x32e9	0.216
8	0x2d5c	0.08374
9	0xa894	-0.03577
10	0x29b3	0.04453
11	0xadd0	-0.0908
12	0x2c45	0.0667
13	0xaf27	-0.11176
14	0x27be	0.03024
15	0xb021	-0.129
16	0xaea2	-0.10364
17	0xab0a	-0.055
18	0x2f7b	0.1169
19	0x30a6	0.1453
20	0xa9f5	-0.04654
21	0xa5a5	-0.02205
22	0xa09a	-0.00899
23	0x2a00	0.04688
24	0x2e8e	0.1024
25	0xaa39	-0.0486
26	0xa87b	-0.035
27	0xa4d5	-0.01888
28	0x27a8	0.0299
29	0x301c	0.1284
30	0xb00c	-0.1265
31	0xa9a0	-0.04395
32	0x28c2	0.03717
33	0xa8f4	-0.0387
34	0xb038	-0.1318
35	0xb167	-0.1688
36	0xaac5	-0.0529
37	0xa70b	-0.02751
38	0x1ab3	0.003271
39	0xb1b4	-0.1782
40	0xac44	-0.06665
41	0xb27e	-0.2029
42	0x2bc9	0.06082
43	0x2c9f	0.0722
44	0xb3a7	-0.2391
45	0xa568	-0.02112
46	0x2958	0.04175
47	0x31ff	0.1874
48	0x2ad6	0.0534
49	0x3176	0.1707
50	0xb11e	-0.1599
51	0x24ff	0.01952
52	0xae85	-0.10187
53	0xad9c	-0.08765
54	0xaa90	-0.05127
55	0x29c4	0.04504
56	0x32d2	0.2131
57	0x2974	0.0426
58	0xb1ec	-0.185
59	0xb31b	-0.222
60	0x26a7	0.02599
61	0xa11e	-0.009995
62	0xaa7d	-0.0507
63	0xb20d	-0.1891
64	0xb0e0	-0.1523
65	0xadbb	-0.08954
66	0xb058	-0.1357
67	0x99dc	-0.002861
68	0xb441	-0.2659
69	0xa975	-0.04263
70	0xafdf	-0.123
71	0xa124	-0.01004
72	0xa6ef	-0.02708
73	0x2b8c	0.05896
74	0x2f7c	0.11694
75	0xaa9f	-0.05173
76	0xb161	-0.1681
77	0xaeac	-0.10425
78	0x9c38	-0.00412
79	0xab06	-0.05487
80	0xab67	-0.05783
81	0x2dee	0.09265
82	0xaaeb	-0.05405
83	0xac17	-0.0639
84	0x32a7	0.2079
85	0x2f50	0.11426
86	0x30cb	0.1498
87	0x2eda	0.10706
88	0x29a0	0.04395
89	0x28f1	0.0386
90	0xaa15	-0.04752
91	0xa783	-0.02934
92	0x3052	0.135
93	0xae0b	-0.0944
94	0xb16e	-0.1697
95	0xacd2	-0.0753
96	0x2dd0	0.0908
97	0x2b03	0.05478
98	0x29cc	0.0453
99	0xb2e3	-0.2152
100	0x2b0f	0.05515
101	0x2e4a	0.09827
102	0x2745	0.0284
103	0xae78	-0.1011
104	0xb19f	-0.1757
105	0xa7e5	-0.03084
106	0x2a85	0.05093
107	0xa204	-0.01175
108	0xac07	-0.0629
109	0xad13	-0.0793
110	0x3098	0.1436
111	0xb1e7	-0.1844
112	0x2c77	0.06976
113	0x2927	0.04025
114	0x2d76	0.0853
115	0x32af	0.2089
116	0xaf8e	-0.11804
117	0x9d17	-0.00497
118	0xadad	-0.0887
119	0x1dde	0.00573
120	0xa897	-0.03586
121	0xb001	-0.1251
122	0x2e03	0.09393
123	0xb21c	-0.1909
124	0xb2cd	-0.2125
125	0x2edb	0.1071
126	0xb020	-0.1289
127	0x29f6	0.04657
128	0xb1bb	-0.1791
129	0x2798	0.02966
130	0xb408	-0.252
131	0xb2ce	-0.2126
132	0xacf2	-0.0773
133	0xa6d7	-0.02672
134	0x2e6b	0.1003
135	0x9fc9	-0.007603
136	0xb42d	-0.261
137	0x9f36	-0.007042
138	0x3012	0.1272
139	0xa83e	-0.03314
140	0xb45e	-0.273
141	0xa7e7	-0.03087
142	0xb4dc	-0.3037
143	0xb224	-0.1919
144	0xb353	-0.2289
145	0x3056	0.1355
146	0xb38a	-0.2356
147	0xa473	-0.01738
148	0xb0ce	-0.1501
149	0xb23f	-0.1952
150	0x230f	0.01379
151	0x3151	0.1661
152	0xb03d	-0.1324
153	0x25c6	0.02255
154	0xa852	-0.03375
155	0x2d04	0.07837
156	0xb23a	-0.1946
157	0x2d7e	0.0858
158	0xac91	-0.07135
159	0x2b2d	0.05606
160	0xa995	-0.0436
161	0xb468	-0.2754
162	0x2d65	0.0843
163	0x1bcb	0.003805
164	0x268a	0.02554
165	0xae4c	-0.0984
166	0xb0ca	-0.1497
167	0x2eb6	0.10486
168	0xa83c	-0.03308
169	0xb2c8	-0.2119
170	0xb25c	-0.1987
171	0xac48	-0.0669
172	0x2f3f	0.1132
173	0xae7f	-0.1015
174	0x2df3	0.09296
175	0x30f4	0.1548
176	0xac24	-0.0647
177	0xa9f4	-0.0465
178	0x2f86	0.11755
179	0xb1af	-0.1776
180	0xac29	-0.065
181	0xae75	-0.1009
182	0x3012	0.1272
183	0x2c6a	0.069
184	0x2405	0.0157
185	0x2a29	0.04813
186	0xaa70	-0.0503
187	0xb327	-0.2235
188	0xa67d	-0.02534
189	0x241d	0.01607
190	0xb1fe	-0.1873
191	0xae9d	-0.10333
192	0xb2a9	-0.2081
193	0x33f2	0.2483
194	0x20ce	0.009384
195	0xa62f	-0.02415
196	0xaba4	-0.0597
197	0xaef9	-0.10895
198	0x3117	0.159
199	0xa104	-0.009796
200	0xaffa	-0.12463
201	0x3234	0.1938
202	0xa58f	-0.02171
203	0xb4bd	-0.2961
204	0x2e92	0.10266
205	0xacf8	-0.07764
206	0x348b	0.284
207	0xadf6	-0.09314
208	0xacbc	-0.074
209	0x2f4d	0.1141
210	0x2d45	0.08234
211	0xad18	-0.0796
212	0x25f6	0.02328
213	0xabb5	-0.0602
214	0xaca6	-0.07263
215	0xaeb2	-0.1046
216	0x23f6	0.01555
217	0xae1d	-0.0955
218	0xadb2	-0.089
219	0x2cb6	0.0736
220	0xad34	-0.0813
221	0xb06c	-0.1382
222	0x2dd2	0.09094
223	0x2c10	0.0635
224	0x2ec3	0.10565
225	0xadef	-0.0927
226	0xb3df	-0.246
227	0x2e5a	0.09924
228	0x3289	0.2042
229	0x2b76	0.0583
230	0x90df	-0.0005946
231	0xaef5	-0.1087
232	0xb1d2	-0.1819
233	0x24cf	0.01878
234	0x2d63	0.08417
235	0x2dbd	0.08966
236	0xaf47	-0.1137
237	0xaf97	-0.1186
238	0x2e0d	0.09454
239	0x2f2f	0.11224
240	0xa9bb	-0.04477
241	0xb2cb	-0.2123
242	0xaa8a	-0.0511
243	0xafe2	-0.12317
244	0x2dbe	0.0897
245	0xaacb	-0.05307
246	0xaf1d	-0.11115
247	0x225c	0.01242
248	0x2e1e	0.0956
249	0xac29	-0.065
250	0x18ae	0.002285
251	0x2dc9	0.0904
252	0xb49a	-0.2876
253	0xa7fb	-0.03117
254	0xaa87	-0.051
255	0x316d	0.1696
