part3_edge_optimization/float16.tflite (tflite, 655308 bytes, 16 tensors)

sequential_5/re_lu_30/Relu;sequential_5/batch_normalization_30/FusedBatchNormV3;sequential_5/conv2d_30/BiasAdd/ReadVariableOp;sequential_5/conv2d_30/BiasAdd;sequential_5/conv2d_31/Conv2D;sequential_5/conv2d_30/Conv2D f2 [32]
0	0x2f21	0.1114
1	0x3bca	0.9736
2	0x3b66	0.925
3	0x304a	0.134
4	0xbd8b	-1.386
5	0x388b	0.568
6	0x37cf	0.488
7	0x2c5a	0.068
8	0x396e	0.6787
9	0x3c99	1.149
10	0x38fd	0.6235
11	0x3c47	1.069
12	0x3541	0.3284
13	0xba77	-0.808
14	0xb8aa	-0.583
15	0x35ba	0.358
16	0x395f	0.6714
17	0x33a3	0.2386
18	0x37b7	0.4822
19	0x3731	0.4495
20	0x3541	0.3284
21	0xb88b	-0.568
22	0x3628	0.3848
23	0x385c	0.545
24	0xac3e	-0.0663
25	0x325f	0.1991
26	0xb78b	-0.4714
27	0x395a	0.669
28	0x3811	0.5083
29	0xb4dd	-0.304
30	0x3a9d	0.8267
31	0xbd04	-1.254

sequential_5/re_lu_31/Relu;sequential_5/batch_normalization_31/FusedBatchNormV3;sequential_5/conv2d_31/BiasAdd/ReadVariableOp;sequential_5/conv2d_31/BiasAdd;sequential_5/conv2d_31/Conv2D f2 [32]
0	0x376b	0.4636
1	0xb534	-0.3252
2	0x343e	0.2651
3	0xac42	-0.0665
4	0x2c45	0.0667
5	0xb06e	-0.1384
6	0x3cd9	1.212
7	0x2daa	0.0885
8	0x3bfa	0.997
9	0x3603	0.3757
10	0x377e	0.4683
11	0x3678	0.4043
12	0x3b5c	0.92
13	0x36df	0.4294
14	0x393c	0.6543
15	0x2e4d	0.09845
16	0x3894	0.5723
17	0xbf46	-1.818
18	0x3d0d	1.263
19	0x1b70	0.003632
20	0xa3be	-0.01512
21	0x3ebb	1.683
22	0xa448	-0.01672
23	0x39e0	0.7344
24	0x39d7	0.73
25	0x33c9	0.2433
26	0x3018	0.1279
27	0x3c95	1.1455
28	0x3ac4	0.8457
29	0x36fc	0.4365
30	0xb809	-0.5044
31	0x3690	0.4102

sequential_5/re_lu_32/Relu;sequential_5/batch_normalization_32/FusedBatchNormV3;sequential_5/conv2d_32/BiasAdd/ReadVariableOp;sequential_5/conv2d_32/BiasAdd;sequential_5/conv2d_33/Conv2D;sequential_5/conv2d_32/Conv2D f2 [64]
0	0x38d2	0.6025
1	0x3752	0.4575
2	0x3b41	0.9067
3	0x38dd	0.608
4	0xb028	-0.1299
5	0x30dc	0.1519
6	0x3deb	1.4795
7	0x39d9	0.731
8	0xb8fc	-0.623
9	0x35fd	0.3743
10	0xacd6	-0.07556
11	0x3099	0.1437
12	0x3b50	0.914
13	0x386a	0.552
14	0x38db	0.607
15	0xb00b	-0.1263
16	0x2715	0.02766
17	0xbbe5	-0.987
18	0x2440	0.0166
19	0x3682	0.4067
20	0x3990	0.6953
21	0xaddd	-0.0916
22	0x2158	0.01044
23	0x3a19	0.762
24	0xb92c	-0.6465
25	0x3846	0.534
26	0x332f	0.2245
27	0xb3b6	-0.241
28	0x3cf6	1.24
29	0x31d8	0.1826
30	0x3bf6	0.995
31	0xbb72	-0.9307
32	0x388a	0.5674
33	0x36b5	0.4192
34	0xb3ab	-0.2396
35	0x3238	0.1943
36	0xa0ee	-0.00963
37	0x3986	0.6904
38	0xb8a3	-0.5796
39	0x3016	0.1277
40	0x28a3	0.03622
41	0x3732	0.4497
42	0x37af	0.4802
43	0x3990	0.6953
44	0x3834	0.5254
45	0xb47e	-0.2808
46	0x3069	0.1378
47	0x3270	0.2012
48	0x3c11	1.017
49	0x265d	0.02486
50	0x3547	0.3298
51	0x34f6	0.31
52	0x3510	0.3164
53	0x3278	0.2021
54	0xb76e	-0.4644
55	0x2d62	0.0841
56	0x38ab	0.5835
57	0x3a3f	0.781
58	0x3835	0.526
59	0x3507	0.3142
60	0x2f4f	0.1142
61	0x3b0b	0.8804
62	0x378a	0.4712
63	0x357b	0.3425

sequential_5/re_lu_33/Relu;sequential_5/batch_normalization_33/FusedBatchNormV3;sequential_5/conv2d_33/BiasAdd/ReadVariableOp;sequential_5/conv2d_33/BiasAdd;sequential_5/conv2d_33/Conv2D f2 [64]
0	0x39b9	0.7153
1	0x3d1c	1.277
2	0x38e2	0.6104
3	0xbc79	-1.118
4	0x3202	0.1877
5	0x3801	0.5005
6	0x36de	0.4292
7	0xa9b5	-0.0446
8	0x397e	0.6865
9	0x2ddd	0.0916
10	0x3cff	1.249
11	0x3923	0.642
12	0xa898	-0.0359
13	0x3e4c	1.574
14	0x4050	2.156
15	0x3b14	0.885
16	0x3b96	0.948
17	0xb08f	-0.1425
18	0x39b7	0.7144
19	0xa359	-0.01435
20	0x348a	0.2837
21	0xb13b	-0.1635
22	0x3056	0.1355
23	0x3dc3	1.44
24	0x3a1a	0.7627
25	0x341d	0.257
26	0x3bfc	0.998
27	0x3142	0.1643
28	0x3bb7	0.9644
29	0xb92b	-0.646
30	0x3bf9	0.9966
31	0x3b1f	0.89
32	0x37fa	0.4985
33	0x3a3f	0.781
34	0x39a8	0.707
35	0x39a4	0.705
36	0xbcb4	-1.176
37	0x3b04	0.877
38	0x3727	0.447
39	0xaab4	-0.05237
40	0xb01e	-0.1287
41	0x3a9a	0.825
42	0x314b	0.1654
43	0x341f	0.2576
44	0x30ce	0.1501
45	0x311e	0.1599
46	0x33be	0.242
47	0x379b	0.4753
48	0x3073	0.139
49	0x3661	0.3987
50	0xaafd	-0.0546
51	0x21aa	0.01106
52	0x3500	0.3125
53	0x34f7	0.3103
54	0xbb2c	-0.8965
55	0x3818	0.5117
56	0x3c9e	1.154
57	0x36db	0.4285
58	0x35a7	0.3533
59	0xb687	-0.408
60	0x3c76	1.115
61	0xbbdc	-0.9824
62	0x36ba	0.4204
63	0xb9ba	-0.716

sequential_5/re_lu_34/Relu;sequential_5/batch_normalization_34/FusedBatchNormV3;sequential_5/conv2d_34/BiasAdd/ReadVariableOp;sequential_5/conv2d_34/BiasAdd;sequential_5/conv2d_35/Conv2D;sequential_5/conv2d_34/Conv2D f2 [128]
0	0xb004	-0.1255
1	0xba61	-0.7974
2	0x37ba	0.483
3	0xaa04	-0.047
4	0x3897	0.5737
5	0xb380	-0.2344
6	0xb697	-0.4119
7	0xa3b4	-0.015045
8	0xb725	-0.4465
9	0x35bd	0.3586
10	0xbaf6	-0.87
11	0x3b47	0.9097
12	0xb628	-0.3848
13	0x3b05	0.8774
14	0x32fe	0.2185
15	0x3331	0.2247
16	0xb319	-0.2218
17	0xae22	-0.0958
18	0xb2ea	-0.2161
19	0xb984	-0.6895
20	0x2cdd	0.076
21	0xbc87	-1.132
22	0xb81d	-0.514
23	0x359f	0.3513
24	0xb6e1	-0.43
25	0x3111	0.1583
26	0xb290	-0.2051
27	0x3d08	1.258
28	0x3a8d	0.819
29	0xb932	-0.6494
30	0x36bb	0.4207
31	0xb83c	-0.5293
32	0xb4a2	-0.2896
33	0x33a1	0.2384
34	0x3a42	0.782
35	0xaf0a	-0.11
36	0xba1d	-0.764
37	0x3947	0.6597
38	0x32f8	0.2178
39	0x3349	0.2277
40	0xb323	-0.223
41	0x2bb2	0.06012
42	0xb807	-0.5034
43	0x2c4b	0.0671
44	0xb48b	-0.284
45	0xba42	-0.782
46	0x2dab	0.08856
47	0xb4fe	-0.312
48	0xb04f	-0.1346
49	0xbb01	-0.8755
50	0xbb05	-0.8774
51	0x2cd2	0.0753
52	0xb6f8	-0.4355
53	0xa981	-0.043
54	0x3baa	0.958
55	0xbb8a	-0.9424
56	0x252c	0.0202
57	0xb069	-0.1378
58	0xb638	-0.3887
59	0x2dda	0.09143
60	0x2410	0.01587
61	0xbea5	-1.661
62	0xb7ec	-0.495
63	0x3384	0.2349
64	0x3a7f	0.812
65	0xb966	-0.675
66	0xb480	-0.2812
67	0x3bea	0.9893
68	0xbaf1	-0.8677
69	0xbc93	-1.144
70	0xb818	-0.5117
71	0xbacf	-0.851
72	0x3576	0.3413
73	0xb850	-0.539
74	0xb58c	-0.3467
75	0x2a22	0.0479
76	0xbcdf	-1.218
77	0x3b3f	0.906
78	0x343f	0.2654
79	0xb882	-0.5635
80	0x38ee	0.616
81	0x29a1	0.04398
82	0xb9c4	-0.7207
83	0xb401	-0.2502
84	0xb8a8	-0.582
85	0xb808	-0.504
86	0x383f	0.531
87	0xadb2	-0.089
88	0x3d2d	1.294
89	0xb405	-0.2512
90	0x3bf0	0.992
91	0x36ff	0.4373
92	0xacfe	-0.078
93	0xb506	-0.314
94	0x2964	0.0421
95	0x39ec	0.74
96	0xb9d8	-0.7305
97	0xb91c	-0.6387
98	0xb7db	-0.491
99	0x3bf2	0.993
100	0xbc29	-1.04
101	0xaef9	-0.10895
102	0x390b	0.6304
103	0x34ed	0.3079
104	0xbd08	-1.258
105	0xb54d	-0.3313
106	0x340c	0.253
107	0x384d	0.5376
108	0xb88b	-0.568
109	0x32a8	0.208
110	0xb957	-0.6675
111	0xad60	-0.084
112	0xb07a	-0.1399
113	0xb2e1	-0.215
114	0xc08b	-2.271
115	0xae5d	-0.0994
116	0xb787	-0.4705
117	0xbba5	-0.9556
118	0xb6e3	-0.4304
119	0xb064	-0.1372
120	0x3d2d	1.294
121	0x3c00	1.0
122	0xbec1	-1.688
123	0xb387	-0.2352
124	0xbb3d	-0.905
125	0xa73c	-0.02826
126	0xbce5	-1.224
127	0xb736	-0.4507

sequential_5/re_lu_35/Relu;sequential_5/batch_normalization_35/FusedBatchNormV3;sequential_5/conv2d_35/BiasAdd/ReadVariableOp;sequential_5/conv2d_35/BiasAdd;sequential_5/conv2d_35/Conv2D f2 [128]
0	0xb354	-0.229
1	0xac94	-0.07153
2	0xb010	-0.127
3	0xa6b7	-0.02623
4	0x3009	0.1261
5	0x313e	0.1638
6	0x2aa4	0.05188
7	0xb4b8	-0.295
8	0x2fc9	0.12164
9	0xb381	-0.2345
10	0x31c1	0.1798
11	0xb760	-0.461
12	0xb611	-0.3792
13	0xa847	-0.03342
14	0x9213	-0.0007415
15	0x32e5	0.2155
16	0xb81a	-0.5127
17	0x2898	0.0359
18	0x2cd3	0.0754
19	0x29ec	0.04626
20	0xb23f	-0.1952
21	0xae15	-0.09503
22	0xb6f5	-0.4348
23	0x2f23	0.1115
24	0x330a	0.22
25	0xb68b	-0.409
26	0xb4e3	-0.3054
27	0xae18	-0.0952
28	0xac7a	-0.06995
29	0xb440	-0.2656
30	0xb3f1	-0.2482
31	0x2c03	0.0627
32	0xb858	-0.543
33	0xb8aa	-0.583
34	0xb4f3	-0.3093
35	0xb609	-0.3772
36	0xb6f1	-0.4338
37	0xb170	-0.1699
38	0xa5d4	-0.02277
39	0xb46d	-0.2766
40	0x329d	0.2067
41	0xb72f	-0.449
42	0xa3e8	-0.01544
43	0xb505	-0.3137
44	0xb315	-0.2213
45	0x3566	0.3374
46	0xb108	-0.1572
47	0xb735	-0.4504
48	0x28d7	0.0378
49	0x2da6	0.08826
50	0x326f	0.201
51	0xb857	-0.5425
52	0xabf0	-0.062
53	0x2d6b	0.08466
54	0xb416	-0.2554
55	0xb46d	-0.2766
56	0x2ea8	0.104
57	0xb2b8	-0.21
58	0xb0da	-0.1516
59	0xb17e	-0.1716
60	0x2cb1	0.0733
61	0xb576	-0.3413
62	0xaf07	-0.1098
63	0xb40c	-0.253
64	0x300c	0.1265
65	0xb28a	-0.2043
66	0xb1fa	-0.1868
67	0xb547	-0.3298
68	0xb445	-0.2668
69	0x2c6b	0.06903
70	0xb447	-0.2673
71	0xb19f	-0.1757
72	0x3042	0.133
73	0xb023	-0.1293
74	0xb602	-0.3755
75	0xa6c4	-0.02643
76	0xb30e	-0.2205
77	0x3119	0.1593
78	0xb4a6	-0.2905
79	0xb64d	-0.3938
80	0xb699	-0.4124
81	0x308f	0.1425
82	0xb8fc	-0.623
83	0xa2b3	-0.013084
84	0xb258	-0.1982
85	0xb39c	-0.2378
86	0x154c	0.001293
87	0xa221	-0.01197
88	0x357f	0.3435
89	0xb131	-0.1622
90	0x2942	0.04108
91	0xb52d	-0.3235
92	0x338d	0.236
93	0xb28c	-0.2046
94	0xb9c4	-0.7207
95	0xa90c	-0.03943
96	0xacc5	-0.0745
97	0xae09	-0.0943
98	0xb6af	-0.4177
99	0xb545	-0.3293
100	0xb027	-0.1298
101	0xa818	-0.03198
102	0xb198	-0.1748
103	0xba00	-0.75
104	0x2dfb	0.09344
105	0x3046	0.1335
106	0x3242	0.1956
107	0xaaea	-0.05402
108	0x9fbd	-0.007557
109	0xb64b	-0.3933
110	0xb7e0	-0.4922
111	0xa70a	-0.0275
112	0xaff4	-0.12427
113	0xb7ba	-0.483
114	0xaa35	-0.0485
115	0xa1f7	-0.01165
116	0xb26d	-0.2008
117	0xb694	-0.4111
118	0xb4bb	-0.2957
119	0xb279	-0.2023
120	0x30d5	0.151
121	0xb941	-0.6567
122	0xb787	-0.4705
123	0xb410	-0.254
124	0xb281	-0.2032
125	0xac3a	-0.06604
126	0xb158	-0.167
127	0xb359	-0.2296

sequential_5/conv2d_30/Conv2D f2 [32, 3, 3, 3]
0	0x2399	0.01484
1	0xb1ff	-0.1874
2	0x3ab5	0.8384
3	0x3acd	0.85
4	0xb3eb	-0.2474
5	0x30a6	0.1453
6	0x3943	0.6577
7	0x0976	0.0001667
8	0x3c69	1.103
9	0xb4ab	-0.2917
10	0x364f	0.3943
11	0x9dc9	-0.00565
12	0xb5f8	-0.373
13	0xb900	-0.625
14	0x3b6a	0.927
15	0x39d1	0.727
16	0xa94b	-0.04135
17	0x3791	0.473
18	0x2896	0.03583
19	0xbbb2	-0.962
20	0xb959	-0.6685
21	0x3177	0.1708
22	0xbc03	-1.003
23	0xb5a3	-0.3523
24	0xbc38	-1.055
25	0xbcb6	-1.178
26	0x34ad	0.2922
27	0xbdea	-1.479
28	0x4455	4.332
29	0x42bf	3.373
30	0xc24f	-3.154
31	0xbe99	-1.649
32	0xc489	-4.535
33	0x4460	4.375
34	0x39d3	0.728
35	0xc181	-2.752
36	0xba4a	-0.786
37	0xb9db	-0.732
38	0x4461	4.38
39	0xc25e	-3.184
40	0xc136	-2.605
41	0xc422	-4.133
42	0x4244	3.133
43	0x440c	4.047
44	0x3c6c	1.105
45	0x39af	0.7104
46	0x35cf	0.363
47	0x3adc	0.8574
48	0x3dec	1.48
49	0xc07e	-2.246
50	0x3de7	1.476
51	0xb927	-0.644
52	0xc109	-2.518
53	0x2ffc	0.12476
54	0x39d5	0.729
55	0x3a1d	0.764
56	0xb79d	-0.4758
57	0xa9f8	-0.04663
58	0x3a62	0.798
59	0x3579	0.342
60	0xb4f7	-0.3103
61	0xb08d	-0.1422
62	0x36c2	0.4224
63	0xaebe	-0.10535
64	0x34d0	0.3008
65	0xb3a8	-0.2393
66	0x324e	0.197
67	0x38c3	0.595
68	0x3629	0.385
69	0xbbac	-0.959
70	0xb4a9	-0.2913
71	0xb2aa	-0.2083
72	0xb247	-0.1962
73	0xb8d0	-0.6016
74	0xb8a8	-0.582
75	0xba41	-0.7817
76	0xb9ed	-0.7407
77	0xb709	-0.4397
78	0xb4f8	-0.3105
79	0xb907	-0.6284
80	0xaccc	-0.07495
81	0xada1	-0.08795
82	0xbbb5	-0.9634
83	0xbead	-1.669
84	0x39ba	0.716
85	0xb552	-0.3325
86	0xb8e3	-0.611
87	0x39d4	0.7285
88	0x3aa2	0.829
89	0x3b9f	0.9526
90	0xb632	-0.3872
91	0xbb11	-0.8833
92	0xb73a	-0.4517
93	0x2d5f	0.0839
94	0x3340	0.2266
95	0xb1ba	-0.179
96	0xb022	-0.1292
97	0x38f0	0.617
98	0x3cbc	1.184
99	0xbc37	-1.054
100	0x99af	-0.002775
101	0xbc46	-1.068
102	0xa981	-0.043
103	0x33da	0.2454
104	0x3a46	0.784
105	0x360a	0.3774
106	0xb4ed	-0.3079
107	0x3d28	1.289
108	0xb2e5	-0.2155
109	0xb21c	-0.1909
110	0xb5ee	-0.3706
111	0x3306	0.2195
112	0xb6bc	-0.421
113	0xb3ad	-0.2399
114	0x3c73	1.112
115	0x3850	0.539
116	0x36bc	0.421
117	0x232f	0.01403
118	0x353f	0.328
119	0xb9d4	-0.7285
120	0x39fc	0.748
121	0x38b4	0.588
122	0xb562	-0.3364
123	0x3c0f	1.015
124	0x34a8	0.291
125	0x22b3	0.013084
126	0xb887	-0.566
127	0x356f	0.3396
128	0xb4de	-0.3042
129	0xb616	-0.3804
130	0x3524	0.3213
131	0x3463	0.2742
132	0xb46d	-0.2766
133	0xa9f1	-0.04642
134	0x32ba	0.2102
135	0xc180	-2.75
136	0x41bf	2.873
137	0x3a5d	0.7954
138	0x3d68	1.352
139	0xbf2b	-1.792
140	0xbcb1	-1.173
141	0xb3fb	-0.2494
142	0x3df2	1.486
143	0xbd44	-1.316
144	0xc5d6	-5.836
145	0xc40d	-4.05
146	0xbef1	-1.735
147	0x450c	5.047
148	0x41c2	2.879
149	0x4181	2.752
150	0x3a91	0.821
151	0x3cff	1.249
152	0x3f9a	1.9
153	0xb713	-0.4421
154	0x4431	4.19
155	0x465a	6.35
156	0xbc1d	-1.028
157	0xc6e1	-6.88
158	0xc43c	-4.234
159	0x42f6	3.48
160	0xbd25	-1.286
161	0xc0d8	-2.422
162	0x40d7	2.42
163	0xbc34	-1.051
164	0xbc40	-1.0625
165	0xbc1d	-1.028
166	0xb7ab	-0.4792
167	0xb99d	-0.7017
168	0x3b11	0.8833
169	0x413b	2.615
170	0xb12a	-0.1614
171	0x27f9	0.03114
172	0x2f12	0.1105
173	0xbecd	-1.7
174	0xc1e7	-2.951
175	0xbb81	-0.938
176	0xc05c	-2.18
177	0xbeef	-1.733
178	0xbd6e	-1.357
179	0x3cac	1.168
180	0x3e9d	1.653
181	0xbad3	-0.853
182	0x3bc8	0.9727
183	0x3435	0.263
184	0x3d74	1.363
185	0x3d83	1.378
186	0x2fdd	0.12286
187	0x3ca0	1.156
188	0x4044	2.133
189	0xaa66	-0.05
190	0xb67e	-0.4058
191	0xb224	-0.1919
192	0xbdbd	-1.435
193	0xaba9	-0.05984
194	0xb3cb	-0.2435
195	0xbd4a	-1.322
196	0xb6c7	-0.4236
197	0xaf5b	-0.1149
198	0xbb37	-0.902
199	0xb11a	-0.1594
200	0xb098	-0.1436
201	0x31d7	0.1825
202	0xadc7	-0.0903
203	0xb7ac	-0.4795
204	0x3631	0.387
205	0x3628	0.3848
206	0xb23b	-0.1947
207	0x3988	0.6914
208	0x355e	0.3354
209	0xb16c	-0.1694
210	0x3c2b	1.042
211	0x3b5f	0.9214
212	0x27c8	0.0304
213	0x3a80	0.8125
214	0x3af4	0.869
215	0x35ca	0.3618
216	0xb2d8	-0.2139
217	0xbc2f	-1.046
218	0x38b9	0.5903
219	0xb90b	-0.6304
220	0xb511	-0.3167
221	0xb0fe	-0.156
222	0xb921	-0.641
223	0xb863	-0.5483
224	0xba18	-0.7617
225	0xb017	-0.1278
226	0xbb10	-0.883
227	0xb453	-0.2703
228	0x3554	0.333
229	0xb7e2	-0.4927
230	0x3a18	0.7617
231	0xb846	-0.534
232	0x3805	0.5024
233	0x3890	0.5703
234	0xb1d5	-0.1823
235	0xba83	-0.814
236	0x2874	0.0348
237	0x3ae3	0.861
238	0xa8d4	-0.03772
239	0x3b03	0.8765
240	0x3894	0.5723
241	0x39c4	0.7207
242	0x31ea	0.1848
243	0x98f7	-0.002424
244	0xb6ba	-0.4204
245	0x333b	0.226
246	0x355b	0.3347
247	0xb931	-0.649
248	0xb955	-0.6665
249	0x37c8	0.4863
250	0xbc9a	-1.15
251	0xbc13	-1.019
252	0x307e	0.1404
253	0x300f	0.1268
254	0xb5da	-0.3657
255	0x355a	0.3345

sequential_5/conv2d_31/Conv2D f2 [32, 3, 3, 32]
0	0x2cf2	0.0773
1	0x9ffa	-0.00779
2	0x2da3	0.0881
3	0xa94a	-0.04132
4	0x9c79	-0.004368
5	0xab05	-0.05484
6	0xa41f	-0.0161
7	0x2b13	0.05527
8	0x2c38	0.0659
9	0x2b92	0.05914
10	0xa0ee	-0.00963
11	0xad7c	-0.0857
12	0xa12d	-0.01011
13	0xa894	-0.03577
14	0xa42a	-0.01627
15	0x3052	0.135
16	0x2cf6	0.0775
17	0xa8bd	-0.03702
18	0x2976	0.04266
19	0xa851	-0.03372
20	0xab0a	-0.055
21	0xaa83	-0.05087
22	0x298a	0.04327
23	0x2766	0.0289
24	0xa140	-0.010254
25	0x2ce5	0.0765
26	0x22ad	0.01304
27	0x28c7	0.03732
28	0x1f92	0.007393
29	0x2509	0.01967
30	0x2f7f	0.1171
31	0x284e	0.03363
32	0x2cfe	0.078
33	0xac5b	-0.06805
34	0x2aa3	0.05185
35	0xae3e	-0.09753
36	0x23cd	0.015236
37	0xaba7	-0.05978
38	0x2575	0.02132
39	0x24c3	0.0186
40	0x25c3	0.0225
41	0x2c46	0.0668
42	0xa69a	-0.02579
43	0x89b6	-0.0001743
44	0xa994	-0.04358
45	0x1503	0.001224
46	0xaa0c	-0.04724
47	0x2eee	0.1083
48	0x1c6c	0.00432
49	0x1f0c	0.00688
50	0x2a46	0.049
51	0xac89	-0.07086
52	0x1ee8	0.006744
53	0x2456	0.01694
54	0x2ae3	0.0538
55	0xac7a	-0.06995
56	0xa382	-0.01466
57	0xa9f9	-0.04666
58	0x27c6	0.03036
59	0xa5e3	-0.023
60	0x9395	-0.0009255
61	0x9feb	-0.007732
62	0x24f1	0.0193
63	0x28ea	0.0384
64	0x9f11	-0.0069
65	0x9828	-0.00203
66	0xac91	-0.07135
67	0xaa8e	-0.0512
68	0xad4a	-0.08264
69	0x29ea	0.0462
70	0xa6f1	-0.02711
71	0x1ddb	0.00572
72	0x23dc	0.01535
73	0xa503	-0.01958
74	0xa4d0	-0.0188
75	0x2d45	0.08234
76	0xab1d	-0.05557
77	0xab42	-0.0567
78	0xa8d8	-0.03784
79	0x2a69	0.05008
80	0x1f53	0.007153
81	0xac91	-0.07135
82	0x2ae6	0.0539
83	0x2485	0.01765
84	0xa62e	-0.02414
85	0xaafe	-0.05463
86	0xa1ea	-0.01155
87	0x24f8	0.01941
88	0xa24d	-0.01231
89	0x2876	0.03485
90	0x22a1	0.01295
91	0xa88b	-0.0355
92	0xab6e	-0.05804
93	0xa895	-0.0358
94	0x24d9	0.01894
95	0x2bf0	0.062
96	0x2839	0.033
97	0x28a2	0.0362
98	0xa6a7	-0.02599
99	0x28f3	0.03867
100	0xa87d	-0.03506
101	0xa92b	-0.04037
102	0x2c94	0.07153
103	0xa4f6	-0.01938
104	0x2c11	0.06354
105	0x2ae2	0.05377
106	0x2f53	0.11444
107	0x21e1	0.01148
108	0xac36	-0.0658
109	0xac9b	-0.07196
110	0xa974	-0.0426
111	0x28f6	0.03876
112	0x2d22	0.0802
113	0xa603	-0.02348
114	0xafb6	-0.1205
115	0x1b4f	0.003569
116	0xad57	-0.08344
117	0xa9cc	-0.0453
118	0xa8c2	-0.03717
119	0x2532	0.0203
120	0x2b65	0.05777
121	0x287c	0.03503
122	0xa67e	-0.02536
123	0xa7d6	-0.03061
124	0x9b62	-0.003605
125	0xa680	-0.02539
126	0xa8cd	-0.0375
127	0x25d0	0.0227
128	0xad4e	-0.0829
129	0xaa34	-0.04846
130	0xa9d6	-0.0456
131	0x97b5	-0.001882
132	0xa891	-0.03568
133	0xaee6	-0.1078
134	0xaa21	-0.04788
135	0xaef4	-0.10864
136	0x202b	0.00814
137	0x24a9	0.0182
138	0xa5c6	-0.02255
139	0xa350	-0.01428
140	0x2553	0.0208
141	0xa67f	-0.02538
142	0xafee	-0.1239
143	0xa44e	-0.01682
144	0x2944	0.04114
145	0xa773	-0.0291
146	0xa9da	-0.04572
147	0xb070	-0.1387
148	0xa8ba	-0.03693
149	0x21df	0.01147
150	0x29a8	0.0442
151	0xabc0	-0.06055
152	0x1e98	0.00644
153	0xae1a	-0.09534
154	0xabad	-0.05997
155	0x243d	0.01656
156	0xacd3	-0.0754
157	0x9399	-0.0009274
158	0xb057	-0.1356
159	0xa7bc	-0.03021
160	0xae8f	-0.1025
161	0x2980	0.04297
162	0xa4b2	-0.01834
163	0xa3e3	-0.0154
164	0xacb8	-0.0737
165	0x2a57	0.04953
166	0x8ca4	-0.0002832
167	0xacaf	-0.0732
168	0xacb3	-0.0734
169	0xa8ee	-0.0385
170	0x2c03	0.0627
171	0x2879	0.03494
172	0xaa20	-0.04785
173	0xa93d	-0.04092
174	0xae8f	-0.1025
175	0xa4f8	-0.01941
176	0xa7f0	-0.031
177	0xab36	-0.05634
178	0x200f	0.00793
179	0xa957	-0.04172
180	0x25a0	0.02197
181	0xa95d	-0.0419
182	0xa81e	-0.03217
183	0x9c82	-0.004402
184	0x29bf	0.0449
185	0x9d6a	-0.005287
186	0xad68	-0.0845
187	0xb006	-0.1257
188	0xabcc	-0.0609
189	0x9a4d	-0.003077
190	0xa606	-0.02353
191	0x27f6	0.0311
192	0x2ee6	0.1078
193	0xa688	-0.02551
194	0x28eb	0.03842
195	0x2c57	0.0678
196	0xa856	-0.03387
197	0x2a46	0.049
198	0x288c	0.03552
199	0x26ff	0.02733
200	0x2e35	0.097
201	0xa345	-0.0142
202	0x2dd7	0.09125
203	0xa389	-0.01472
204	0x28a4	0.03625
205	0xac84	-0.07056
206	0x25fc	0.02338
207	0xac44	-0.06665
208	0x1f01	0.00684
209	0x2093	0.008934
210	0xa638	-0.02429
211	0xa819	-0.032
212	0xa857	-0.0339
213	0xa286	-0.01274
214	0x25ba	0.02237
215	0x2aa8	0.052
216	0x2831	0.03275
217	0xa5fe	-0.0234
218	0x28e3	0.03818
219	0x2d64	0.0842
220	0x270b	0.02751
221	0x1e97	0.006435
222	0x2d34	0.0813
223	0xa412	-0.0159
224	0x2ae5	0.05386
225	0xaa63	-0.0499
226	0x2f40	0.1133
227	0xaa8c	-0.05115
228	0xa69b	-0.0258
229	0x9e1d	-0.00597
230	0x23fb	0.01559
231	0x226c	0.01254
232	0xabb9	-0.06033
233	0x9d94	-0.005447
234	0xac80	-0.0703
235	0xa8b2	-0.03668
236	0x245f	0.01707
237	0xac54	-0.0676
238	0xacae	-0.0731
239	0x2998	0.0437
240	0x283d	0.0331
241	0xa97b	-0.04282
242	0x2cc9	0.07477
243	0xa66e	-0.02512
244	0x211b	0.00997
245	0xa7fc	-0.03119
246	0x2b42	0.0567
247	0x1e72	0.006294
248	0x29ff	0.04684
249	0xad54	-0.08325
250	0x2928	0.04028
251	0x2dc0	0.08984
252	0xa910	-0.03955
253	0x290b	0.0394
254	0xa650	-0.02466
255	0xa044	-0.00833

sequential_5/conv2d_32/Conv2D f2 [64, 3, 3, 32]
0	0xad79	-0.0855
1	0x236a	0.01448
2	0xab17	-0.0554
3	0xa9a0	-0.04395
4	0x2c4e	0.06726
5	0x2ce7	0.0766
6	0x2dc9	0.0904
7	0x2831	0.03275
8	0x2986	0.04315
9	0xa43b	-0.01653
10	0x1f79	0.007298
11	0xa72f	-0.02806
12	0x2ac6	0.05292
13	0x294e	0.04144
14	0x2852	0.03375
15	0x276b	0.02898
16	0xa460	-0.01709
17	0x27f4	0.03107
18	0x244d	0.0168
19	0x2862	0.03424
20	0xa413	-0.01591
21	0xa1d9	-0.01142
22	0xad1c	-0.07983
23	0xa915	-0.0397
24	0xa8ca	-0.0374
25	0x2abd	0.05264
26	0x2aae	0.0522
27	0xa53c	-0.02045
28	0x2aca	0.05304
29	0x2af3	0.0543
30	0x1ffa	0.00779
31	0xa870	-0.03467
32	0xa85f	-0.03415
33	0x2c62	0.0685
34	0xa45d	-0.01704
35	0xad92	-0.08704
36	0xa09b	-0.008995
37	0x2a45	0.04898
38	0x2963	0.04208
39	0x24bd	0.01851
40	0xa52b	-0.02019
41	0x2616	0.02377
42	0x2af8	0.05444
43	0x2434	0.01642
44	0x2221	0.01197
45	0x2d07	0.07855
46	0x27bb	0.0302
47	0x209a	0.00899
48	0xac92	-0.0714
49	0x2622	0.02396
50	0x2b4b	0.05698
51	0x2db7	0.0893
52	0xa5e0	-0.02295
53	0x9c36	-0.004112
54	0x2839	0.033
55	0x26d3	0.02666
56	0xa939	-0.0408
57	0x2d92	0.08704
58	0x2796	0.02963
59	0x263c	0.02435
60	0x2787	0.0294
61	0xa8b4	-0.03674
62	0x2cf1	0.0772
63	0x2542	0.02054
64	0xa812	-0.0318
65	0x1800	0.001953
66	0xac95	-0.0716
67	0x29f1	0.04642
68	0x9fe6	-0.007713
69	0x2d45	0.08234
70	0x2594	0.02179
71	0x2bf1	0.06204
72	0xacab	-0.07294
73	0x21cb	0.011314
74	0xa023	-0.00808
75	0xae46	-0.098
76	0xa828	-0.03247
77	0x291e	0.03998
78	0x2c41	0.06647
79	0x245e	0.01706
80	0xab81	-0.05862
81	0x2687	0.0255
82	0x2a4e	0.04926
83	0xa18d	-0.01084
84	0x2224	0.01199
85	0x22f7	0.0136
86	0x289f	0.0361
87	0x26dc	0.0268
88	0x276b	0.02898
89	0x2a4c	0.0492
90	0x2c60	0.06836
91	0x294e	0.04144
92	0x29b2	0.0445
93	0xa8a6	-0.03632
94	0x27dd	0.03072
95	0x26fd	0.0273
96	0xae3b	-0.09735
97	0x2033	0.0082
98	0x2c1d	0.0643
99	0xab28	-0.0559
100	0x2775	0.02913
101	0xa9d4	-0.04553
102	0x8e68	-0.000391
103	0x245e	0.01706
104	0x9a7a	-0.003162
105	0xaa1c	-0.04773
106	0xac65	-0.06866
107	0x2987	0.04318
108	0x1a79	0.00316
109	0xaf6f	-0.11615
110	0xac6d	-0.06915
111	0xab01	-0.05472
112	0x9c35	-0.00411
113	0xac96	-0.07166
114	0x9dca	-0.005653
115	0xa748	-0.02844
116	0x9950	-0.002594
117	0xacc1	-0.0743
118	0xabe2	-0.06158
119	0xa839	-0.033
120	0xac0f	-0.0634
121	0xa58c	-0.02167
122	0x2189	0.01081
123	0xafaa	-0.11975
124	0xadbf	-0.0898
125	0x20fe	0.00975
126	0x22e3	0.01345
127	0xab8b	-0.05893
128	0xa808	-0.0315
129	0x9a3d	-0.003046
130	0x2ed4	0.1067
131	0xace2	-0.0763
132	0x20f8	0.009705
133	0x2654	0.02472
134	0x20ce	0.009384
135	0xa70d	-0.02754
136	0x1d91	0.005436
137	0xa954	-0.04163
138	0xa896	-0.03583
139	0x29d3	0.0455
140	0xa5c0	-0.02246
141	0xa42e	-0.01633
142	0xaac1	-0.05276
143	0xac05	-0.0628
144	0x1cf5	0.00484
145	0x242d	0.01631
146	0xade3	-0.092
147	0xa211	-0.01185
148	0x2349	0.01423
149	0x27b0	0.03003
150	0xac0f	-0.0634
151	0x2826	0.0324
152	0xad8d	-0.08673
153	0xa578	-0.02136
154	0xab40	-0.05664
155	0xb040	-0.1328
156	0x2040	0.0083
157	0x213a	0.01021
158	0xa205	-0.01176
159	0x2bc3	0.06064
160	0xac2d	-0.06525
161	0x2923	0.04013
162	0x28c2	0.03717
163	0xabe0	-0.06152
164	0xa7e1	-0.03078
165	0x2a06	0.04706
166	0x28b7	0.03683
167	0x9cf2	-0.00483
168	0x1f5b	0.007183
169	0xab96	-0.05927
170	0xaca8	-0.07275
171	0xaae1	-0.05374
172	0xaa2f	-0.0483
173	0xabda	-0.06134
174	0xa129	-0.01008
175	0xaba7	-0.05978
176	0xa9b2	-0.0445
177	0xac55	-0.0677
178	0xa03b	-0.00826
179	0xae1a	-0.09534
180	0xa107	-0.00982
181	0x2cef	0.0771
182	0xa8f5	-0.03873
183	0x981a	-0.002003
184	0xa2e0	-0.01343
185	0xa6e2	-0.02689
186	0x21bf	0.01122
187	0x244e	0.01682
188	0xa837	-0.03293
189	0x23cf	0.01525
190	0xac02	-0.0626
191	0xa580	-0.02148
192	0xaba9	-0.05984
193	0xa494	-0.01788
194	0x9cc9	-0.004673
195	0x2b30	0.05615
196	0x27cb	0.03044
197	0xad96	-0.0873
198	0x28df	0.03806
199	0x223f	0.0122
200	0x300c	0.1265
201	0xa615	-0.02376
202	0xa7e1	-0.03078
203	0x2df4	0.093
204	0x2a83	0.05087
205	0xace8	-0.07666
206	0xa78e	-0.02951
207	0x2951	0.04153
208	0x9bd3	-0.00382
209	0xab36	-0.05634
210	0x2e9e	0.1034
211	0xa82f	-0.03268
212	0xac10	-0.0635
213	0xadb4	-0.0891
214	0xa873	-0.03476
215	0xa4cd	-0.01875
216	0x9b31	-0.003511
217	0x2473	0.01738
218	0x248a	0.01773
219	0xa17f	-0.010735
220	0xb038	-0.1318
221	0x2c28	0.06494
222	0x1e9e	0.006462
223	0xad2e	-0.08093
224	0xa6bf	-0.02635
225	0xa711	-0.0276
226	0x29d3	0.0455
227	0x2c2c	0.0652
228	0xa779	-0.02919
229	0xab86	-0.05878
230	0x2875	0.03482
231	0xb17c	-0.1714
232	0x2960	0.042
233	0xad1a	-0.0797
234	0x23a0	0.01489
235	0x2d83	0.0861
236	0xa951	-0.04153
237	0xaf6c	-0.11597
238	0x9ef2	-0.006783
239	0x269d	0.02583
240	0x2a14	0.0475
241	0xa9af	-0.0444
242	0x295a	0.0418
243	0xa10e	-0.00987
244	0xa617	-0.02379
245	0xa319	-0.01386
246	0x2175	0.01066
247	0x153a	0.001276
248	0xa6f0	-0.0271
249	0xac06	-0.06287
250	0x248b	0.01775
251	0xa9a6	-0.04413
252	0xa53b	-0.02043
253	0x2745	0.0284
254	0xaa49	-0.0491
255	0xa820	-0.03223

sequential_5/conv2d_33/Conv2D f2 [64, 3, 3, 64]
0	0xa35e	-0.01439
1	0xad23	-0.08026
2	0xaec7	-0.1059
3	0x2c55	0.0677
4	0x2b6b	0.05795
5	0xac1f	-0.0644
6	0xae2e	-0.09656
7	0x27f5	0.03108
8	0x0d18	0.000311
9	0xb092	-0.1428
10	0xab68	-0.05786
11	0x26e5	0.02693
12	0xab01	-0.05472
13	0xad51	-0.08307
14	0xac93	-0.0715
15	0xaa9f	-0.05173
16	0x2224	0.01199
17	0xa6a1	-0.0259
18	0xa8f7	-0.0388
19	0x28bc	0.037
20	0x1d58	0.00522
21	0xa991	-0.0435
22	0x2b04	0.0548
23	0x2873	0.03476
24	0x261c	0.02386
25	0xa803	-0.03134
26	0xa131	-0.01014
27	0xaaf0	-0.0542
28	0x21e5	0.01151
29	0x2bb3	0.06015
30	0xb139	-0.1632
31	0xa5f8	-0.02332
32	0xb12a	-0.1614
33	0xaf0b	-0.11005
34	0xaca6	-0.07263
35	0x297b	0.04282
36	0x2b13	0.05527
37	0xabe6	-0.0617
38	0xa012	-0.00795
39	0xa624	-0.02399
40	0x288b	0.0355
41	0xaef0	-0.1084
42	0xa7dc	-0.0307
43	0x9b44	-0.003548
44	0x8dc3	-0.0003517
45	0xa351	-0.01429
46	0x2414	0.01593
47	0xa86a	-0.0345
48	0xaad2	-0.05328
49	0x2a47	0.04904
50	0xa75b	-0.02873
51	0x2d7b	0.08563
52	0xad3f	-0.082
53	0x1f53	0.007153
54	0x29ef	0.04636
55	0xa935	-0.04068
56	0x2dd5	0.0911
57	0x2b23	0.05576
58	0xaa49	-0.0491
59	0xb03a	-0.1321
60	0x2ffb	0.1247
61	0x1cf4	0.004837
62	0x309b	0.1439
63	0x9c48	-0.00418
64	0xa6f1	-0.02711
65	0xaf1d	-0.11115
66	0x2522	0.02005
67	0x2467	0.0172
68	0x21d2	0.01137
69	0x25c8	0.02258
70	0x9d45	-0.005146
71	0xa698	-0.02576
72	0xa57a	-0.0214
73	0xa07b	-0.00875
74	0xaada	-0.05353
75	0x1b34	0.003517
76	0x970a	-0.0017185
77	0xaaa0	-0.05176
78	0xad77	-0.0854
79	0xa98d	-0.04337
80	0x25fb	0.02336
81	0xaa0a	-0.04718
82	0x2aa9	0.05203
83	0x2676	0.02524
84	0x2b30	0.05615
85	0x9c4b	-0.004192
86	0x2828	0.03247
87	0x243f	0.01659
88	0x2c3d	0.0662
89	0x20b5	0.00919
90	0xa5c4	-0.02252
91	0xa2f0	-0.01355
92	0x2ade	0.05365
93	0x2c9f	0.0722
94	0xac08	-0.063
95	0xab74	-0.05823
96	0xb0ed	-0.1539
97	0xae32	-0.0968
98	0xada3	-0.0881
99	0xa112	-0.0099
100	0xab80	-0.0586
101	0xaaab	-0.0521
102	0x2be1	0.06155
103	0xacda	-0.0758
104	0x2804	0.03137
105	0xb07f	-0.1405
106	0xac7a	-0.06995
107	0xad65	-0.0843
108	0x2944	0.04114
109	0xafc9	-0.12164
110	0xa7a7	-0.02989
111	0x27fc	0.03119
112	0x91e6	-0.00072
113	0x208f	0.0089
114	0x2457	0.01695
115	0x285e	0.03412
116	0xadcf	-0.09076
117	0x2590	0.02173
118	0x2a4d	0.04922
119	0xa06f	-0.00866
120	0x2b02	0.05475
121	0x208c	0.00888
122	0x2a66	0.05
123	0xaeb3	-0.1047
124	0x2c14	0.0637
125	0xa3ba	-0.01509
126	0xa4f8	-0.01941
127	0xa950	-0.0415
128	0xab3d	-0.05655
129	0xa16b	-0.01058
130	0x9e1a	-0.00596
131	0x2b4c	0.057
132	0x29a3	0.04404
133	0x9eb6	-0.006554
134	0x9a8c	-0.003197
135	0xaa9d	-0.05167
136	0xa4bd	-0.01851
137	0xa8c5	-0.03726
138	0xad77	-0.0854
139	0x2c00	0.0625
140	0xab23	-0.05576
141	0x9e1e	-0.005974
142	0xa593	-0.02177
143	0xaa7e	-0.05072
144	0x27ca	0.03043
145	0xab15	-0.05533
146	0x1e27	0.00601
147	0x1ddf	0.005733
148	0x3060	0.1367
149	0x2a41	0.04886
150	0x9195	-0.0006814
151	0x2013	0.00796
152	0x2610	0.02368
153	0xa4fe	-0.0195
154	0xab86	-0.05878
155	0x2bf1	0.06204
156	0x2514	0.01984
157	0x23e8	0.01544
158	0x2419	0.016
159	0x9c27	-0.004055
160	0xa616	-0.02377
161	0xa09e	-0.00902
162	0xb04a	-0.134
163	0x2809	0.03152
164	0x213f	0.01025
165	0xa8ca	-0.0374
166	0xaeec	-0.10815
167	0xad65	-0.0843
168	0x2ed1	0.1065
169	0xb022	-0.1292
170	0xabbf	-0.06052
171	0xa0d5	-0.00944
172	0x281b	0.03207
173	0x9dec	-0.005783
174	0xa855	-0.03384
175	0x26bf	0.02635
176	0x2906	0.03925
177	0x2996	0.04364
178	0xab09	-0.05496
179	0x2af6	0.05438
180	0x19a4	0.002754
181	0xacd2	-0.0753
182	0x22cc	0.013275
183	0xae1e	-0.0956
184	0x2643	0.02446
185	0x2958	0.04175
186	0xa226	-0.01201
187	0x24d5	0.01888
188	0x2972	0.04254
189	0xa5da	-0.02286
190	0x29e7	0.0461
191	0x2b09	0.05496
192	0x2a88	0.05103
193	0xa5e9	-0.02309
194	0xad39	-0.0816
195	0xa8d2	-0.03766
196	0x25d5	0.02278
197	0x9e63	-0.006237
198	0xa4ca	-0.0187
199	0x2997	0.04367
200	0xa97f	-0.04294
201	0xab5f	-0.0576
202	0xa631	-0.02419
203	0xa3d4	-0.01529
204	0x9d91	-0.005436
205	0xabb2	-0.06012
206	0xa8a6	-0.03632
207	0xa9e7	-0.0461
208	0x9f68	-0.007233
209	0x2822	0.0323
210	0x077f	0.0001144
211	0x2aa0	0.05176
212	0xb0c1	-0.1486
213	0x2f69	0.1158
214	0xa1bc	-0.0112
215	0x20c5	0.009315
216	0xac8e	-0.07117
217	0xafc4	-0.12134
218	0x25ca	0.02261
219	0xa4df	-0.01903
220	0x2c66	0.0687
221	0xa2fe	-0.01366
222	0xa8be	-0.03705
223	0x2aab	0.0521
224	0xaeb8	-0.105
225	0xa578	-0.02136
226	0x13b8	0.000942
227	0x24ac	0.01825
228	0xaf92	-0.1183
229	0x2ae9	0.054
230	0x8daf	-0.000347
231	0xa216	-0.01189
232	0xa1f0	-0.0116
233	0x2805	0.0314
234	0xaa59	-0.0496
235	0x28b2	0.03668
236	0xa86c	-0.03455
237	0x29a0	0.04395
238	0x2d65	0.0843
239	0xaae4	-0.05383
240	0x2cef	0.0771
241	0x2cde	0.07605
242	0xa3ba	-0.01509
243	0x2d9c	0.08765
244	0xac41	-0.06647
245	0xa723	-0.02788
246	0x1b30	0.00351
247	0xa822	-0.0323
248	0xa3ee	-0.01549
249	0x2c67	0.0688
250	0x2c85	0.0706
251	0xa97d	-0.04288
252	0xad73	-0.08514
253	0xa438	-0.01648
254	0x2ac4	0.05286
255	0x23a4	0.01492

sequential_5/conv2d_34/Conv2D f2 [128, 3, 3, 64]
0	0x2b12	0.05524
1	0xadc5	-0.09015
2	0xa796	-0.02963
3	0xb160	-0.168
4	0x2cb4	0.0735
5	0x2e69	0.10016
6	0xabf6	-0.0622
7	0xad70	-0.08496
8	0x2940	0.04102
9	0x2a2c	0.04822
10	0x29c4	0.04504
11	0x2177	0.01067
12	0x2b8f	0.05905
13	0x1a59	0.0031
14	0xa11d	-0.00999
15	0xa041	-0.00831
16	0x22e8	0.01349
17	0x24a5	0.01814
18	0xacdc	-0.0759
19	0xae2a	-0.0963
20	0xaa0c	-0.04724
21	0xa08f	-0.0089
22	0x2ae7	0.05392
23	0x8db2	-0.0003476
24	0x29c1	0.04495
25	0x2b2a	0.05597
26	0x9e3b	-0.006084
27	0x1689	0.0015955
28	0x2200	0.01172
29	0x2c29	0.065
30	0x2801	0.03128
31	0xad44	-0.0823
32	0x2be6	0.0617
33	0x2dae	0.08875
34	0xa69b	-0.0258
35	0xabb5	-0.0602
36	0xa5a6	-0.02206
37	0x29c4	0.04504
38	0xb212	-0.1897
39	0xa917	-0.03976
40	0xad55	-0.0833
41	0x2c41	0.06647
42	0xa62a	-0.02408
43	0xae77	-0.101
44	0xac1d	-0.0643
45	0x25a4	0.02203
46	0x2a2d	0.04825
47	0xa6fe	-0.02731
48	0x291b	0.0399
49	0x2bba	0.06036
50	0x9f86	-0.007347
51	0x251e	0.01999
52	0x2e7b	0.10126
53	0x29db	0.04575
54	0x26c7	0.02647
55	0xa51f	-0.02
56	0x22cf	0.0133
57	0xaaa6	-0.05194
58	0xac26	-0.0648
59	0x2d9e	0.08777
60	0x2612	0.02371
61	0xa5db	-0.02287
62	0x9871	-0.002169
63	0xa4af	-0.0183
64	0x238b	0.01473
65	0xac5b	-0.06805
66	0xa2ec	-0.01352
67	0xad9e	-0.08777
68	0x2a7e	0.05072
69	0x2a15	0.04752
70	0xaae1	-0.05374
71	0xab50	-0.05713
72	0x9ff2	-0.00776
73	0x2658	0.02478
74	0x2104	0.009796
75	0x2c8b	0.071
76	0x2e54	0.0989
77	0x271f	0.02782
78	0x1feb	0.007732
79	0xa9ed	-0.0463
80	0x2b21	0.0557
81	0x26dc	0.0268
82	0xa816	-0.03192
83	0x20ea	0.0096
84	0x2bd2	0.0611
85	0xa496	-0.01791
86	0x2b3c	0.05652
87	0x2ee4	0.10767
88	0x2006	0.00786
89	0x2472	0.01736
90	0x1748	0.001778
91	0xadbc	-0.0896
92	0xaa5e	-0.04974
93	0x27f3	0.03105
94	0x241f	0.0161
95	0xae29	-0.09625
96	0x99a4	-0.002754
97	0x2c33	0.0656
98	0x9ff7	-0.00778
99	0x2060	0.008545
100	0xac9c	-0.072
101	0x1903	0.002447
102	0xaee9	-0.108
103	0xaad2	-0.05328
104	0xa6c3	-0.02641
105	0xa5f0	-0.0232
106	0xa81d	-0.03214
107	0xa80a	-0.03156
108	0x9d33	-0.005077
109	0xa59f	-0.02196
110	0x2e19	0.0953
111	0xa883	-0.03525
112	0x2cac	0.073
113	0x2835	0.03287
114	0x2544	0.02057
115	0xa77e	-0.02927
116	0x2d08	0.0786
117	0x24bf	0.01854
118	0x2256	0.012375
119	0xa737	-0.02818
120	0x209f	0.009026
121	0xab9a	-0.0594
122	0xa511	-0.01979
123	0x2732	0.0281
124	0x2af4	0.05432
125	0x281f	0.0322
126	0xa5b1	-0.02223
127	0xa47a	-0.01749
128	0xa33a	-0.014114
129	0xaeea	-0.10803
130	0x2e1d	0.0955
131	0xade3	-0.092
132	0x214a	0.01033
133	0xa0f8	-0.009705
134	0xa1c8	-0.01129
135	0xae70	-0.1006
136	0xa7ff	-0.03123
137	0xa570	-0.02124
138	0x2834	0.03284
139	0x25cc	0.02264
140	0x2d64	0.0842
141	0xa4ca	-0.0187
142	0xa27d	-0.01267
143	0xadb1	-0.0889
144	0x2adb	0.05356
145	0xa8ca	-0.0374
146	0x2b2a	0.05597
147	0x2565	0.02107
148	0x297f	0.04294
149	0x1f59	0.007175
150	0x2963	0.04208
151	0x2d8b	0.0866
152	0x25a4	0.02203
153	0xa64f	-0.02464
154	0x25d9	0.02284
155	0xab8b	-0.05893
156	0xac0f	-0.0634
157	0x2b63	0.0577
158	0x2c89	0.07086
159	0xae84	-0.1018
160	0x9c83	-0.004406
161	0x2e13	0.0949
162	0x25a8	0.0221
163	0x0d4a	0.0003228
164	0xb13a	-0.1633
165	0x24c7	0.01866
166	0xa19a	-0.01094
167	0xa017	-0.00799
168	0xaa02	-0.04694
169	0x2729	0.02797
170	0x93f4	-0.000971
171	0xa5ff	-0.02342
172	0x2562	0.02103
173	0x9fda	-0.007668
174	0x2686	0.02548
175	0xa9bb	-0.04477
176	0x2a1e	0.0478
177	0x2a7f	0.05075
178	0x20b2	0.00917
179	0x2130	0.01013
180	0x29e4	0.04602
181	0xa494	-0.01788
182	0xa25b	-0.01241
183	0xadb8	-0.08936
184	0xa8c4	-0.03723
185	0x9dad	-0.005543
186	0x24a7	0.01817
187	0x2253	0.01235
188	0xa393	-0.01479
189	0xa5c5	-0.02254
190	0x20f0	0.00964
191	0xa959	-0.04178
192	0x2a27	0.04807
193	0xaf47	-0.1137
194	0x2c2d	0.06525
195	0xb267	-0.2001
196	0x24e8	0.01917
197	0x2f47	0.1137
198	0x1b30	0.00351
199	0xa67e	-0.02536
200	0x2c01	0.06256
201	0x2bc4	0.06067
202	0x2dc0	0.08984
203	0x1fad	0.007496
204	0x23b0	0.015015
205	0x28dc	0.03796
206	0xad07	-0.07855
207	0xaa11	-0.0474
208	0x2512	0.0198
209	0xa4b7	-0.01842
210	0xadb6	-0.08923
211	0xaa18	-0.0476
212	0xaddf	-0.09174
213	0xa669	-0.02504
214	0xa887	-0.03537
215	0x0cc4	0.0002909
216	0xa3eb	-0.015465
217	0x2b27	0.05588
218	0xac92	-0.0714
219	0x1ff8	0.007782
220	0x228f	0.01281
221	0x2899	0.03592
222	0x2893	0.03574
223	0xade8	-0.0923
224	0x17ff	0.001952
225	0x2d13	0.0793
226	0x1deb	0.00578
227	0xa3e9	-0.01545
228	0x24a6	0.01816
229	0x2900	0.03906
230	0xac98	-0.0718
231	0xa239	-0.01215
232	0xa62d	-0.02412
233	0x2aae	0.0522
234	0x1d8f	0.00543
235	0xaca2	-0.0724
236	0x9b9f	-0.003721
237	0x2dd8	0.0913
238	0xa479	-0.01747
239	0xa410	-0.01587
240	0xa278	-0.012634
241	0x2a40	0.04883
242	0x20cc	0.00937
243	0xa03b	-0.00826
244	0x2cea	0.0768
245	0x0e02	0.0003667
246	0x27b8	0.03015
247	0x9b73	-0.003637
248	0xa4f1	-0.0193
249	0xa6c0	-0.02637
250	0xa944	-0.04114
251	0x29f5	0.04654
252	0xa5fa	-0.02335
253	0x2114	0.00992
254	0xa8a1	-0.03616
255	0xa75a	-0.02872

sequential_5/conv2d_35/Conv2D f2 [128, 3, 3, 128]
0	0x2cfd	0.07794
1	0x2998	0.0437
2	0x2478	0.01746
3	0xa053	-0.008446
4	0x247a	0.01749
5	0xaee6	-0.1078
6	0x296a	0.0423
7	0x29be	0.04486
8	0x1be5	0.003855
9	0x2d8a	0.08655
10	0x25df	0.02293
11	0xadf1	-0.09283
12	0x288b	0.0355
13	0xa2db	-0.01339
14	0xa8e4	-0.0382
15	0xad85	-0.08624
16	0xada9	-0.08844
17	0xac60	-0.06836
18	0x2af9	0.05447
19	0x291b	0.0399
20	0x22c0	0.01318
21	0x2d68	0.0845
22	0xa470	-0.01733
23	0x2ad3	0.0533
24	0x21fe	0.0117
25	0x96d6	-0.001669
26	0x9f41	-0.007084
27	0x9cbe	-0.00463
28	0xb00e	-0.1267
29	0x2e30	0.0967
30	0x2bc1	0.06058
31	0x2574	0.0213
32	0xa750	-0.02856
33	0xa0bd	-0.009254
34	0x21dd	0.01145
35	0x23d0	0.01526
36	0xa698	-0.02576
37	0xae1b	-0.0954
38	0x2413	0.01591
39	0x2723	0.02788
40	0xa6a3	-0.02592
41	0x2d63	0.08417
42	0x2a21	0.04788
43	0x20b8	0.00922
44	0xa865	-0.03433
45	0x2842	0.03326
46	0xaba7	-0.05978
47	0xaa29	-0.04813
48	0x9551	-0.001298
49	0x2768	0.02893
50	0x24bd	0.01851
51	0x2b07	0.0549
52	0xa422	-0.01614
53	0x2443	0.01665
54	0xa9dc	-0.04578
55	0x2aa7	0.05197
56	0xad38	-0.08154
57	0x9c72	-0.00434
58	0xa66a	-0.02505
59	0x2981	0.043
60	0xab35	-0.0563
61	0xa612	-0.02371
62	0x240e	0.01584
63	0xa463	-0.01714
64	0xa748	-0.02844
65	0x25f9	0.02333
66	0x250a	0.01968
67	0xa90e	-0.0395
68	0xac94	-0.07153
69	0xa260	-0.01245
70	0xaa23	-0.04794
71	0x25d8	0.02283
72	0x1d6b	0.00529
73	0xaaae	-0.0522
74	0xb09e	-0.1443
75	0x2d0c	0.07886
76	0x25e7	0.02306
77	0x28ff	0.03903
78	0x1bc5	0.003794
79	0x29e5	0.04605
80	0x2245	0.012245
81	0x29b8	0.04468
82	0xa67e	-0.02536
83	0x2a50	0.04932
84	0xa7eb	-0.03093
85	0xb1c9	-0.1808
86	0x1da8	0.005524
87	0x2de8	0.0923
88	0x2bd4	0.06116
89	0xaabf	-0.0527
90	0x2725	0.02791
91	0xa71b	-0.02776
92	0x2997	0.04367
93	0xa50f	-0.01976
94	0xa140	-0.010254
95	0x28e3	0.03818
96	0xae4c	-0.0984
97	0xabe8	-0.06177
98	0xa0df	-0.009514
99	0x23d5	0.0153
100	0x2df3	0.09296
101	0xa5bb	-0.02238
102	0xa7e4	-0.03082
103	0xa821	-0.03226
104	0x2919	0.03983
105	0x2a7e	0.05072
106	0xaaed	-0.0541
107	0x1c93	0.004467
108	0xa11d	-0.00999
109	0xa792	-0.02957
110	0xa51f	-0.02
111	0xad97	-0.08734
112	0x1c27	0.004055
113	0xacbb	-0.0739
114	0xa2dc	-0.0134
115	0x27b0	0.03003
116	0xa935	-0.04068
117	0x20dc	0.00949
118	0x2a65	0.04996
119	0xa36c	-0.014496
120	0x9c42	-0.004158
121	0xab34	-0.05627
122	0x289d	0.03604
123	0x2a77	0.0505
124	0x2b7c	0.05847
125	0x9f6f	-0.00726
126	0xa40d	-0.01582
127	0x2b19	0.05545
128	0x29b1	0.04446
129	0x2782	0.02933
130	0x1d12	0.00495
131	0xaac6	-0.05292
132	0xa9bc	-0.0448
133	0xaec2	-0.1056
134	0xa53c	-0.02045
135	0x24f6	0.01938
136	0x9dc2	-0.005623
137	0x2beb	0.06186
138	0x9f5c	-0.007187
139	0x9db0	-0.005554
140	0x2788	0.02942
141	0x9e4e	-0.006157
142	0xac3c	-0.06616
143	0xabe7	-0.06174
144	0xa616	-0.02377
145	0xac5c	-0.0681
146	0xa5ec	-0.02313
147	0x297a	0.0428
148	0xa37e	-0.01463
149	0x1d4e	0.00518
150	0xa48e	-0.01779
151	0x29e9	0.04617
152	0x115e	0.000655
153	0x2866	0.03436
154	0xabf2	-0.06207
155	0xa19d	-0.01096
156	0xafac	-0.1199
157	0x25fe	0.0234
158	0x2c92	0.0714
159	0x9c33	-0.0041
160	0xaa62	-0.04987
161	0xa9b6	-0.04462
162	0xa60b	-0.0236
163	0x9a5a	-0.003101
164	0xade7	-0.0922
165	0xa9f7	-0.0466
166	0xa6a3	-0.02592
167	0x2495	0.0179
168	0xa733	-0.02812
169	0x2c6e	0.0692
170	0x9ce9	-0.004795
171	0x1d18	0.004974
172	0x989f	-0.002256
173	0x2ac0	0.05273
174	0xaad2	-0.05328
175	0x1096	0.00056
176	0x179f	0.001861
177	0x2995	0.0436
178	0x2114	0.00992
179	0x2571	0.02126
180	0x271c	0.02777
181	0x122f	0.000755
182	0xa7dc	-0.0307
183	0x2585	0.02156
184	0xa834	-0.03284
185	0xa7d0	-0.03052
186	0x239c	0.01486
187	0x2824	0.03235
188	0xabc4	-0.06067
189	0x211d	0.00999
190	0x1eb0	0.00653
191	0x2252	0.012344
192	0xa827	-0.03244
193	0xa64f	-0.02464
194	0x2a58	0.04956
195	0xab74	-0.05823
196	0xaa92	-0.05133
197	0xa620	-0.02393
198	0xa45d	-0.01704
199	0x25b9	0.02235
200	0x24c9	0.01869
201	0xabac	-0.05994
202	0xa876	-0.03485
203	0x2a1d	0.04776
204	0x2680	0.02539
205	0x88ae	-0.0001428
206	0xa018	-0.007996
207	0xa06f	-0.00866
208	0x246e	0.0173
209	0x27e5	0.03084
210	0xa0ae	-0.00914
211	0x2d5d	0.0838
212	0xab81	-0.05862
213	0xb10d	-0.1578
214	0x9de7	-0.005764
215	0x2982	0.04303
216	0xa0ad	-0.00913
217	0xacc5	-0.0745
218	0x2579	0.02138
219	0xa9a0	-0.04395
220	0x2fda	0.1227
221	0x1dfd	0.005848
222	0xa281	-0.0127
223	0x2855	0.03384
224	0xad04	-0.07837
225	0xa558	-0.02087
226	0xa3b6	-0.01506
227	0xa1d3	-0.011375
228	0x2b66	0.0578
229	0xa498	-0.01794
230	0x91c3	-0.0007033
231	0x9de1	-0.00574
232	0x2422	0.01614
233	0x2a16	0.04755
234	0xac9e	-0.07214
235	0x1e52	0.006172
236	0x2222	0.01198
237	0xa675	-0.02522
238	0x28a0	0.03613
239	0xa72f	-0.02806
240	0xa553	-0.0208
241	0xace9	-0.0767
242	0x95b6	-0.001394
243	0x25d1	0.02272
244	0xac23	-0.06464
245	0xa614	-0.02374
246	0x2bf0	0.062
247	0xa829	-0.0325
248	0x280d	0.03165
249	0xadd2	-0.09094
250	0x1cd8	0.00473
251	0x1d84	0.005386
252	0x298b	0.0433
253	0x169d	0.001615
254	0x952e	-0.001265
255	0x1e05	0.00588

sequential_5/dense_11/BiasAdd/ReadVariableOp f2 [10]
0	0x2c98	0.0718
1	0xaf8f	-0.1181
2	0x2a40	0.04883
3	0x349a	0.2876
4	0xa8ae	-0.03656
5	0xb132	-0.1624
6	0xa454	-0.0169
7	0x2732	0.0281
8	0xb09f	-0.1444
9	0xa86a	-0.0345

sequential_5/dense_10/BiasAdd/ReadVariableOp f2 [256]
0	0x34a3	0.2898
1	0x3271	0.2013
2	0x3020	0.1289
3	0x3195	0.1744
4	0x3401	0.2502
5	0x3429	0.26
6	0x34ba	0.2954
7	0x3094	0.1431
8	0x31d1	0.1818
9	0x32b0	0.209
10	0x3105	0.1569
11	0x3454	0.2705
12	0x2a86	0.05096
13	0x3309	0.2198
14	0x32ef	0.2167
15	0x302e	0.1306
16	0x32f6	0.2175
17	0x3109	0.1573
18	0x2d02	0.07825
19	0x31e8	0.1846
20	0x2cb5	0.07355
21	0x2f65	0.11554
22	0x3487	0.283
23	0x3352	0.2288
24	0x230e	0.01378
25	0x33cf	0.244
26	0x3402	0.2505
27	0xaa88	-0.05103
28	0x300b	0.1263
29	0x3087	0.1415
30	0x30e6	0.1531
31	0x311f	0.16
32	0x3322	0.2229
33	0x32a4	0.2075
34	0x2d7a	0.0856
35	0x2810	0.03174
36	0x3018	0.1279
37	0x28c5	0.03726
38	0x3420	0.2578
39	0x2a5a	0.04962
40	0x24a2	0.0181
41	0x2ea3	0.1037
42	0x31ba	0.179
43	0x2c0e	0.06335
44	0x2f55	0.11456
45	0x341e	0.2573
46	0x34c4	0.2979
47	0x34c0	0.2969
48	0x3149	0.1652
49	0x3417	0.2556
50	0x30af	0.1464
51	0x27a0	0.02979
52	0x2d4a	0.08264
53	0x31d4	0.1821
54	0x257e	0.02145
55	0x2fce	0.12195
56	0x3417	0.2556
57	0x313a	0.1633
58	0x2b19	0.05545
59	0x341e	0.2573
60	0x3379	0.2335
61	0xae2a	-0.0963
62	0x2bfc	0.06238
63	0x2e88	0.10205
64	0x2e5f	0.09955
65	0x2a39	0.0486
66	0x2e81	0.1016
67	0x3239	0.1945
68	0x3307	0.2196
69	0x3374	0.2329
70	0x319b	0.1752
71	0x2d48	0.0825
72	0x30cf	0.1503
73	0x330d	0.2203
74	0x308c	0.1421
75	0x2ddc	0.09155
76	0x3343	0.2269
77	0xaf4f	-0.1142
78	0x318e	0.1736
79	0x3057	0.1356
80	0xb01b	-0.1283
81	0x3161	0.1681
82	0x2c2e	0.0653
83	0x300f	0.1268
84	0x3268	0.2002
85	0x309c	0.144
86	0x2c6f	0.0693
87	0x3283	0.2035
88	0x3209	0.1886
89	0x2d36	0.0814
90	0x272d	0.02803
91	0x3321	0.2228
92	0x3258	0.1982
93	0x3228	0.1924
94	0x32c7	0.2118
95	0x3313	0.2211
96	0x3131	0.1622
97	0x24be	0.01852
98	0x3159	0.1671
99	0x3490	0.2852
100	0x32ab	0.2084
101	0x31b1	0.1779
102	0x34b6	0.2944
103	0x3181	0.172
104	0xace1	-0.07623
105	0x31c8	0.1807
106	0x31fb	0.1869
107	0x30f3	0.1547
108	0x2f53	0.11444
109	0x2d84	0.0862
110	0x31cc	0.1812
111	0x32c4	0.2114
112	0x33bd	0.2418
113	0xaf47	-0.1137
114	0x34cc	0.2998
115	0x329e	0.2068
116	0x3444	0.2666
117	0x2e57	0.09906
118	0x3089	0.1417
119	0x3442	0.266
120	0x2b48	0.0569
121	0x2995	0.0436
122	0x3200	0.1875
123	0x3166	0.1687
124	0x3139	0.1632
125	0x33f0	0.248
126	0x3441	0.2659
127	0x30ee	0.154
128	0x3348	0.2275
129	0x3136	0.1628
130	0x32ff	0.2186
131	0x3209	0.1886
132	0x343b	0.2644
133	0x30b9	0.1476
134	0x3106	0.157
135	0x2d0a	0.07874
136	0x3158	0.167
137	0x34a4	0.29
138	0x30f9	0.1554
139	0x3312	0.221
140	0x35d5	0.3645
141	0x33c1	0.2423
142	0x2ab2	0.0523
143	0x326c	0.2007
144	0xae0f	-0.09467
145	0xacc7	-0.07465
146	0x331c	0.2222
147	0x324d	0.1969
148	0x2f2a	0.11194
149	0x333f	0.2264
150	0x3237	0.1942
151	0x3036	0.1316
152	0x33b3	0.2406
153	0x2f08	0.10986
154	0x33eb	0.2474
155	0x32c0	0.2109
156	0x2842	0.03326
157	0x321f	0.1913
158	0x30bb	0.1478
159	0x30df	0.1522
160	0x3266	0.2
161	0x32c7	0.2118
162	0xac36	-0.0658
163	0x309a	0.1438
164	0x3389	0.2355
165	0x3039	0.132
166	0x3056	0.1355
167	0x3035	0.1315
168	0x2b3b	0.0565
169	0x2d6d	0.0848
170	0x3200	0.1875
171	0x3466	0.275
172	0x3449	0.2678
173	0x2cfd	0.07794
174	0x345e	0.273
175	0x3062	0.137
176	0x33d4	0.2446
177	0x3153	0.1664
178	0x3061	0.1368
179	0x34a0	0.289
180	0x2b47	0.05685
181	0x2e69	0.10016
182	0xadbb	-0.08954
183	0x2299	0.012886
184	0x336e	0.2322
185	0x34bb	0.2957
186	0x33bf	0.2421
187	0x2e8f	0.1025
188	0x31da	0.1829
189	0x2847	0.03342
190	0x31f4	0.186
191	0x3132	0.1624
192	0x353a	0.3267
193	0x29a1	0.04398
194	0x324c	0.1968
195	0x2f45	0.1136
196	0x2fed	0.12384
197	0x336f	0.2323
198	0x33e2	0.2463
199	0x2fa8	0.1196
200	0x34e6	0.3062
201	0x2e60	0.0996
202	0x32e2	0.2151
203	0x3373	0.2328
204	0x3402	0.2505
205	0x3421	0.258
206	0x325e	0.199
207	0x2e3d	0.0975
208	0x3245	0.1959
209	0x31ea	0.1848
210	0x3478	0.2793
211	0x324e	0.197
212	0x3294	0.2056
213	0x341d	0.257
214	0x2f1a	0.11096
215	0x2d42	0.08215
216	0x3155	0.1666
217	0x30ec	0.1538
218	0x3267	0.2001
219	0x3373	0.2328
220	0x30e1	0.1525
221	0x2b42	0.0567
222	0x3063	0.1371
223	0x2dd2	0.09094
224	0x30dc	0.1519
225	0x3303	0.2191
226	0x3251	0.1974
227	0x3022	0.1292
228	0x3455	0.2708
229	0x35fc	0.374
230	0x2df9	0.0933
231	0x31d6	0.1824
232	0x343d	0.265
233	0x3266	0.2
234	0x31ee	0.1853
235	0xa28e	-0.0128
236	0x334e	0.2283
237	0x3028	0.1299
238	0x309f	0.1444
239	0x2f11	0.1104
240	0x344b	0.2683
241	0x2d86	0.0863
242	0x2ff7	0.12445
243	0x3000	0.125
244	0x2897	0.03586
245	0x30d8	0.1514
246	0xae0f	-0.09467
247	0x337f	0.2343
248	0x3134	0.1626
249	0x2d9a	0.0875
250	0x3196	0.1746
251	0x3048	0.1338
252	0x33f0	0.248
253	0x3438	0.2637
254	0x3433	0.2625
255	0x30a7	0.1454

sequential_5/dense_10/MatMul f2 [256, 128]
0	0xa8de	-0.03802
1	0x998e	-0.002712
2	0x3449	0.2678
3	0x3160	0.168
4	0xa9b9	-0.0447
5	0x246a	0.01724
6	0xa55b	-0.02092
7	0xaebf	-0.1054
8	0x2a6f	0.05026
9	0xb558	-0.334
10	0xb080	-0.1406
11	0xab39	-0.05643
12	0xaa07	-0.0471
13	0xa957	-0.04172
14	0xb151	-0.1661
15	0x2392	0.014786
16	0xa415	-0.01595
17	0x2ac6	0.05292
18	0xa49f	-0.01805
19	0xb42d	-0.261
20	0xad04	-0.07837
21	0x25fc	0.02338
22	0xac78	-0.0698
23	0x2aa0	0.05176
24	0x31e3	0.184
25	0x2d81	0.086
26	0x283a	0.03302
27	0x2849	0.03348
28	0xb038	-0.1318
29	0xad2a	-0.0807
30	0x30fe	0.156
31	0xb1a5	-0.1764
32	0xa459	-0.01698
33	0xb22d	-0.193
34	0x15cb	0.001414
35	0xb2ff	-0.2186
36	0x9c54	-0.004227
37	0xaecd	-0.10626
38	0xac85	-0.0706
39	0xaeba	-0.1051
40	0x256f	0.02122
41	0x2e65	0.0999
42	0x2454	0.0169
43	0x1956	0.002605
44	0xa7b0	-0.03003
45	0x2c16	0.06384
46	0xb030	-0.1309
47	0x2f35	0.1126
48	0xafaf	-0.12006
49	0xae3d	-0.0975
50	0x2a27	0.04807
51	0x1d67	0.005276
52	0x2e73	0.10077
53	0xaa7c	-0.05066
54	0xb175	-0.1705
55	0xabd5	-0.0612
56	0x3063	0.1371
57	0xb1b8	-0.1787
58	0x2906	0.03925
59	0x3189	0.173
60	0x27d6	0.03061
61	0x2a3c	0.0487
62	0x2db6	0.08923
63	0x2be8	0.06177
64	0x315e	0.1677
65	0xaf4f	-0.1142
66	0xad09	-0.0787
67	0xb2d4	-0.2134
68	0xa6ea	-0.02701
69	0xaf96	-0.1185
70	0xb84a	-0.536
71	0xabd9	-0.0613
72	0x324d	0.1969
73	0xac79	-0.0699
74	0x2739	0.02821
75	0x31f5	0.1862
76	0xa9f4	-0.0465
77	0xad48	-0.0825
78	0x2de1	0.09186
79	0x2624	0.02399
80	0xa7e0	-0.03076
81	0xae0b	-0.0944
82	0x2b4e	0.05707
83	0xaea3	-0.1037
84	0xb1b3	-0.1781
85	0xabfe	-0.06244
86	0x2eac	0.10425
87	0x303e	0.1326
88	0xa29c	-0.01291
89	0xac2b	-0.0651
90	0x1ca0	0.004517
91	0x33d3	0.2445
92	0xa63e	-0.02438
93	0xb002	-0.1252
94	0x26d7	0.02672
95	0xaef2	-0.1085
96	0xb43e	-0.2651
97	0x243b	0.01653
98	0x1d1c	0.00499
99	0x2987	0.04318
100	0x2915	0.0397
101	0x2d9d	0.0877
102	0xacdf	-0.0761
103	0x22c9	0.01325
104	0xb49f	-0.2888
105	0xaf88	-0.1177
106	0xad9e	-0.08777
107	0xb6c8	-0.4238
108	0xa22e	-0.01207
109	0xb01a	-0.1282
110	0xad6b	-0.08466
111	0xa349	-0.01423
112	0xaa11	-0.0474
113	0xaac5	-0.0529
114	0x304b	0.1342
115	0xb0c0	-0.1484
116	0x95fb	-0.00146
117	0xb06f	-0.1385
118	0x3187	0.1727
119	0xb2d5	-0.2135
120	0xb1b0	-0.1777
121	0x0e38	0.0003796
122	0xa6f8	-0.02722
123	0x3081	0.1407
124	0x245f	0.01707
125	0xb374	-0.2329
126	0x263d	0.02437
127	0x2c12	0.0636
128	0x2f76	0.1166
129	0xad7c	-0.0857
130	0x2e50	0.09863
131	0x2831	0.03275
132	0xae4e	-0.0985
133	0xa2c9	-0.01325
134	0xaa5b	-0.04965
135	0x1ac8	0.003311
136	0x2d51	0.08307
137	0xa7e9	-0.0309
138	0xae0e	-0.0946
139	0x2c11	0.06354
140	0x321d	0.191
141	0x282d	0.03262
142	0xab28	-0.0559
143	0xb2c2	-0.2112
144	0x2db2	0.089
145	0xaa79	-0.05057
146	0xac2e	-0.0653
147	0x2b86	0.05878
148	0xaf22	-0.11145
149	0x320a	0.1887
150	0xb678	-0.4043
151	0x2dba	0.0895
152	0x276f	0.02904
153	0xafee	-0.1239
154	0xb185	-0.1725
155	0xb467	-0.2751
156	0xa90b	-0.0394
157	0xb60b	-0.3777
158	0xb04c	-0.1343
159	0xb32d	-0.2242
160	0xad28	-0.08057
161	0xb4fd	-0.3118
162	0xad21	-0.08014
163	0xb4cd	-0.3
164	0xac43	-0.0666
165	0xb35b	-0.2299
166	0xac0b	-0.0632
167	0x2993	0.04355
168	0xb187	-0.1727
169	0xa78e	-0.02951
170	0xb0ee	-0.154
171	0x32e2	0.2151
172	0x9875	-0.002176
173	0x2a73	0.05038
174	0x2fec	0.1238
175	0x3371	0.2325
176	0xa125	-0.01005
177	0x2b04	0.0548
178	0x3116	0.1589
179	0xac5e	-0.06824
180	0x2d13	0.0793
181	0x2c08	0.063
182	0x2f43	0.11346
183	0xabaa	-0.05988
184	0xadb7	-0.0893
185	0xabf7	-0.06223
186	0x1a0d	0.002954
187	0xa38c	-0.01474
188	0xaadd	-0.05362
189	0xae29	-0.09625
190	0x288b	0.0355
191	0xb29e	-0.2068
192	0x322d	0.193
193	0x2da5	0.0882
194	0x2fdb	0.12274
195	0xaef3	-0.1086
196	0x307e	0.1404
197	0xb059	-0.1359
198	0xad26	-0.08044
199	0xace2	-0.0763
200	0xa855	-0.03384
201	0x299b	0.0438
202	0xa8a9	-0.0364
203	0x2ad0	0.05322
204	0xaaac	-0.05212
205	0xb209	-0.1886
206	0xb084	-0.1411
207	0x195d	0.002619
208	0x2058	0.008484
209	0x2ddc	0.09155
210	0xad4d	-0.0828
211	0xaae8	-0.05396
212	0xb212	-0.1897
213	0x28df	0.03806
214	0xaeba	-0.1051
215	0x2c5c	0.0681
216	0x2150	0.010376
217	0x299b	0.0438
218	0xabee	-0.06195
219	0x2c11	0.06354
220	0x29bb	0.04477
221	0xb04a	-0.134
222	0x881e	-0.0001256
223	0xaa07	-0.0471
224	0xae79	-0.10114
225	0xae90	-0.10254
226	0x1098	0.0005608
227	0x3084	0.1411
228	0xb4b5	-0.2942
229	0x264b	0.02458
230	0xb537	-0.326
231	0xabaf	-0.06003
232	0xabd9	-0.0613
233	0x2f73	0.1164
234	0x26ad	0.02608
235	0x3064	0.1372
236	0x2d67	0.0844
237	0x34d5	0.302
238	0xb35f	-0.2303
239	0x2d18	0.0796
240	0xad60	-0.084
241	0xb531	-0.3245
242	0x2a73	0.05038
243	0x2d99	0.08746
244	0xa962	-0.04205
245	0x2d1a	0.0797
246	0x30b1	0.1466
247	0xb2db	-0.2142
248	0xacc4	-0.07446
249	0x2e4e	0.0985
250	0x3177	0.1708
251	0xacf6	-0.0775
252	0xaa35	-0.0485
253	0x2eaa	0.1041
254	0x293c	0.0409
255	0x2cfb	0.0778
