part3_edge_optimization/full_integer.tflite (tflite, 343200 bytes, 8 tensors)

sequential_4/dense_9/MatMul i1 [10, 256] scale=0.0040180404 zero_point=0
-0.068306684 0.016072161 0.104469046 -0.1486675 -0.27724478 -0.17277573 -0.34153342 0.104469046
0.008036081 -0.18482986 -0.14464945 0.12455925 -0.19688398 -0.09241493 -0.052234523 0.18482986
-0.17277573 -0.008036081 -0.2290283 0.12455925 -0.10848709 -0.16875769 0.03616236 -0.12455925
0.11652317 -0.15268554 -0.2491185 0.13259533 0.09241493 0.104469046 -0.15670358 -0.064288646
-0.12857729 -0.024108242 -0.056252565 -0.024108242 -0.10045101 -0.22099222 -0.25313655 0.012054121
-0.008036081 0.008036081 0.048216484 0.032144323 0.012054121 0.052234523 0.0 -0.25313655
-0.15670358 0.064288646 0.15268554 -0.048216484 0.14063141 0.14063141 -0.03616236 -0.048216484
0.12857729 0.17679378 -0.16875769 -0.2491185 -0.120541215 0.020090202 -0.29331696 -0.08036081
0.11652317 -0.068306684 -0.008036081 0.028126283 -0.18081182 0.12455925 -0.12455925 0.15670358
0.10045101 -0.12857729 -0.19286594 0.07232472 0.19688398 -0.17679378 0.13661337 -0.03616236
0.052234523 0.024108242 -0.12455925 -0.07634277 0.060270607 0.12455925 0.008036081 -0.060270607
0.22501026 -0.4379664 0.07634277 0.0 -0.060270607 0.07232472 -0.08839689 0.15268554
-0.18081182 0.028126283 0.16072161 0.07232472 -0.008036081 -0.11250513 -0.10848709 -0.032144323
0.008036081 -0.016072161 -0.056252565 -0.040180404 -0.044198446 -0.03616236 0.044198446 0.056252565
-0.16072161 0.064288646 0.18482986 0.1888479 0.08839689 0.16072161 -0.16875769 -0.1486675
0.052234523 0.08839689 -0.14464945 -0.20090201 -0.10848709 0.024108242 -0.3294793 -0.19688398
-0.040180404 0.16473965 0.13661337 -0.22099222 0.056252565 -0.044198446 -0.2491185 -0.1888479
-0.10045101 -0.052234523 -0.044198446 -0.064288646 0.08839689 0.18081182 0.11250513 0.044198446
-0.024108242 -0.3174252 -0.31340715 -0.23706438 -0.068306684 0.028126283 -0.052234523 -0.016072161
-0.08839689 -0.020090202 -0.08036081 -0.068306684 0.14063141 0.07232472 -0.052234523 -0.0040180404
-0.12455925 -0.008036081 -0.2692087 0.040180404 0.032144323 0.14063141 -0.016072161 -0.008036081
0.10045101 0.2692087 -0.068306684 0.03616236 0.044198446 -0.10848709 -0.024108242 -0.08036081
0.12857729 -0.10045101 0.060270607 -0.16875769 0.068306684 0.16072161 0.084378846 -0.20893809
-0.068306684 0.020090202 -0.30135304 -0.30537108 -0.3174252 -0.068306684 0.052234523 -0.10045101
-0.2290283 0.11250513 -0.08839689 0.1486675 -0.13661337 -0.032144323 -0.032144323 -0.11250513
-0.048216484 0.14464945 -0.16473965 -0.13661337 -0.016072161 -0.03616236 -0.016072161 -0.15670358
0.056252565 0.020090202 0.14063141 0.15670358 0.13259533 0.012054121 0.08036081 0.13259533
-0.052234523 0.16473965 0.08839689 0.104469046 0.16473965 -0.032144323 0.14464945 -0.23706438
-0.03616236 0.07634277 0.07634277 -0.27322674 0.104469046 0.008036081 -0.10045101 -0.032144323
-0.020090202 0.19688398 -0.08036081 -0.15670358 0.040180404 0.08036081 -0.36965972 0.052234523
0.044198446 0.18081182 0.14464945 -0.03616236 0.044198446 -0.10045101 0.13661337 0.028126283
-0.09643297 -0.03616236 0.12857729 0.052234523 -0.028126283 0.120541215 0.07232472 -0.10045101
00000000: ef04 1adb bbd5 ab1a 02d2 dc1f cfe9 f32e
00000010: d5fe c71f e5d6 09e1 1dda c221 171a d9f0
00000020: e0fa f2fa e7c9 c103 fe02 0c08 030d 00c1
00000030: d910 26f4 2323 f7f4 202c d6c2 e205 b7ec
00000040: 1def fe07 d31f e127 19e0 d012 31d4 22f7
00000050: 0d06 e1ed 0f1f 02f1 3893 1300 f112 ea26
00000060: d307 2812 fee4 e5f8 02fc f2f6 f5f7 0b0e
00000070: d810 2e2f 1628 d6db 0d16 dcce e506 aecf
00000080: f629 22c9 0ef5 c2d1 e7f3 f5f0 162d 1c0b
00000090: fab1 b2c5 ef07 f3fc eafb ecef 2312 f3ff
000000a0: e1fe bd0a 0823 fcfe 1943 ef09 0be5 faec
000000b0: 20e7 0fd6 1128 15cc ef05 b5b4 b1ef 0de7
000000c0: c71c ea25 def8 f8e4 f424 d7de fcf7 fcd9
000000d0: 0e05 2327 2103 1421 f329 161a 29f8 24c5
000000e0: f713 13bc 1a02 e7f8 fb31 ecd9 0a14 a40d
000000f0: 0b2d 24f7 0be7 2207 e8f7 200d f91e 12e7

sequential_4/dense_8/MatMul i1 [256, 128] scale=0.004784033 zero_point=0
-0.086112596 -0.04784033 -0.043056298 0.11960083 -0.0717605 -0.13873696 -0.062192433 0.21528149
0.08132856 -0.033488233 0.043056298 -0.09089663 0.066976465 -0.11003276 0.0287042 -0.1291689
-0.10524873 -0.052624363 0.1148168 0.143521 -0.04784033 -0.023920165 -0.009568066 0.04784033
0.100464694 -0.04784033 -0.033488233 -0.019136133 0.0287042 0.1291689 -0.124384865 -0.043056298
0.038272265 -0.038272265 -0.13395293 -0.16744116 -0.052624363 -0.0287042 0.004784033 -0.17700922
-0.066976465 -0.20092939 0.062192433 0.0717605 -0.23920166 -0.019136133 0.043056298 0.18657729
0.052624363 0.17222519 -0.1578731 0.019136133 -0.100464694 -0.086112596 -0.052624363 0.043056298
0.21528149 0.043056298 -0.18657729 -0.22006552 0.023920165 -0.009568066 -0.052624363 -0.19136132
-0.15308906 -0.09089663 -0.13395293 -0.004784033 -0.26790586 -0.043056298 -0.124384865 -0.009568066
-0.0287042 0.0574084 0.1148168 -0.052624363 -0.16744116 -0.10524873 -0.004784033 -0.052624363
-0.0574084 0.09089663 -0.052624363 -0.062192433 0.20571342 0.1148168 0.14830503 0.10524873
0.043056298 0.038272265 -0.04784033 -0.0287042 0.13395293 -0.09568066 -0.16744116 -0.07654453
0.09089663 0.052624363 0.043056298 -0.21528149 0.0574084 0.100464694 0.0287042 -0.100464694
-0.17700922 -0.0287042 0.052624363 -0.009568066 -0.062192433 -0.08132856 0.143521 -0.18657729
0.0717605 0.038272265 0.086112596 0.21049745 -0.11960083 -0.004784033 -0.09089663 0.004784033
-0.033488233 -0.124384865 0.09568066 -0.19136132 -0.21049745 0.10524873 -0.1291689 0.04784033
-0.17700922 0.0287042 -0.25355375 -0.21049745 -0.07654453 -0.0287042 0.100464694 -0.009568066
-0.2631218 -0.004784033 0.1291689 -0.033488233 -0.27268988 -0.0287042 -0.30139408 -0.19136132
-0.2296336 0.13395293 -0.23441763 -0.019136133 -0.14830503 -0.19614536 0.0143521 0.16744116
-0.13395293 0.023920165 -0.033488233 0.07654453 -0.19614536 0.086112596 -0.0717605 0.0574084
-0.043056298 -0.27747393 0.086112596 0.004784033 0.023920165 -0.100464694 -0.14830503 0.10524873
-0.033488233 -0.21049745 -0.20092939 -0.066976465 0.1148168 -0.100464694 0.09089663 0.15308906
-0.066976465 -0.04784033 0.11960083 -0.17700922 -0.066976465 -0.100464694 0.1291689 0.066976465
0.0143521 0.04784033 -0.052624363 -0.22484955 -0.023920165 0.0143521 -0.18657729 -0.10524873
-0.20571342 0.24876973 0.009568066 -0.023920165 -0.0574084 -0.11003276 0.1578731 -0.009568066
-0.124384865 0.19614536 -0.023920165 -0.29661006 0.100464694 -0.07654453 0.28225794 -0.09089663
-0.0717605 0.1148168 0.08132856 -0.08132856 0.023920165 -0.062192433 -0.0717605 -0.10524873
0.0143521 -0.09568066 -0.09089663 0.0717605 -0.08132856 -0.13873696 0.09089663 0.062192433
0.10524873 -0.09089663 -0.2439857 0.100464694 0.20571342 0.0574084 0.0 -0.11003276
-0.18179326 0.019136133 0.086112596 0.09089663 -0.1148168 -0.11960083 0.09568066 0.11003276
-0.043056298 -0.21049745 -0.052624363 -0.124384865 0.09089663 -0.052624363 -0.11003276 0.0143521
0.09568066 -0.066976465 0.0 0.09089663 -0.287042 -0.033488233 -0.052624363 0.16744116
00000000: eef6 f719 f1e3 f32d 11f9 09ed 0ee9 06e5
00000010: eaf5 181e f6fb fe0a 15f6 f9fc 061b e6f7
00000020: 08f8 e4dd f5fa 01db f2d6 0d0f cefc 0927
00000030: 0b24 df04 ebee f509 2d09 d9d2 05fe f5d8
00000040: e0ed e4ff c8f7 e6fe fa0c 18f5 ddea fff5
00000050: f413 f5f3 2b18 1f16 0908 f6fa 1cec ddf0
00000060: 130b 09d3 0c15 06eb dbfa 0bfe f3ef 1ed9
00000070: 0f08 122c e7ff ed01 f9e6 14d8 d416 e50a
00000080: db06 cbd4 f0fa 15fe c9ff 1bf9 c7fa c1d8
00000090: d01c cffc e1d7 0323 e405 f910 d712 f10c
000000a0: f7c6 1201 05eb e116 f9d4 d6f2 18eb 1320
000000b0: f2f6 19db f2eb 1b0e 030a f5d1 fb03 d9ea
000000c0: d534 02fb f4e9 21fe e629 fbc2 15f0 3bed
000000d0: f118 11ef 05f3 f1ea 03ec ed0f efe3 130d
000000e0: 16ed cd15 2b0c 00e9 da04 1213 e8e7 1417
000000f0: f7d4 f5e6 13f5 e903 14f2 0013 c4f9 f523

sequential_4/conv2d_29/Conv2D i1 [128, 3, 3, 128]
-13 -15 -33 6 19 -27 -3 -46
30 42 11 -42 -24 -52 -12 -6
-105 11 78 10 23 23 54 64
21 1 -16 11 -1 1 35 -27
3 53 -20 -35 -1 22 -14 -16
21 7 0 28 2 33 -31 -3
-30 7 15 30 -25 -19 45 -28
-4 -68 66 -6 -59 32 -61 -4
13 9 34 1 75 -7 33 3
-7 -87 9 7 3 16 -41 35
-39 18 24 10 27 45 46 9
-7 -31 -10 48 -10 8 -31 -13
-1 -33 24 41 34 32 -47 -40
7 -65 -1 -39 -20 -100 0 -28
-46 -12 8 -24 29 -6 24 -39
5 15 -19 24 59 8 15 -36
-7 12 -41 16 18 -16 6 -31
8 31 27 -21 -7 -18 6 -12
-84 13 75 8 0 53 33 32
20 -7 -33 20 18 -32 20 -23
-10 27 16 -19 22 20 -11 -25
3 37 30 -1 -2 1 10 0
-43 25 25 24 -19 -20 9 -12
-15 -71 56 -4 -15 59 -55 -10
-15 37 28 -5 66 -48 16 15
-7 -62 -1 4 1 4 -62 32
-34 -1 -5 -4 20 60 -1 -6
-2 -20 -23 48 -27 8 17 4
19 -17 22 17 17 17 -49 -28
-21 -47 -7 -9 4 -40 -17 -8
-48 -34 13 -12 -8 -26 6 -1
14 0 -12 35 31 28 29 3
00000000: f3f1 df06 13e5 fdd2 1e2a 0bd6 e8cc f4fa
00000010: 970b 4e0a 1717 3640 1501 f00b ff01 23e5
00000020: 0335 ecdd ff16 f2f0 1507 001c 0221 e1fd
00000030: e207 0f1e e7ed 2de4 fcbc 42fa c520 c3fc
00000040: 0d09 2201 4bf9 2103 f9a9 0907 0310 d723
00000050: d912 180a 1b2d 2e09 f9e1 f630 f608 e1f3
00000060: ffdf 1829 2220 d1d8 07bf ffd9 ec9c 00e4
00000070: d2f4 08e8 1dfa 18d9 050f ed18 3b08 0fdc
00000080: f90c d710 12f0 06e1 081f 1beb f9ee 06f4
00000090: ac0d 4b08 0035 2120 14f9 df14 12e0 14e9
000000a0: f61b 10ed 1614 f5e7 0325 1eff fe01 0a00
000000b0: d519 1918 edec 09f4 f1b9 38fc f13b c9f6
000000c0: f125 1cfb 42d0 100f f9c2 ff04 0104 c220
000000d0: deff fbfc 143c fffa feec e930 e508 1104
000000e0: 13ef 1611 1111 cfe4 ebd1 f9f7 04d8 eff8
000000f0: d0de 0df4 f8e6 06ff 0e00 f423 1f1c 1d03

sequential_4/conv2d_28/Conv2D i1 [128, 3, 3, 64]
35 -47 -111 13 0 3 14 -17
3 21 26 -1 21 62 17 50
-5 22 22 -10 -34 16 -4 -127
23 -85 4 -17 -28 -5 43 44
-45 -12 9 59 -40 25 -7 40
-33 4 45 35 -42 -32 -59 -44
17 28 -10 54 -9 21 17 2
37 -30 14 -4 -37 -7 40 -2
13 11 -11 -19 9 7 -5 -31
-8 16 7 -2 -2 -2 47 32
-13 -39 -24 12 2 -3 -10 -77
15 -8 22 42 -13 -21 -5 23
8 -5 36 22 25 -52 -9 25
-3 15 43 3 -46 -22 -48 -15
-15 8 3 50 1 48 6 -50
-9 -11 -32 -4 44 -14 36 -17
30 -4 -14 30 -26 -12 -107 2
-19 -10 -17 28 -10 45 83 4
-25 -79 -109 -9 18 10 -17 -69
-7 -1 22 11 3 8 -64 -39
36 10 5 2 18 -15 9 11
14 33 32 32 -11 -37 -20 -9
-42 11 24 52 -19 32 -6 -77
-19 14 -4 -38 21 -61 -46 -60
-10 -55 -52 12 51 0 43 -8
-1 -8 73 -12 -10 17 -18 3
5 -45 33 -4 6 45 45 -46
-37 -38 55 -44 0 46 -4 -17
-24 -22 -9 8 -4 -14 4 -28
8 -10 -1 78 -3 -35 -9 13
8 32 -8 -30 32 -39 31 48
-45 -28 -49 -7 -14 -40 20 -21
00000000: 23d1 910d 0003 0eef 0315 1aff 153e 1132
00000010: fb16 16f6 de10 fc81 17ab 04ef e4fb 2b2c
00000020: d3f4 093b d819 f928 df04 2d23 d6e0 c5d4
00000030: 111c f636 f715 1102 25e2 0efc dbf9 28fe
00000040: 0d0b f5ed 0907 fbe1 f810 07fe fefe 2f20
00000050: f3d9 e80c 02fd f6b3 0ff8 162a f3eb fb17
00000060: 08fb 2416 19cc f719 fd0f 2b03 d2ea d0f1
00000070: f108 0332 0130 06ce f7f5 e0fc 2cf2 24ef
00000080: 1efc f21e e6f4 9502 edf6 ef1c f62d 5304
00000090: e7b1 93f7 120a efbb f9ff 160b 0308 c0d9
000000a0: 240a 0502 12f1 090b 0e21 2020 f5db ecf7
000000b0: d60b 1834 ed20 fab3 ed0e fcda 15c3 d2c4
000000c0: f6c9 cc0c 3300 2bf8 fff8 49f4 f611 ee03
000000d0: 05d3 21fc 062d 2dd2 dbda 37d4 002e fcef
000000e0: e8ea f708 fcf2 04e4 08f6 ff4e fddd f70d
000000f0: 0820 f8e2 20d9 1f30 d3e4 cff9 f2d8 14eb

sequential_4/conv2d_27/Conv2D i1 [64, 3, 3, 64]
-57 -18 -39 15 -4 95 -60 -20
19 -3 -62 35 -22 -16 -39 -23
-8 -37 76 -42 5 -65 47 -51
-8 -26 -74 6 18 -12 -2 48
29 2 -18 10 -73 18 63 -5
2 -31 -29 -54 -39 -56 54 -74
13 80 -9 -21 62 63 41 -29
0 29 15 -53 20 30 -105 6
-78 7 -30 19 21 28 -120 -1
1 11 -5 13 -20 20 -32 -10
17 -32 -5 22 25 4 19 -80
-22 17 -35 -58 56 -25 -11 -22
23 -27 13 36 -58 -6 69 -10
48 3 4 -32 -18 -57 44 -29
25 52 2 -32 48 -44 20 -64
5 -8 19 -5 76 7 -48 35
-18 -33 33 -13 -4 54 -21 5
-43 -29 60 -10 -6 81 -19 13
6 15 -28 92 -3 7 3 -26
49 -16 -34 3 11 25 5 -33
9 20 -24 32 33 -75 27 127
97 33 12 36 12 63 54 -4
-12 25 -29 -59 -23 -5 18 27
62 1 12 -22 22 -5 -7 -40
-8 50 -16 -35 -43 32 -14 -1
39 64 7 35 24 27 -15 -58
33 88 40 13 -28 -64 -2 -54
-5 -34 -14 13 -7 -39 76 11
2 20 10 -35 -126 54 -11 -9
2 -32 51 38 -1 -20 42 -54
-22 18 24 -2 13 69 -19 0
8 -5 1 -11 24 -18 -58 -34
00000000: c7ee d90f fc5f c4ec 13fd c223 eaf0 d9e9
00000010: f8db 4cd6 05bf 2fcd f8e6 b606 12f4 fe30
00000020: 1d02 ee0a b712 3ffb 02e1 e3ca d9c8 36b6
00000030: 0d50 f7eb 3e3f 29e3 001d 0fcb 141e 9706
00000040: b207 e213 151c 88ff 010b fb0d ec14 e0f6
00000050: 11e0 fb16 1904 13b0 ea11 ddc6 38e7 f5ea
00000060: 17e5 0d24 c6fa 45f6 3003 04e0 eec7 2ce3
00000070: 1934 02e0 30d4 14c0 05f8 13fb 4c07 d023
00000080: eedf 21f3 fc36 eb05 d5e3 3cf6 fa51 ed0d
00000090: 060f e45c fd07 03e6 31f0 de03 0b19 05df
000000a0: 0914 e820 21b5 1b7f 6121 0c24 0c3f 36fc
000000b0: f419 e3c5 e9fb 121b 3e01 0cea 16fb f9d8
000000c0: f832 f0dd d520 f2ff 2740 0723 181b f1c6
000000d0: 2158 280d e4c0 feca fbde f20d f9d9 4c0b
000000e0: 0214 0add 8236 f5f7 02e0 3326 ffec 2aca
000000f0: ea12 18fe 0d45 ed00 08fb 01f5 18ee c6de

sequential_4/conv2d_26/Conv2D i1 [64, 3, 3, 32]
-12 9 -82 10 -61 17 13 -43
30 30 24 56 25 -3 78 39
-39 -113 -1 -32 -18 -52 5 74
10 -1 25 3 63 0 69 24
1 8 -47 14 0 35 -37 -62
37 14 -13 3 -63 4 16 -4
-85 -83 2 -71 -22 -14 75 27
-38 -83 64 42 -52 -70 70 -34
10 -37 -66 17 -59 45 -1 -56
-17 26 -76 2 -94 -74 16 -19
-100 -49 13 -18 -80 8 106 90
-27 -127 55 -25 -107 -122 74 -13
44 17 -111 54 -67 -24 50 -93
44 -16 -1 45 -45 0 66 0
-37 -97 33 16 -76 48 52 -3
3 -24 26 9 0 -24 1 41
43 -28 49 14 -48 26 17 -32
26 -13 -20 -26 -29 31 7 -1
-14 -69 6 3 -18 63 1 63
-27 -31 -24 25 -45 -18 33 26
110 -15 17 66 -28 44 79 -63
15 18 17 1 -72 -37 -8 -24
-27 -12 -23 -27 -19 3 5 57
27 -2 -4 18 -13 -46 41 74
-6 -13 41 8 12 -49 72 -7
-17 -24 85 -70 -60 61 -56 55
-31 -30 -72 48 28 19 -30 -46
-41 3 -7 -9 -43 31 -41 -2
-90 -67 62 74 82 -39 106 -50
-14 -88 64 -1 -31 76 -43 54
-9 31 -85 34 -36 99 -50 -60
-13 40 2 -30 9 -24 16 -23
00000000: f409 ae0a c311 0dd5 1e1e 1838 19fd 4e27
00000010: d98f ffe0 eecc 054a 0aff 1903 3f00 4518
00000020: 0108 d10e 0023 dbc2 250e f303 c104 10fc
00000030: abad 02b9 eaf2 4b1b daad 402a ccba 46de
00000040: 0adb be11 c52d ffc8 ef1a b402 a2b6 10ed
00000050: 9ccf 0dee b008 6a5a e581 37e7 9586 4af3
00000060: 2c11 9136 bde8 32a3 2cf0 ff2d d300 4200
00000070: db9f 2110 b430 34fd 03e8 1a09 00e8 0129
00000080: 2be4 310e d01a 11e0 1af3 ece6 e31f 07ff
00000090: f2bb 0603 ee3f 013f e5e1 e819 d3ee 211a
000000a0: 6ef1 1142 e42c 4fc1 0f12 1101 b8db f8e8
000000b0: e5f4 e9e5 ed03 0539 1bfe fc12 f3d2 294a
000000c0: faf3 2908 0ccf 48f9 efe8 55ba c43d c837
000000d0: e1e2 b830 1c13 e2d2 d703 f9f7 d51f d7fe
000000e0: a6bd 3e4a 52d9 6ace f2a8 40ff e14c d536
000000f0: f71f ab22 dc63 cec4 f328 02e2 09e8 10e9

sequential_4/conv2d_25/Conv2D i1 [32, 3, 3, 32]
-9 32 1 49 14 -17 14 1
7 18 -2 -76 3 18 -42 -11
-27 39 -41 -54 -77 -16 -8 73
-22 -22 -65 -22 -37 -17 34 52
-43 -3 -127 41 -15 -72 28 3
24 20 27 -71 32 69 20 68
-81 23 14 -16 -15 60 -50 18
-37 -5 -67 8 -71 39 20 7
-43 -1 -97 28 0 -39 37 -21
33 -45 14 -2 -1 27 85 112
15 -55 -6 53 3 76 -5 -28
-39 -26 -39 -47 -90 20 14 30
-3 -21 90 -11 -34 10 -3 13
-37 40 -13 41 -14 -39 -42 -32
62 18 42 25 14 12 5 -32
25 -15 8 24 36 4 -26 59
41 -7 76 -34 -15 -17 -8 11
19 35 13 10 -31 -26 -27 -59
22 9 12 -14 -33 -75 17 -13
2 0 28 0 47 11 10 61
-34 -39 73 51 5 -38 23 29
-21 -16 -25 -5 44 13 -54 -58
-20 63 42 -65 -2 -44 32 37
30 30 11 -11 30 -72 5 25
-32 -32 -26 -29 9 -44 -12 -1
-18 26 -11 -17 8 2 27 2
-62 -17 26 -7 28 -4 22 11
10 31 44 -37 16 -4 -2 -38
10 -15 -30 -34 -22 40 17 -19
4 21 -36 -11 -15 -9 -4 -2
25 -43 24 17 -21 31 27 -2
-47 -17 -5 14 -22 -9 -19 -19
00000000: f720 0131 0eef 0e01 0712 feb4 0312 d6f5
00000010: e527 d7ca b3f0 f849 eaea bfea dbef 2234
00000020: d5fd 8129 f1b8 1c03 1814 1bb9 2045 1444
00000030: af17 0ef0 f13c ce12 dbfb bd08 b927 1407
00000040: d5ff 9f1c 00d9 25eb 21d3 0efe ff1b 5570
00000050: 0fc9 fa35 034c fbe4 d9e6 d9d1 a614 0e1e
00000060: fdeb 5af5 de0a fd0d db28 f329 f2d9 d6e0
00000070: 3e12 2a19 0e0c 05e0 19f1 0818 2404 e63b
00000080: 29f9 4cde f1ef f80b 1323 0d0a e1e6 e5c5
00000090: 1609 0cf2 dfb5 11f3 0200 1c00 2f0b 0a3d
000000a0: ded9 4933 05da 171d ebf0 e7fb 2c0d cac6
000000b0: ec3f 2abf fed4 2025 1e1e 0bf5 1eb8 0519
000000c0: e0e0 e6e3 09d4 f4ff ee1a f5ef 0802 1b02
000000d0: c2ef 1af9 1cfc 160b 0a1f 2cdb 10fc feda
000000e0: 0af1 e2de ea28 11ed 0415 dcf5 f1f7 fcfe
000000f0: 19d5 1811 eb1f 1bfe d1ef fb0e eaf7 eded

sequential_4/conv2d_24/Conv2D i1 [32, 3, 3, 3]
-70 -96 -79 24 -119 -72 84 36
103 40 -5 -88 -66 43 -127 51
74 48 23 70 66 -16 98 78
51 98 -14 54 6 1 -8 -55
-56 -3 50 -52 87 108 105 -101
-90 11 -24 38 -99 43 68 127
21 -24 -11 -74 -57 -76 42 -13
41 -4 -70 10 50 11 17 -21
34 8 -126 -127 -74 75 24 30
-9 85 46 32 39 -56 -31 12
-13 -3 -73 62 48 -31 123 -28
-73 -37 63 -114 90 -38 8 127
52 -123 111 -39 -12 3 47 -97
-90 90 -17 -50 -75 36 9 -8
-61 42 15 -60 -10 -85 35 51
-1 24 127 34 34 29 -25 -105
-18 -50 41 89 54 30 47 -104
-82 -49 -115 -73 -63 26 -11 88
-114 -35 -8 49 -35 -64 70 47
-61 94 28 27 76 127 14 -10
114 16 23 65 44 -8 41 -15
-5 13 -18 40 127 17 -38 70
17 -44 18 -2 26 28 -30 -14
-19 2 11 -18 5 -71 -89 13
111 47 56 14 17 -42 -127 -67
-31 20 -35 68 18 -6 -44 -71
-21 34 -34 -35 35 -62 45 21
46 -55 37 62 -50 48 -80 1
19 127 52 1 126 37 -46 30
-2 -47 3 -57 -54 49 19 -69
-54 -39 14 -48 30 -86 50 127
9 -1 45 87 27 124 -3 15
00000000: baa0 b118 89b8 5424 6728 fba8 be2b 8133
00000010: 4a30 1746 42f0 624e 3362 f236 0601 f8c9
00000020: c8fd 32cc 576c 699b a60b e826 9d2b 447f
00000030: 15e8 f5b6 c7b4 2af3 29fc ba0a 320b 11eb
00000040: 2208 8281 b64b 181e f755 2e20 27c8 e10c
00000050: f3fd b73e 30e1 7be4 b7db 3f8e 5ada 087f
00000060: 3485 6fd9 f403 2f9f a65a efce b524 09f8
00000070: c32a 0fc4 f6ab 2333 ff18 7f22 221d e797
00000080: eece 2959 361e 2f98 aecf 8db7 c11a f558
00000090: 8edd f831 ddc0 462f c35e 1c1b 4c7f 0ef6
000000a0: 7210 1741 2cf8 29f1 fb0d ee28 7f11 da46
000000b0: 11d4 12fe 1a1c e2f2 ed02 0bee 05b9 a70d
000000c0: 6f2f 380e 11d6 81bd e114 dd44 12fa d4b9
000000d0: eb22 dedd 23c2 2d15 2ec9 253e ce30 b001
000000e0: 137f 3401 7e25 d21e fed1 03c7 ca31 13bb
000000f0: cad9 0ed0 1eaa 327f 09ff 2d57 1b7c fd0f
