part3_edge_optimization/full_integer.tflite (tflite, 343200 bytes, 8 tensors)

sequential_4/dense_9/MatMul i1 [10, 256] scale=0.0050114365 zero_point=0
0.12027448 0.24054895 -0.22551465 -0.38086918 0.090205856 0.095217295 0.14533167 -0.12027448
0.020045746 -0.035080057 0.105240166 0.085194424 -0.07016011 0.075171545 0.12027448 -0.085194424
0.12027448 -0.075171545 -0.36082342 0.045102928 -0.21549177 -0.055125803 0.17540027 -0.14533167
-0.075171545 -0.18542315 0.105240166 -0.090205856 0.07016011 0.110251606 -0.10022873 0.050114363
-0.13029735 -0.24054895 -0.105240166 -0.15535453 -0.065148674 -0.07016011 0.12528591 -0.15535453
-0.095217295 0.15535453 0.13029735 -0.20045745 -0.010022873 0.22551465 0.25057182 0.2054689
-0.065148674 0.06013724 -0.14533167 -0.07016011 -0.03006862 0.07016011 0.0050114365 -0.11526304
0.090205856 -0.11526304 -0.090205856 -0.075171545 0.12027448 -0.07016011 0.10022873 -0.13530879
0.03006862 -0.10022873 -0.095217295 -0.010022873 0.050114363 0.085194424 0.065148674 -0.055125803
0.06013724 0.055125803 -0.090205856 -0.0050114365 0.12528591 -0.045102928 0.040091492 0.21048033
-0.15034309 -0.20045745 -0.12528591 -0.07016011 0.0 -0.4510293 -0.14533167 0.050114363
-0.3959035 -0.21048033 -0.19544603 -0.040091492 0.010022873 0.17038885 -0.16537741 0.045102928
-0.2605947 -0.065148674 -0.21549177 0.14533167 0.06013724 -0.01503431 0.085194424 -0.075171545
0.090205856 0.0 -0.090205856 0.06013724 -0.26560614 -0.19043459 -0.085194424 -0.24054895
0.06013724 -0.065148674 0.14533167 0.0 0.020045746 0.03006862 0.14032023 0.11526304
-0.22551465 -0.020045746 0.0 -0.15535453 -0.12027448 0.075171545 0.090205856 0.110251606
-0.095217295 -0.12528591 0.110251606 -0.12027448 -0.0050114365 -0.19544603 0.035080057 0.06013724
0.03006862 0.14032023 0.16036597 -0.25057182 0.18542315 0.17540027 -0.055125803 -0.21048033
-0.12528591 0.11526304 0.06013724 -0.25558326 0.14533167 0.13029735 0.16537741 0.06013724
0.050114363 -0.29066333 0.10022873 0.14032023 -0.045102928 0.01503431 0.040091492 -0.105240166
-0.12528591 -0.12528591 0.07016011 0.085194424 -0.010022873 -0.21549177 0.045102928 -0.025057182
0.10022873 -0.20045745 0.15535453 -0.13029735 0.080182984 -0.03006862 -0.29567474 0.110251606
0.12528591 -0.035080057 0.12027448 -0.13530879 -0.20045745 -0.19043459 -0.035080057 -0.13530879
-0.06013724 0.14533167 -0.2054689 -0.10022873 0.055125803 -0.10022873 -0.07016011 0.045102928
0.20045745 -0.085194424 0.095217295 -0.055125803 0.15535453 0.01503431 -0.37585774 -0.28064045
-0.12027448 0.06013724 -0.075171545 -0.035080057 0.21549177 -0.21549177 -0.29066333 -0.045102928
-0.10022873 -0.0050114365 0.12027448 -0.035080057 0.16036597 0.020045746 -0.13530879 -0.18041171
-0.18041171 -0.055125803 0.105240166 -0.3157205 0.13029735 -0.095217295 0.045102928 0.055125803
-0.16537741 0.12027448 0.025057182 -0.040091492 0.0050114365 0.12027448 -0.15034309 0.13530879
-0.17540027 -0.06013724 0.12027448 -0.080182984 -0.085194424 0.0050114365 -0.10022873 0.07016011
0.11526304 -0.01503431 -0.21549177 -0.14032023 0.0050114365 -0.075171545 -0.055125803 0.035080057
0.16537741 -0.01503431 0.085194424 0.13029735 0.18041171 0.090205856 0.090205856 -0.30068618
00000000: 1830 d3b4 1213 1de8 04f9 1511 f20f 18ef
00000010: 18f1 b809 d5f5 23e3 f1db 15ee 0e16 ec0a
00000020: e6d0 ebe1 f3f2 19e1 ed1f 1ad8 fe2d 3229
00000030: f30c e3f2 fa0e 01e9 12e9 eef1 18f2 14e5
00000040: 06ec edfe 0a11 0df5 0c0b eeff 19f7 082a
00000050: e2d8 e7f2 00a6 e30a b1d6 d9f8 0222 df09
00000060: ccf3 d51d 0cfd 11f1 1200 ee0c cbda efd0
00000070: 0cf3 1d00 0406 1c17 d3fc 00e1 e80f 1216
00000080: ede7 16e8 ffd9 070c 061c 20ce 2523 f5d6
00000090: e717 0ccd 1d1a 210c 0ac6 141c f703 08eb
000000a0: e7e7 0e11 fed5 09fb 14d8 1fe6 10fa c516
000000b0: 19f9 18e5 d8da f9e5 f41d d7ec 0bec f209
000000c0: 28ef 13f5 1f03 b5c8 e80c f1f9 2bd5 c6f7
000000d0: ecff 18f9 2004 e5dc dcf5 15c1 1aed 090b
000000e0: df18 05f8 0118 e21b ddf4 18f0 ef01 ec0e
000000f0: 17fd d5e4 01f1 f507 21fd 111a 2412 12c4

sequential_4/dense_8/MatMul i1 [256, 128] scale=0.004520768 zero_point=0
-0.036166143 -0.004520768 0.2667253 0.16726841 -0.04520768 0.018083071 -0.02260384 -0.10397766
0.049728446 -0.33453682 -0.1401438 -0.054249212 -0.04520768 -0.04068691 -0.16726841 0.013562303
-0.018083071 0.054249212 -0.018083071 -0.26220453 -0.07685305 0.02260384 -0.06781152 0.049728446
0.18535148 0.08589459 0.031645376 0.031645376 -0.13110226 -0.08137382 0.15822688 -0.17630994
-0.018083071 -0.19439302 0.0 -0.21699685 -0.004520768 -0.108498424 -0.072332285 -0.10397766
0.02260384 0.09945689 0.018083071 0.004520768 -0.031645376 0.06329075 -0.13110226 0.1130192
-0.12206073 -0.09945689 0.049728446 0.004520768 0.09945689 -0.049728446 -0.17178918 -0.06329075
0.13562304 -0.18083072 0.04068691 0.17178918 0.031645376 0.049728446 0.09041536 0.06329075
0.16726841 -0.1130192 -0.07685305 -0.21247609 -0.027124606 -0.117539965 -0.5379714 -0.06329075
0.19891378 -0.06781152 0.027124606 0.18535148 -0.04520768 -0.08137382 0.09041536 0.02260384
-0.031645376 -0.094936125 0.058769982 -0.10397766 -0.17630994 -0.06329075 0.10397766 0.13110226
-0.013562303 -0.06329075 0.004520768 0.24412146 -0.02260384 -0.1265815 0.027124606 -0.108498424
-0.2667253 0.018083071 0.004520768 0.04520768 0.04068691 0.08589459 -0.07685305 0.013562303
-0.28932914 -0.117539965 -0.08589459 -0.42495218 -0.013562303 -0.1265815 -0.08589459 -0.013562303
-0.04520768 -0.054249212 0.13562304 -0.14918534 0.0 -0.1401438 0.17178918 -0.21247609
-0.17630994 0.0 -0.027124606 0.1401438 0.018083071 -0.23507993 0.02260384 0.06329075
0.117539965 -0.08589459 0.09945689 0.031645376 -0.09945689 -0.013562303 -0.049728446 0.004520768
0.08137382 -0.031645376 -0.094936125 0.06329075 0.18987225 0.031645376 -0.054249212 -0.21247609
0.09041536 -0.049728446 -0.06329075 0.058769982 -0.1130192 0.18987225 -0.40234834 0.09041536
0.027124606 -0.12206073 -0.17178918 -0.27576685 -0.04068691 -0.3797445 -0.13562304 -0.2260384
-0.08137382 -0.31193298 -0.08137382 -0.2983707 -0.06781152 -0.23055916 -0.06329075 0.04520768
-0.17178918 -0.031645376 -0.1537061 0.21699685 0.0 0.049728446 0.12206073 0.23055916
-0.009041536 0.054249212 0.15822688 -0.06781152 0.08137382 0.06329075 0.1130192 -0.058769982
-0.09041536 -0.06329075 0.004520768 -0.013562303 -0.054249212 -0.094936125 0.036166143 -0.20795532
0.19439302 0.09041536 0.12206073 -0.108498424 0.1401438 -0.13562304 -0.08137382 -0.07685305
-0.031645376 0.04520768 -0.036166143 0.054249212 -0.054249212 -0.18987225 -0.1401438 0.004520768
0.009041536 0.09041536 -0.08137382 -0.054249212 -0.18987225 0.036166143 -0.10397766 0.06781152
0.009041536 0.04520768 -0.06329075 0.06329075 0.04520768 -0.13562304 0.0 -0.04520768
-0.09945689 -0.10397766 0.0 0.1401438 -0.29384992 0.02260384 -0.32549527 -0.058769982
-0.06329075 0.117539965 0.027124606 0.13562304 0.08589459 0.30289143 -0.23055916 0.08137382
-0.08589459 -0.32549527 0.049728446 0.08589459 -0.04068691 0.08137382 0.14466457 -0.21247609
-0.072332285 0.09945689 0.17178918 -0.07685305 -0.049728446 0.10397766 0.04068691 0.07685305
00000000: f8ff 3b25 f604 fbe9 0bb6 e1f4 f6f7 db03
00000010: fc0c fcc6 ef05 f10b 2913 0707 e3ee 23d9
00000020: fcd5 00d0 ffe8 f0e9 0516 0401 f90e e319
00000030: e5ea 0b01 16f5 daf2 1ed8 0926 070b 140e
00000040: 25e7 efd1 fae6 89f2 2cf1 0629 f6ee 1405
00000050: f9eb 0de9 d9f2 171d fdf2 0136 fbe4 06e8
00000060: c504 010a 0913 ef03 c0e6 eda2 fde4 edfd
00000070: f6f4 1edf 00e1 26d1 d900 fa1f 04cc 050e
00000080: 1aed 1607 eafd f501 12f9 eb0e 2a07 f4d1
00000090: 14f5 f20d e72a a714 06e5 dac3 f7ac e2ce
000000a0: eebb eebe f1cd f20a daf9 de30 000b 1b33
000000b0: fe0c 23f1 120e 19f3 ecf2 01fd f4eb 08d2
000000c0: 2b14 1be8 1fe2 eeef f90a f80c f4d6 e101
000000d0: 0214 eef4 d608 e90f 020a f20e 0ae2 00f6
000000e0: eae9 001f bf05 b8f3 f21a 061e 1343 cd12
000000f0: edb8 0b13 f712 20d1 f016 26ef f517 0911

sequential_4/conv2d_29/Conv2D i1 [128, 3, 3, 128]
55 31 12 -6 12 -76 30 32
3 61 16 -65 25 -9 -27 -61
-62 -48 38 28 9 59 -12 37
8 -1 -5 -3 -89 68 43 15
-20 -7 8 11 -18 -67 11 20
-18 59 34 6 -24 23 -42 -34
-1 20 13 39 -11 12 -32 37
-57 -3 -18 30 -40 -17 11 -12
-20 16 14 -28 -50 -9 -34 16
4 -37 -101 55 16 27 3 32
9 31 -18 35 -22 -127 4 65
43 -37 20 -20 31 -14 -7 27
-69 -43 -7 11 65 -16 -22 -23
28 36 -38 3 -7 -21 -14 -61
3 -52 -9 21 -29 7 35 -10
-3 -40 25 35 41 -5 -11 39
31 21 3 -37 -31 -74 -14 14
-4 43 -5 -4 21 -4 -46 -43
-17 -48 -16 30 -10 4 -12 32
0 24 -44 -8 -84 16 50 -3
-35 -31 -17 -2 -65 -33 -18 13
-20 49 -3 3 -2 37 -37 0
1 31 7 15 20 1 -22 15
-23 -21 10 23 -43 7 5 9
-23 -17 35 -41 -36 -17 -12 16
13 -42 -24 34 18 0 -6 -6
12 22 -6 59 -41 -111 -4 30
-6 -52 15 -31 86 4 -9 24
-55 -15 -11 -8 41 -13 0 -4
11 33 -51 4 8 -18 25 -20
-15 -54 -1 16 -45 -17 44 -23
22 -64 3 4 30 1 -1 4
00000000: 371f 0cfa 0cb4 1e20 033d 10bf 19f7 e5c3
00000010: c2d0 261c 093b f425 08ff fbfd a744 2b0f
00000020: ecf9 080b eebd 0b14 ee3b 2206 e817 d6de
00000030: ff14 0d27 f50c e025 c7fd ee1e d8ef 0bf4
00000040: ec10 0ee4 cef7 de10 04db 9b37 101b 0320
00000050: 091f ee23 ea81 0441 2bdb 14ec 1ff2 f91b
00000060: bbd5 f90b 41f0 eae9 1c24 da03 f9eb f2c3
00000070: 03cc f715 e307 23f6 fdd8 1923 29fb f527
00000080: 1f15 03db e1b6 f20e fc2b fbfc 15fc d2d5
00000090: efd0 f01e f604 f420 0018 d4f8 ac10 32fd
000000a0: dde1 effe bfdf ee0d ec31 fd03 fe25 db00
000000b0: 011f 070f 1401 ea0f e9eb 0a17 d507 0509
000000c0: e9ef 23d7 dcef f410 0dd6 e822 1200 fafa
000000d0: 0c16 fa3b d791 fc1e facc 0fe1 5604 f718
000000e0: c9f1 f5f8 29f3 00fc 0b21 cd04 08ee 19ec
000000f0: f1ca ff10 d3ef 2ce9 16c0 0304 1e01 ff04

sequential_4/conv2d_28/Conv2D i1 [128, 3, 3, 64]
35 -57 -19 -107 47 64 -39 -54
26 31 29 7 37 2 -6 -5
9 12 -48 -61 -30 -6 34 0
29 36 -4 1 7 41 20 -52
39 56 -16 -38 -14 29 -120 -25
-53 42 -15 -64 -41 14 31 -17
25 38 -5 13 64 29 17 -13
8 -33 -41 56 15 -15 -1 -12
9 -43 -9 -56 32 30 -34 -36
-5 16 6 45 63 18 5 -29
35 17 -20 6 39 -11 36 68
5 11 1 -57 -32 20 10 -61
-2 42 -5 5 -46 2 -69 -34
-17 -15 -20 -20 -3 -14 60 -22
46 21 13 -19 50 12 8 -18
6 -38 -13 18 34 20 -14 -11
-9 -69 61 -58 7 -6 -7 -64
-20 -13 21 14 53 -12 -8 -56
34 -24 36 13 27 5 27 55
14 -16 14 -37 -40 37 45 -65
-3 60 14 0 -104 12 -7 -5
-30 18 -1 -15 13 -5 16 -28
30 32 6 6 29 -11 -8 -57
-24 -4 12 8 -9 -14 6 -27
31 -72 41 -127 12 72 2 -16
40 39 57 5 10 24 -50 -30
13 -12 -57 -30 -58 -16 -22 0
-10 35 -45 5 8 23 23 -59
1 50 4 -10 12 25 -46 -8
-15 33 3 -46 -2 58 -11 -10
-8 31 6 -5 49 0 19 -2
-12 -17 -26 30 -15 6 -23 -18
00000000: 23c7 ed95 2f40 d9ca 1a1f 1d07 2502 fafb
00000010: 090c d0c3 e2fa 2200 1d24 fc01 0729 14cc
00000020: 2738 f0da f21d 88e7 cb2a f1c0 d70e 1fef
00000030: 1926 fb0d 401d 11f3 08df d738 0ff1 fff4
00000040: 09d5 f7c8 201e dedc fb10 062d 3f12 05e3
00000050: 2311 ec06 27f5 2444 050b 01c7 e014 0ac3
00000060: fe2a fb05 d202 bbde eff1 ecec fdf2 3cea
00000070: 2e15 0ded 320c 08ee 06da f312 2214 f2f5
00000080: f7bb 3dc6 07fa f9c0 ecf3 150e 35f4 f8c8
00000090: 22e8 240d 1b05 1b37 0ef0 0edb d825 2dbf
000000a0: fd3c 0e00 980c f9fb e212 fff1 0dfb 10e4
000000b0: 1e20 0606 1df5 f8c7 e8fc 0c08 f7f2 06e5
000000c0: 1fb8 2981 0c48 02f0 2827 3905 0a18 cee2
000000d0: 0df4 c7e2 c6f0 ea00 f623 d305 0817 17c5
000000e0: 0132 04f6 0c19 d2f8 f121 03d2 fe3a f5f6
000000f0: f81f 06fb 3100 13fe f4ef e61e f106 e9ee

sequential_4/conv2d_27/Conv2D i1 [64, 3, 3, 64]
-11 -62 -82 53 45 -50 -75 24
0 -111 -45 21 -43 -65 -56 -40
9 -20 -30 29 4 -34 43 27
19 -24 -8 -42 9 47 -127 -18
-126 -86 -57 33 43 -48 -6 -19
28 -84 -24 -3 0 -11 12 -27
-41 38 -22 67 -64 6 36 -32
71 43 -38 -103 97 4 112 -3
-21 -86 16 13 9 18 -4 -20
-17 -7 -42 3 -1 -40 -66 -34
18 -37 40 20 44 -3 25 13
52 7 -18 -11 42 56 -49 -45
-120 -75 -69 -8 -46 -41 48 -59
24 -109 -54 -66 32 -95 -23 24
-1 7 13 27 -71 17 38 -7
43 7 39 -81 50 -12 -15 -32
-44 -8 -5 44 34 -5 -2 -40
-14 -29 -66 49 -43 -5 -17 -39
24 -43 5 4 106 38 -1 6
18 -15 -46 48 15 12 12 -3
-18 -7 -104 25 8 -29 -84 -66
83 -101 -47 -7 25 -5 -26 21
31 34 -43 42 2 -59 10 -74
19 32 -9 15 33 -18 36 43
40 -18 -64 -29 18 -5 -15 34
-33 -45 -19 -12 -4 -47 -28 -36
-6 25 0 40 -116 90 -9 7
-55 -94 18 -15 53 -11 -29 41
-82 -17 1 14 -92 42 0 -9
-9 24 -39 29 -27 34 66 -42
60 59 -12 68 -52 -22 3 -25
-12 54 55 -33 -66 -13 41 12
00000000: f5c2 ae35 2dce b518 0091 d315 d5bf c8d8
00000010: 09ec e21d 04de 2b1b 13e8 f8d6 092f 81ee
00000020: 82aa c721 2bd0 faed 1cac e8fd 00f5 0ce5
00000030: d726 ea43 c006 24e0 472b da99 6104 70fd
00000040: ebaa 100d 0912 fcec eff9 d603 ffd8 bede
00000050: 12db 2814 2cfd 190d 3407 eef5 2a38 cfd3
00000060: 88b5 bbf8 d2d7 30c5 1893 cabe 20a1 e918
00000070: ff07 0d1b b911 26f9 2b07 27af 32f4 f1e0
00000080: d4f8 fb2c 22fb fed8 f2e3 be31 d5fb efd9
00000090: 18d5 0504 6a26 ff06 12f1 d230 0f0c 0cfd
000000a0: eef9 9819 08e3 acbe 539b d1f9 19fb e615
000000b0: 1f22 d52a 02c5 0ab6 1320 f70f 21ee 242b
000000c0: 28ee c0e3 12fb f122 dfd3 edf4 fcd1 e4dc
000000d0: fa19 0028 8c5a f707 c9a2 12f1 35f5 e329
000000e0: aeef 010e a42a 00f7 f718 d91d e522 42d6
000000f0: 3c3b f444 ccea 03e7 f436 37df bef3 290c

sequential_4/conv2d_26/Conv2D i1 [64, 3, 3, 32]
-63 11 -41 -33 50 57 67 24
32 -12 5 -21 39 31 25 21
-13 23 12 25 -12 -8 -59 -29
-28 39 39 -15 39 40 6 -26
-25 51 -13 -64 -7 36 31 14
-15 18 40 12 9 58 22 7
-53 18 42 66 -17 -3 24 20
-30 64 22 18 22 -27 57 15
-24 1 -53 34 -6 61 16 46
-54 8 -6 -73 -24 30 49 13
-43 19 36 -8 9 10 27 20
21 36 51 31 33 -27 23 20
-72 6 48 -41 22 -34 0 13
-2 -35 -51 32 2 -86 -51 -41
-3 -53 -4 -21 -2 -55 -46 -24
-47 -16 8 -89 -66 7 10 -44
-23 -2 79 -57 7 18 7 -20
4 -31 -27 34 -17 -12 -39 -47
4 12 -68 -9 11 22 -47 24
-64 -16 -42 -98 6 8 -9 45
-48 30 28 -46 -23 35 27 -4
5 -44 -54 -40 -36 -45 -7 -44
-33 -50 -6 -71 -7 57 -29 -1
-10 -20 8 12 -24 11 -46 -16
-44 -13 -3 42 23 -65 28 9
94 -18 -23 69 38 -57 -22 31
-3 -42 77 -24 -47 -66 -26 -14
-3 13 13 -8 -98 48 5 -60
-20 -20 34 48 -22 -44 26 -127
31 -59 11 64 -31 -86 -5 19
35 -33 31 -7 -18 -10 8 1
-20 -47 13 -33 -15 21 -36 -24
00000000: c10b d7df 3239 4318 20f4 05eb 271f 1915
00000010: f317 0c19 f4f8 c5e3 e427 27f1 2728 06e6
00000020: e733 f3c0 f924 1f0e f112 280c 093a 1607
00000030: cb12 2a42 effd 1814 e240 1612 16e5 390f
00000040: e801 cb22 fa3d 102e ca08 fab7 e81e 310d
00000050: d513 24f8 090a 1b14 1524 331f 21e5 1714
00000060: b806 30d7 16de 000d fedd cd20 02aa cdd7
00000070: fdcb fceb fec9 d2e8 d1f0 08a7 be07 0ad4
00000080: e9fe 4fc7 0712 07ec 04e1 e522 eff4 d9d1
00000090: 040c bcf7 0b16 d118 c0f0 d69e 0608 f72d
000000a0: d01e 1cd2 e923 1bfc 05d4 cad8 dcd3 f9d4
000000b0: dfce fab9 f939 e3ff f6ec 080c e80b d2f0
000000c0: d4f3 fd2a 17bf 1c09 5eee e945 26c7 ea1f
000000d0: fdd6 4de8 d1be e6f2 fd0d 0df8 9e30 05c4
000000e0: ecec 2230 ead4 1a81 1fc5 0b40 e1aa fb13
000000f0: 23df 1ff9 eef6 0801 ecd1 0ddf f115 dce8

sequential_4/conv2d_25/Conv2D i1 [32, 3, 3, 32]
71 -7 81 -38 -4 -50 -15 51
60 54 -9 -78 -9 -33 -15 124
71 -34 39 -31 -50 -47 40 26
-9 70 12 34 7 18 107 31
71 -62 47 -89 14 -55 20 17
21 61 -24 0 -40 1 -43 99
4 6 45 -65 6 16 49 -64
-13 -43 28 -21 -1 -7 18 35
-6 -2 -65 -47 -76 42 -25 5
14 -18 -17 75 -51 -52 -35 46
7 -65 49 16 -22 -50 -11 18
-11 32 12 -33 -53 -33 17 57
30 33 -24 35 -32 -37 66 -18
58 49 105 11 -60 -66 -39 36
73 -22 -110 3 -76 -41 -34 19
53 32 -23 -28 -3 -23 -34 21
-76 -44 -42 -2 -33 -99 -44 -100
7 17 -21 -13 19 -23 -114 -15
38 -27 -42 -127 -34 11 40 -55
6 -87 -55 15 -69 -1 -124 -28
-94 39 -17 -14 -68 45 0 -67
-67 -35 57 32 -44 -37 -94 -18
-28 -52 7 -38 20 -38 -29 -4
41 -5 -77 -115 -56 -3 -22 28
99 -23 35 62 -31 45 33 25
89 -13 84 -13 33 -65 21 -61
6 8 -22 -29 -31 -12 20 48
30 -21 35 77 25 6 74 -15
49 -46 104 -47 -24 -5 14 11
-55 -5 -64 -34 16 -62 -67 40
30 -39 68 -23 9 -29 52 6
43 -76 37 82 -36 36 -23 -8
00000000: 47f9 51da fcce f133 3c36 f7b2 f7df f17c
00000010: 47de 27e1 ced1 281a f746 0c22 0712 6b1f
00000020: 47c2 2fa7 0ec9 1411 153d e800 d801 d563
00000030: 0406 2dbf 0610 31c0 f3d5 1ceb fff9 1223
00000040: fafe bfd1 b42a e705 0eee ef4b cdcc dd2e
00000050: 07bf 3110 eace f512 f520 0cdf cbdf 1139
00000060: 1e21 e823 e0db 42ee 3a31 690b c4be d924
00000070: 49ea 9203 b4d7 de13 3520 e9e4 fde9 de15
00000080: b4d4 d6fe df9d d49c 0711 ebf3 13e9 8ef1
00000090: 26e5 d681 de0b 28c9 06a9 c90f bbff 84e4
000000a0: a227 eff2 bc2d 00bd bddd 3920 d4db a2ee
000000b0: e4cc 07da 14da e3fc 29fb b38d c8fd ea1c
000000c0: 63e9 233e e12d 2119 59f3 54f3 21bf 15c3
000000d0: 0608 eae3 e1f4 1430 1eeb 234d 1906 4af1
000000e0: 31d2 68d1 e8fb 0e0b c9fb c0de 10c2 bd28
000000f0: 1ed9 44e9 09e3 3406 2bb4 2552 dc24 e9f8

sequential_4/conv2d_24/Conv2D i1 [32, 3, 3, 3]
2 -20 90 92 -27 16 71 0
119 -31 43 -1 -40 -67 100 78
-4 51 4 -104 -72 18 -108 -38
-114 -127 32 -41 121 94 -88 -46
-127 122 20 -77 -22 -20 123 -89
-73 -116 88 113 31 20 10 24
41 -63 41 -18 -70 3 97 101
-63 -6 106 45 -41 -19 56 -14
40 -32 26 79 51 -127 -39 -28
-26 -80 -77 -104 -98 -58 -41 -83
-10 -7 -73 -127 54 -25 -46 55
63 72 -29 -67 -34 6 17 -14
-10 47 90 -80 0 -81 -3 19
60 29 -23 98 -25 -22 -42 25
-48 -27 127 62 48 2 37 -83
85 67 -38 116 33 1 -65 39
-35 -43 37 31 -32 -5 24 -51
53 15 25 -33 -22 -5 27 -24
-108 -75 -32 93 53 51 15 23
35 -8 77 117 -19 -127 -78 64
-24 -45 104 -45 -46 -44 -21 -30
38 113 -7 1 5 -73 -127 -40
-94 -75 -58 50 71 -37 42 11
59 59 5 50 92 -4 -36 -17
-127 -5 -22 -117 -38 -10 -80 -14
-13 16 -8 -42 34 34 -17 61
30 -15 92 82 3 72 77 32
-26 -127 72 -77 -38 -19 -78 -67
-93 -16 -107 -33 40 -60 93 -65
61 69 -22 -99 4 105 -5 106
70 88 22 0 -46 25 37 -72
-74 54 -127 -112 15 14 -40 37
00000000: 02ec 5a5c e510 4700 77e1 2bff d8bd 644e
00000010: fc33 0498 b812 94da 8e81 20d7 795e a8d2
00000020: 817a 14b3 eaec 7ba7 b78c 5871 1f14 0a18
00000030: 29c1 29ee ba03 6165 c1fa 6a2d d7ed 38f2
00000040: 28e0 1a4f 3381 d9e4 e6b0 b398 9ec6 d7ad
00000050: f6f9 b781 36e7 d237 3f48 e3bd de06 11f2
00000060: f62f 5ab0 00af fd13 3c1d e962 e7ea d619
00000070: d0e5 7f3e 3002 25ad 5543 da74 2101 bf27
00000080: ddd5 251f e0fb 18cd 350f 19df eafb 1be8
00000090: 94b5 e05d 3533 0f17 23f8 4d75 ed81 b240
000000a0: e8d3 68d3 d2d4 ebe2 2671 f901 05b7 81d8
000000b0: a2b5 c632 47db 2a0b 3b3b 0532 5cfc dcef
000000c0: 81fb ea8b daf6 b0f2 f310 f8d6 2222 ef3d
000000d0: 1ef1 5c52 0348 4d20 e681 48b3 daed b2bd
000000e0: a3f0 95df 28c4 5dbf 3d45 ea9d 0469 fb6a
000000f0: 4658 1600 d219 25b8 b636 8190 0f0e d825
