part3_edge_optimization/full_integer.tflite (tflite, 343200 bytes, 8 tensors)

sequential_4/dense_9/MatMul i1 [10, 256] scale=0.004505876 zero_point=0
000000 18 15 1c dd ec 23 19 08 d6 1c 11 c1 1c f0 be 17
       0.10814102 0.094623394 0.12616453 -0.15770566 -0.09011752 0.15770566 0.1126469 0.036047008 -0.18924679 0.12616453 0.07659989 -0.2838702 0.12616453 -0.072094016 -0.2973878 0.10363515
000010 0c 0a 29 e9 21 0d d3 ed 13 d7 fe ca 0d de e4 e4
       0.05407051 0.04505876 0.18474092 -0.10363515 0.1486939 0.058576386 -0.20276442 -0.08561164 0.08561164 -0.18474092 -0.009011752 -0.2433173 0.058576386 -0.15319978 -0.12616453 -0.12616453
000020 13 f0 dc a9 10 08 df d4 ef 20 12 d7 e1 be ea c7
       0.08561164 -0.072094016 -0.16221154 -0.39201123 0.072094016 0.036047008 -0.1486939 -0.19825855 -0.07659989 0.14418803 0.08110577 -0.18474092 -0.13968216 -0.2973878 -0.099129274 -0.25683492
000030 fe 17 f6 d5 f2 16 15 d8 0b 17 0b 0f ed e9 16 19
       -0.009011752 0.10363515 -0.04505876 -0.19375266 -0.06308226 0.099129274 0.094623394 -0.18023504 0.049564637 0.10363515 0.049564637 0.06758814 -0.08561164 -0.10363515 0.099129274 0.1126469
000040 06 0d 00 ec ee 11 04 db ea ee cc 0b 18 08 e5 cc
       0.027035255 0.058576386 0.0 -0.09011752 -0.08110577 0.07659989 0.018023504 -0.16671741 -0.099129274 -0.08110577 -0.23430555 0.049564637 0.10814102 0.036047008 -0.12165865 -0.23430555
000050 d2 e6 0f a7 0a 14 02 14 bf 22 15 0d 1e 0d f9 05
       -0.2072703 -0.11715277 0.06758814 -0.40102297 0.04505876 0.09011752 0.009011752 0.09011752 -0.29288194 0.15319978 0.094623394 0.058576386 0.13517629 0.058576386 -0.03154113 0.02252938
000060 18 f0 e4 da 1f 03 fe d3 19 02 ee 1c f6 18 19 bd
       0.10814102 -0.072094016 -0.12616453 -0.17122328 0.13968216 0.0135176275 -0.009011752 -0.20276442 0.1126469 0.009011752 -0.08110577 0.12616453 -0.04505876 0.10814102 0.1126469 -0.30189368
000070 e6 17 e8 ec fc 1f dc 28 1a 04 d6 00 d6 04 0f db
       -0.11715277 0.10363515 -0.10814102 -0.09011752 -0.018023504 0.13968216 -0.16221154 0.18023504 0.11715277 0.018023504 -0.18924679 0.0 -0.18924679 0.018023504 0.06758814 -0.16671741
000080 1f 15 11 12 0f fe bd 1a d3 f9 d8 23 1b ef 0b f0
       0.13968216 0.094623394 0.07659989 0.08110577 0.06758814 -0.009011752 -0.30189368 0.11715277 -0.20276442 -0.03154113 -0.18023504 0.15770566 0.12165865 -0.07659989 0.049564637 -0.072094016
000090 25 cb 11 21 cc fd 20 2c 23 d9 ee d0 27 f1 00 ec
       0.16671741 -0.23881143 0.07659989 0.1486939 -0.23430555 -0.0135176275 0.14418803 0.19825855 0.15770566 -0.17572917 -0.08110577 -0.21628204 0.17572917 -0.06758814 0.0 -0.09011752
0000a0 0c fd ff 0f e6 ce f3 de fc 22 03 e8 f0 de d4 e1
       0.05407051 -0.0135176275 -0.004505876 0.06758814 -0.11715277 -0.2252938 -0.058576386 -0.15319978 -0.018023504 0.15319978 0.0135176275 -0.10814102 -0.072094016 -0.15319978 -0.19825855 -0.13968216
0000b0 08 e4 d3 02 18 f8 f4 fa 15 d0 d5 04 fd 1a ff da
       0.036047008 -0.12616453 -0.20276442 0.009011752 0.10814102 -0.036047008 -0.05407051 -0.027035255 0.094623394 -0.21628204 -0.19375266 0.018023504 -0.0135176275 0.11715277 -0.004505876 -0.17122328
0000c0 f6 13 3b fb 0d f5 d5 20 09 d4 db 1f 1c 2e f8 0b
       -0.04505876 0.08561164 0.26584667 -0.02252938 0.058576386 -0.049564637 -0.19375266 0.14418803 0.040552884 -0.19825855 -0.16671741 0.13968216 0.12616453 0.2072703 -0.036047008 0.049564637
0000d0 03 e7 13 1a f0 01 ef 1d ec f6 09 02 24 b0 d3 b5
       0.0135176275 -0.1126469 0.08561164 0.11715277 -0.072094016 0.004505876 -0.07659989 0.1306704 -0.09011752 -0.04505876 0.040552884 0.009011752 0.16221154 -0.3604701 -0.20276442 -0.3379407
0000e0 0c 0e fe 0d 15 02 e7 16 fa 01 0e bb f7 07 18 bc
       0.05407051 0.06308226 -0.009011752 0.058576386 0.094623394 0.009011752 -0.1126469 0.099129274 -0.027035255 0.004505876 0.06308226 -0.31090546 -0.040552884 0.03154113 0.10814102 -0.30639955
0000f0 c0 0c 1e 0f 15 0e fc c2 20 0d e0 e3 22 11 ff 09
       -0.28837606 0.05407051 0.13517629 0.06758814 0.094623394 0.06308226 -0.018023504 -0.27936432 0.14418803 0.058576386 -0.14418803 -0.1306704 0.15319978 0.07659989 -0.004505876 0.040552884

sequential_4/dense_8/MatMul i1 [256, 128] scale=0.004705079 zero_point=0
000000 df fb 31 06 fd 02 e6 f1 02 f8 12 ef ec 19 f4 08
       -0.1552676 -0.023525394 0.23054886 0.028230473 -0.014115237 0.009410158 -0.12233205 -0.07057618 0.009410158 -0.03764063 0.08469142 -0.07998634 -0.09410158 0.11762697 -0.056460947 0.03764063
000010 11 ec 22 ff f6 f4 d9 ef dc 1e ff 1c fb 10 0c 20
       0.07998634 -0.09410158 0.15997268 -0.004705079 -0.04705079 -0.056460947 -0.18349808 -0.07998634 -0.16938284 0.14115237 -0.004705079 0.13174221 -0.023525394 0.07528126 0.056460947 0.15056252
000020 c2 18 18 44 f6 e4 10 f9 1a f2 0f e7 15 e4 e9 36
       -0.2917149 0.11292189 0.11292189 0.31994537 -0.04705079 -0.13174221 0.07528126 -0.032935552 0.12233205 -0.065871105 0.07057618 -0.11762697 0.09880666 -0.13174221 -0.108216815 0.25407428
000030 dd 1c 17 ea fe 0a 17 eb 04 e1 f0 12 f0 05 02 1e
       -0.16467777 0.13174221 0.108216815 -0.103511736 -0.009410158 0.04705079 0.108216815 -0.09880666 0.018820316 -0.14585745 -0.07528126 0.08469142 -0.07528126 0.023525394 0.009410158 0.14115237
000040 ec f1 0e 28 e9 f9 f1 03 fd ed d1 f2 de 11 fa 0c
       -0.09410158 -0.07057618 0.065871105 0.18820316 -0.108216815 -0.032935552 -0.07057618 0.014115237 -0.014115237 -0.0893965 -0.22113872 -0.065871105 -0.15997268 0.07998634 -0.028230473 0.056460947
000050 e3 18 04 eb 04 0f fc f3 08 01 36 18 fe 3f 12 2b
       -0.13644728 0.11292189 0.018820316 -0.09880666 0.018820316 0.07057618 -0.018820316 -0.061166026 0.03764063 0.004705079 0.25407428 0.11292189 -0.009410158 0.29641998 0.08469142 0.2023184
000060 f1 14 fb 07 10 bd 11 06 01 eb 11 02 f5 ed 04 e3
       -0.07057618 0.09410158 -0.023525394 0.032935552 0.07528126 -0.3152403 0.07998634 0.028230473 0.004705079 -0.09880666 0.07998634 0.009410158 -0.051755868 -0.0893965 0.018820316 -0.13644728
000070 f8 eb eb ee ea 07 0e ee d7 f6 fd ef 30 09 1a ef
       -0.03764063 -0.09880666 -0.09880666 -0.08469142 -0.103511736 0.032935552 0.065871105 -0.08469142 -0.19290823 -0.04705079 -0.014115237 -0.07998634 0.22584379 0.04234571 0.12233205 -0.07998634
000080 22 0e ee ff e9 d5 c4 f8 ee 03 01 f9 bc 05 e3 2e
       0.15997268 0.065871105 -0.08469142 -0.004705079 -0.108216815 -0.2023184 -0.28230473 -0.03764063 -0.08469142 0.014115237 0.004705079 -0.032935552 -0.31994537 0.023525394 -0.13644728 0.21643363
000090 27 04 f9 ef 22 08 e7 01 d1 fa 08 05 02 e8 f9 eb
       0.18349808 0.018820316 -0.032935552 -0.07998634 0.15997268 0.03764063 -0.11762697 0.004705079 -0.22113872 -0.028230473 0.03764063 0.023525394 0.009410158 -0.11292189 -0.032935552 -0.09880666
0000a0 f1 00 14 dc 19 fe fa 01 11 f5 ff da 2a 04 df 10
       -0.07057618 0.0 0.09410158 -0.16938284 0.11762697 -0.009410158 -0.028230473 0.004705079 0.07998634 -0.051755868 -0.004705079 -0.178793 0.19761331 0.018820316 -0.1552676 0.07528126
0000b0 04 16 06 0d 17 dd 0a 17 b8 ef eb e8 01 ee f7 0d
       0.018820316 0.103511736 0.028230473 0.061166026 0.108216815 -0.16467777 0.04705079 0.108216815 -0.33876568 -0.07998634 -0.09880666 -0.11292189 0.004705079 -0.08469142 -0.04234571 0.061166026
0000c0 1d f4 1e 07 c0 1a cf 1d 15 08 ef 26 de 0f e6 f7
       0.13644728 -0.056460947 0.14115237 0.032935552 -0.30112505 0.12233205 -0.23054886 0.13644728 0.09880666 0.03764063 -0.07998634 0.178793 -0.15997268 0.07057618 -0.12233205 -0.04234571
0000d0 08 11 1c 1d fb 04 eb ee 1d e3 19 06 2f 02 1b ec
       0.03764063 0.07998634 0.13174221 0.13644728 -0.023525394 0.018820316 -0.09880666 -0.08469142 0.13644728 -0.13644728 0.11762697 0.028230473 0.22113872 0.009410158 0.12703714 -0.09410158
0000e0 03 25 14 e5 01 fb 13 0a 22 e6 05 fb 31 0b f8 f3
       0.014115237 0.17408791 0.09410158 -0.12703714 0.004705079 -0.023525394 0.0893965 0.04705079 0.15997268 -0.12233205 0.023525394 -0.023525394 0.23054886 0.051755868 -0.03764063 -0.061166026
0000f0 2a f9 11 1a 0e 26 e1 0d 14 f8 0a ff fa 07 20 21
       0.19761331 -0.032935552 0.07998634 0.12233205 0.065871105 0.178793 -0.14585745 0.061166026 0.09410158 -0.03764063 0.04705079 -0.004705079 -0.028230473 0.032935552 0.15056252 0.1552676

sequential_4/conv2d_29/Conv2D i1 [128, 3, 3, 128]
000000 f1 fc 08 f8 c1 2b 48 11 4a ec c9 fe 18 59 16 1a
       -15 -4 8 -8 -63 43 72 17 74 -20 -55 -2 24 89 22 26
000010 e1 20 42 ee f3 f6 2a 05 f9 3d 1e 3d 2f b2 5d ce
       -31 32 66 -18 -13 -10 42 5 -7 61 30 61 47 -78 93 -50
000020 f3 ed f3 07 0a 18 10 f8 16 e2 10 cf 01 f8 ed b8
       -13 -19 -13 7 10 24 16 -8 22 -30 16 -49 1 -8 -19 -72
000030 1a ed 01 e1 b8 ef ff 11 9f 29 b0 fb f0 2d 1d 1b
       26 -19 1 -31 -72 -17 -1 17 -97 41 -80 -5 -16 45 29 27
000040 ab 32 37 fa e1 10 bc 34 14 24 f9 10 df ce e4 11
       -85 50 55 -6 -31 16 -68 52 20 36 -7 16 -33 -50 -28 17
000050 e2 eb 2b 23 da 14 f5 22 e4 da f5 fa fe e0 f0 ed
       -30 -21 43 35 -38 20 -11 34 -28 -38 -11 -6 -2 -32 -16 -19
000060 27 01 c6 34 d5 fe 23 0b 0e e1 46 02 34 1b fd 4a
       39 1 -58 52 -43 -2 35 11 14 -31 70 2 52 27 -3 74
000070 02 15 fc fe c7 3b ed e6 f7 b3 da 26 2d ef f1 22
       2 21 -4 -2 -57 59 -19 -26 -9 -77 -38 38 45 -17 -15 34
000080 f5 0e fa 0b c3 31 13 15 1d c3 e2 d3 20 40 06 3b
       -11 14 -6 11 -61 49 19 21 29 -61 -30 -45 32 64 6 59
000090 e4 f2 2b 00 f3 d1 4a e5 db 00 3b 36 1f b9 48 c8
       -28 -14 43 0 -13 -47 74 -27 -37 0 59 54 31 -71 72 -56
0000a0 0b fe d2 ea 02 1e fe 05 f5 c9 15 eb 0a e3 cc d1
       11 -2 -46 -22 2 30 -2 5 -11 -55 21 -21 10 -29 -52 -47
0000b0 f6 e4 f4 b4 d6 eb fc 1f b0 39 af 07 f0 11 1d fb
       -10 -28 -12 -76 -42 -21 -4 31 -80 57 -81 7 -16 17 29 -5
0000c0 a3 f7 1e 16 e7 09 cb 3a ea 1c f9 1f fa d6 eb 0b
       -93 -9 30 22 -25 9 -53 58 -22 28 -7 31 -6 -42 -21 11
0000d0 e1 fc 19 33 df 27 fb 16 05 fd e6 06 0c df de f4
       -31 -4 25 51 -33 39 -5 22 5 -3 -26 6 12 -33 -34 -12
0000e0 17 16 fc 31 e4 f0 06 ed 05 f0 48 fd 24 28 ef 3a
       23 22 -4 49 -28 -16 6 -19 5 -16 72 -3 36 40 -17 58
0000f0 fa ff f2 ef 10 f9 ce e4 fd ac ca 16 1e d7 00 fd
       -6 -1 -14 -17 16 -7 -50 -28 -3 -84 -54 22 30 -41 0 -3

sequential_4/conv2d_28/Conv2D i1 [128, 3, 3, 64]
000000 1a 9f f2 f0 fb bf 9c b2 a9 35 18 33 24 15 11 20
       26 -97 -14 -16 -5 -65 -100 -78 -87 53 24 51 36 21 17 32
000010 ee 08 ad 0b 12 12 df db ce ca c7 6b 11 1c 20 ec
       -18 8 -83 11 18 18 -33 -37 -50 -54 -57 107 17 28 32 -20
000020 42 00 c2 24 20 fe 92 f1 fa c0 cf cc e4 fd f4 05
       66 0 -62 36 32 -2 -110 -15 -6 -64 -49 -52 -28 -3 -12 5
000030 a4 28 f1 f1 fc d0 dc e9 09 b1 cf b0 42 03 fd 17
       -92 40 -15 -15 -4 -48 -36 -23 9 -79 -49 -80 66 3 -3 23
000040 d2 ad ac 4a f6 f1 e8 ff e2 07 10 d4 ea 3b 46 22
       -46 -83 -84 74 -10 -15 -24 -1 -30 7 16 -44 -22 59 70 34
000050 fa 00 b2 48 f6 02 e2 dd 15 16 d4 15 5c 1c 10 19
       -6 0 -78 72 -10 2 -30 -35 21 22 -44 21 92 28 16 25
000060 f3 18 ac 3f 14 47 e6 f5 c2 10 c4 da b8 27 3c 08
       -13 24 -84 63 20 71 -26 -11 -62 16 -60 -38 -72 39 60 8
000070 a5 06 0a cf dc c4 be c3 0b ae d6 e8 ff fd 2f 0f
       -91 6 10 -49 -36 -60 -66 -61 11 -82 -42 -24 -1 -3 47 15
000080 00 bf d9 fc bf 93 03 c2 1d e3 f8 be 02 f2 21 cc
       0 -65 -39 -4 -65 -109 3 -62 29 -29 -8 -66 2 -14 33 -52
000090 0e cd f9 66 a6 e3 e9 cf f8 ec f5 13 54 f4 b8 32
       14 -51 -7 102 -90 -29 -23 -49 -8 -20 -11 19 84 -12 -72 50
0000a0 d0 01 b6 45 c0 24 e8 1a a7 d9 a3 f4 fb 1e 0c e4
       -48 1 -74 69 -64 36 -24 26 -89 -39 -93 -12 -5 30 12 -28
0000b0 b3 16 52 cf 12 f8 a5 b5 90 e4 cd 08 e5 39 39 24
       -77 22 82 -49 18 -8 -91 -75 -112 -28 -51 8 -27 57 57 36
0000c0 0e d5 1d 14 37 e4 d8 db db 20 19 1a f6 e7 30 0e
       14 -43 29 20 55 -28 -40 -37 -37 32 25 26 -10 -25 48 14
0000d0 06 27 8e 16 04 29 ec 13 f1 ce fc fd 49 39 47 cc
       6 39 -114 22 4 41 -20 19 -15 -50 -4 -3 73 57 71 -52
0000e0 11 ed e6 fc e0 f1 f6 ff aa e8 f7 de 14 03 08 35
       17 -19 -26 -4 -32 -15 -10 -1 -86 -24 -9 -34 20 3 8 53
0000f0 c6 e0 f3 d8 30 c2 2e f5 dc e7 02 d1 47 09 12 06
       -58 -32 -13 -40 48 -62 46 -11 -36 -25 2 -47 71 9 18 6

sequential_4/conv2d_27/Conv2D i1 [64, 3, 3, 64]
000000 1c e8 1a 01 f3 f2 0e 00 dc 2e 0e e5 ce 4e ca 0e
       28 -24 26 1 -13 -14 14 0 -36 46 14 -27 -50 78 -54 14
000010 c4 fd e0 0e db f5 de d5 fb f5 f6 f0 f4 e8 ca d0
       -60 -3 -32 14 -37 -11 -34 -43 -5 -11 -10 -16 -12 -24 -54 -48
000020 b1 3b c8 fa ae dc e6 ab e6 29 e2 16 d7 ba ec fe
       -79 59 -56 -6 -82 -36 -26 -85 -26 41 -30 22 -41 -70 -20 -2
000030 cd e9 f8 ea 0d a7 b0 03 21 1e f1 0d fb 1c d3 19
       -51 -23 -8 -22 13 -89 -80 3 33 30 -15 13 -5 28 -45 25
000040 1f ec 0e fb 1d df dc e2 c0 0f 32 b5 c7 19 b4 02
       31 -20 14 -5 29 -33 -36 -30 -64 15 50 -75 -57 25 -76 2
000050 ce f1 d5 06 d9 13 0e ee f5 cd 0a 0c 1e e8 e8 f9
       -50 -15 -43 6 -39 19 14 -18 -11 -51 10 12 30 -24 -24 -7
000060 a8 1e f7 29 c5 bc df ba c7 fd f4 09 d6 f8 fe db
       -88 30 -9 41 -59 -68 -33 -70 -57 -3 -12 9 -42 -8 -2 -37
000070 86 b4 1f 90 04 e0 a0 06 00 d6 c6 0e fc 0a 1d 06
       -122 -76 31 -112 4 -32 -96 6 0 -42 -58 14 -4 10 29 6
000080 fd 13 f0 03 05 db 09 1c ae cb ef f0 10 37 e5 17
       -3 19 -16 3 5 -37 9 28 -82 -53 -17 -16 16 55 -27 23
000090 e8 f4 d3 0d f4 41 0a cd 16 c5 14 1f 37 0d 03 21
       -24 -12 -45 13 -12 65 10 -51 22 -59 20 31 55 13 3 33
0000a0 b9 21 c2 06 d9 d3 f2 81 1a 03 e4 04 ce f9 0e e3
       -71 33 -62 6 -39 -45 -14 -127 26 3 -28 4 -50 -7 14 -29
0000b0 d7 d5 41 a3 fc f5 cb 06 0d d4 35 c4 fa 0f f5 06
       -41 -43 65 -93 -4 -11 -53 6 13 -44 53 -60 -6 15 -11 6
0000c0 0d f3 40 04 fb 0d 24 31 1d f2 0d 14 d4 0d f3 12
       13 -13 64 4 -5 13 36 49 29 -14 13 20 -44 13 -13 18
0000d0 e7 f2 00 da da 32 22 14 11 f6 dd 07 2f 1e 15 13
       -25 -14 0 -38 -38 50 34 20 17 -10 -35 7 47 30 21 19
0000e0 0e ff bd 25 04 0f 12 eb e0 d7 12 00 f3 d4 f6 19
       14 -1 -67 37 4 15 18 -21 -32 -41 18 0 -13 -44 -10 25
0000f0 1f ed 16 12 08 01 ca 16 10 28 3b e1 eb 12 2f 27
       31 -19 22 18 8 1 -54 22 16 40 59 -31 -21 18 47 39

sequential_4/conv2d_26/Conv2D i1 [64, 3, 3, 32]
000000 06 f6 1c 06 f1 05 f3 ac ff 0d f0 12 11 f8 33 eb
       6 -10 28 6 -15 5 -13 -84 -1 13 -16 18 17 -8 51 -21
000010 06 17 fc 22 2f 20 e0 3c 01 fb 18 22 e7 0e 31 04
       6 23 -4 34 47 32 -32 60 1 -5 24 34 -25 14 49 4
000020 d3 ed 1a 1b e2 29 e4 e4 f4 d0 f3 f9 36 e3 01 fa
       -45 -19 26 27 -30 41 -28 -28 -12 -48 -13 -7 54 -29 1 -6
000030 21 0e f2 0b f4 0c ee 2f 0d d1 28 11 fb fb 13 08
       33 14 -14 11 -12 12 -18 47 13 -47 40 17 -5 -5 19 8
000040 c7 d5 22 07 1d cf f8 c7 f8 02 fd e6 02 f1 0b fb
       -57 -43 34 7 29 -49 -8 -57 -8 2 -3 -26 2 -15 11 -5
000050 06 f1 ce 02 ed 0a be 35 dd ca 0e d7 d8 22 08 0e
       6 -15 -50 2 -19 10 -66 53 -35 -54 14 -41 -40 34 8 14
000060 d9 d5 14 0d fe 2a f7 c8 e2 f7 f8 f4 fd e3 d4 f5
       -39 -43 20 13 -2 42 -9 -56 -30 -9 -8 -12 -3 -29 -44 -11
000070 33 17 ee 10 10 f2 f4 1f e9 e2 29 05 d4 18 fb ef
       51 23 -18 16 16 -14 -12 31 -23 -30 41 5 -44 24 -5 -17
000080 de ce f3 1c 1c ec f0 b8 e2 f4 ef b9 f8 f6 e5 f2
       -34 -50 -13 28 28 -20 -16 -72 -30 -12 -17 -71 -8 -10 -27 -14
000090 07 02 06 21 dc d9 dc 2c f7 97 3b fa ff d8 fc 0f
       7 2 6 33 -36 -39 -36 44 -9 -105 59 -6 -1 -40 -4 15
0000a0 cd dc 0f 21 28 e0 c7 81 bd 03 0b c2 16 dc 0c e3
       -51 -36 15 33 40 -32 -57 -127 -67 3 11 -62 22 -36 12 -29
0000b0 10 23 f2 29 de 03 d3 5c e7 e5 4f fe ea ee e5 e2
       16 35 -14 41 -34 3 -45 92 -25 -27 79 -2 -22 -18 -27 -30
0000c0 f2 d2 f3 e2 15 12 22 d8 06 f4 d8 32 35 15 f7 1e
       -14 -46 -13 -30 21 18 34 -40 6 -12 -40 50 53 21 -9 30
0000d0 04 30 0b ce f7 e2 cf 1b c3 de fa e2 da 16 00 0e
       4 48 11 -50 -9 -30 -49 27 -61 -34 -6 -30 -38 22 0 14
0000e0 d0 ca 10 ee 26 f8 15 e1 14 f6 14 07 2c 04 f9 0e
       -48 -54 16 -18 38 -8 21 -31 20 -10 20 7 44 4 -7 14
0000f0 03 15 21 24 12 da e9 18 f6 00 21 b8 f1 f1 d3 1f
       3 21 33 36 18 -38 -23 24 -10 0 33 -72 -15 -15 -45 31

sequential_4/conv2d_25/Conv2D i1 [32, 3, 3, 32]
000000 e2 f4 38 09 fb f0 f4 ea 1e d3 1d fd e8 fd b8 e0
       -30 -12 56 9 -5 -16 -12 -22 30 -45 29 -3 -24 -3 -72 -32
000010 d9 e5 e5 fd 1d 0d e6 e3 0a 01 f0 d0 cb ec 1a fa
       -39 -27 -27 -3 29 13 -26 -29 10 1 -16 -48 -53 -20 26 -6
000020 00 f9 26 f0 e5 f6 e3 0e f3 e2 f8 01 f8 cb b3 11
       0 -7 38 -16 -27 -10 -29 14 -13 -30 -8 1 -8 -53 -77 17
000030 06 f7 18 0b 02 0a fd f1 fd 10 32 09 e5 e1 9e f4
       6 -9 24 11 2 10 -3 -15 -3 16 50 9 -27 -31 -98 -12
000040 fa 11 30 e8 c6 0b d4 f6 03 ba 0c 21 f2 d2 bf fc
       -6 17 48 -24 -58 11 -44 -10 3 -70 12 33 -14 -46 -65 -4
000050 17 db 3a e3 f7 ce fe 1a e2 e6 1f 3c e7 ff 8b e3
       23 -37 58 -29 -9 -50 -2 26 -30 -26 31 60 -25 -1 -117 -29
000060 fb f0 f6 07 25 12 2b f5 1f 07 fc eb 1c eb f2 16
       -5 -16 -10 7 37 18 43 -11 31 7 -4 -21 28 -21 -14 22
000070 e1 1e d7 14 46 55 12 ef 0d 02 07 e4 f5 d6 48 0a
       -31 30 -41 20 70 85 18 -17 13 2 7 -28 -11 -42 72 10
000080 f7 d0 03 12 37 3c 01 13 f8 e6 e9 05 10 d0 ed 08
       -9 -48 3 18 55 60 1 19 -8 -26 -23 5 16 -48 -19 8
000090 f9 ff 02 13 3a 28 07 0e 23 09 2c ed d8 e6 27 00
       -7 -1 2 19 58 40 7 14 35 9 44 -19 -40 -26 39 0
0000a0 20 06 1f 03 e2 23 11 0e 25 f3 00 1f f1 e9 eb 01
       32 6 31 3 -30 35 17 14 37 -13 0 31 -15 -23 -21 1
0000b0 0b 27 16 f9 40 fc 1b e5 08 33 11 fe 07 cb bc ff
       11 39 22 -7 64 -4 27 -27 8 51 17 -2 7 -53 -68 -1
0000c0 d8 2a 81 f9 17 0d 15 2c d8 fa f8 c4 ec 0d df 03
       -40 42 -127 -7 23 13 21 44 -40 -6 -8 -60 -20 13 -33 3
0000d0 f2 0e f9 26 fe 02 e2 19 e1 17 c8 d5 04 de 61 06
       -14 14 -7 38 -2 2 -30 25 -31 23 -56 -43 4 -34 97 6
0000e0 db 08 a0 d9 17 f6 0f 29 ee 19 f1 c8 fd ef 08 d4
       -37 8 -96 -39 23 -10 15 41 -18 25 -15 -56 -3 -17 8 -44
0000f0 fb 26 e1 03 14 14 e9 05 f7 f0 e0 08 0e f0 5b 33
       -5 38 -31 3 20 20 -23 5 -9 -16 -32 8 14 -16 91 51

sequential_4/conv2d_24/Conv2D i1 [32, 3, 3, 3]
000000 04 8e 00 45 b0 fb 30 f0 e7 7f 11 98 61 a9 e5 4b
       4 -114 0 69 -80 -5 48 -16 -25 127 17 -104 97 -87 -27 75
000010 22 40 21 0a e3 fa da 3d a9 d1 5f e6 cf fb 4d 7f
       34 64 33 10 -29 -6 -38 61 -87 -47 95 -26 -49 -5 77 127
000020 78 18 de b2 e3 fc ba c4 3e 2b c3 c2 92 52 d0 28
       120 24 -34 -78 -29 -4 -70 -60 62 43 -61 -62 -110 82 -48 40
000030 dc 91 f3 16 70 52 b0 29 57 cd 34 51 81 03 73 00
       -36 -111 -13 22 112 82 -80 41 87 -51 52 81 -127 3 115 0
000040 c3 04 f5 bc de 31 d0 0f 26 4b 9e 3f 3c b6 6d cf
       -61 4 -11 -68 -34 49 -48 15 38 75 -98 63 60 -74 109 -49
000050 a2 57 7f cd 5f 16 b1 e8 d9 1e 60 1e 08 95 ac f4
       -94 87 127 -51 95 22 -79 -24 -39 30 96 30 8 -107 -84 -12
000060 d6 ee 04 18 e1 23 96 e6 1c ca fa 1e 16 13 f9 2d
       -42 -18 4 24 -31 35 -106 -26 28 -54 -6 30 22 19 -7 45
000070 ed 4a 65 33 2c 91 14 17 aa 81 ed 38 08 a4 09 69
       -19 74 101 51 44 -111 20 23 -86 -127 -19 56 8 -92 9 105
000080 57 e2 46 cc d8 af a7 2b b1 a9 2a e1 20 fe f5 35
       87 -30 70 -52 -40 -81 -89 43 -79 -87 42 -31 32 -2 -11 53
000090 d4 a4 81 f9 df 27 50 32 2e da c9 01 0f 48 f1 02
       -44 -92 -127 -7 -33 39 80 50 46 -38 -55 1 15 72 -15 2
0000a0 db 1a cb e3 2a cf ec 97 5f 12 53 ea 6b 4b a5 6e
       -37 26 -53 -29 42 -49 -20 -105 95 18 83 -22 107 75 -91 110
0000b0 c1 0f 47 3a f0 e2 fb 9d 34 ae a4 24 81 e2 cd 1d
       -63 15 71 58 -16 -30 -5 -99 52 -82 -92 36 -127 -30 -51 29
0000c0 39 9e 1e b4 81 a0 20 fe cc fe c6 3a 3c cb a3 37
       57 -98 30 -76 -127 -96 32 -2 -52 -2 -58 58 60 -53 -93 55
0000d0 38 e8 44 ee 04 f3 1a c6 20 3b 74 23 7a 6d e4 26
       56 -24 68 -18 4 -13 26 -58 32 59 116 35 122 109 -28 38
0000e0 53 d2 a7 26 c3 83 81 ea ae b7 14 ed c2 6c d4 2b
       83 -46 -89 38 -61 -125 -127 -22 -82 -73 20 -19 -62 108 -44 43
0000f0 24 ec dd ac a8 33 66 38 64 27 b9 03 1e 5f 33 7f
       36 -20 -35 -84 -88 51 102 56 100 39 -71 3 30 95 51 127
